{"format": "graph-model", "generatedBy": "2.7.0", "convertedBy": "TensorFlow.js Converter v4.22.0", "signature": {"inputs": {"input_1": {"name": "input_1:0", "dtype": "DT_FLOAT", "tensorShape": {"dim": [{"size": "-1"}, {"size": "-1"}, {"size": "-1"}, {"size": "3"}]}}}, "outputs": {"output_1": {"name": "Identity:0", "dtype": "DT_FLOAT", "tensorShape": {"dim": [{"size": "-1"}, {"size": "1280"}]}}}}, "modelTopology": {"node": [{"name": "StatefulPartitionedCall/efficientnetv2-m/blocks_56/se/Mean/reduction_indices", "op": "Const", "attr": {"value": {"tensor": {"dtype": "DT_INT32", "tensorShape": {"dim": [{"size": "2"}]}}}, "dtype": {"type": "DT_INT32"}}}, {"name": "StatefulPartitionedCall/efficientnetv2-m/blocks_56/se/conv2d/Conv2D/ReadVariableOp", "op": "Const", "attr": {"value": {"tensor": {"dtype": "DT_FLOAT", "tensorShape": {"dim": [{"size": "1"}, {"size": "1"}, {"size": "3072"}, {"size": "128"}]}}}, "dtype": {"type": "DT_FLOAT"}}}, {"name": "StatefulPartitionedCall/efficientnetv2-m/blocks_56/se/conv2d/BiasAdd/ReadVariableOp", "op": "Const", "attr": {"value": {"tensor": {"dtype": "DT_FLOAT", "tensorShape": {"dim": [{"size": "128"}]}}}, "dtype": {"type": "DT_FLOAT"}}}, {"name": "StatefulPartitionedCall/efficientnetv2-m/blocks_56/se/conv2d_1/Conv2D/ReadVariableOp", "op": "Const", "attr": {"value": {"tensor": {"dtype": "DT_FLOAT", "tensorShape": {"dim": [{"size": "1"}, {"size": "1"}, {"size": "128"}, {"size": "3072"}]}}}, "dtype": {"type": "DT_FLOAT"}}}, {"name": "StatefulPartitionedCall/efficientnetv2-m/blocks_56/se/conv2d_1/BiasAdd/ReadVariableOp", "op": "Const", "attr": {"value": {"tensor": {"dtype": "DT_FLOAT", "tensorShape": {"dim": [{"size": "3072"}]}}}, "dtype": {"type": "DT_FLOAT"}}}, {"name": "StatefulPartitionedCall/efficientnetv2-m/blocks_55/se/Mean/reduction_indices", "op": "Const", "attr": {"value": {"tensor": {"dtype": "DT_INT32", "tensorShape": {"dim": [{"size": "2"}]}}}, "dtype": {"type": "DT_INT32"}}}, {"name": "StatefulPartitionedCall/efficientnetv2-m/blocks_55/se/conv2d/Conv2D/ReadVariableOp", "op": "Const", "attr": {"value": {"tensor": {"dtype": "DT_FLOAT", "tensorShape": {"dim": [{"size": "1"}, {"size": "1"}, {"size": "3072"}, {"size": "128"}]}}}, "dtype": {"type": "DT_FLOAT"}}}, {"name": "StatefulPartitionedCall/efficientnetv2-m/blocks_55/se/conv2d/BiasAdd/ReadVariableOp", "op": "Const", "attr": {"value": {"tensor": {"dtype": "DT_FLOAT", "tensorShape": {"dim": [{"size": "128"}]}}}, "dtype": {"type": "DT_FLOAT"}}}, {"name": "StatefulPartitionedCall/efficientnetv2-m/blocks_55/se/conv2d_1/Conv2D/ReadVariableOp", "op": "Const", "attr": {"value": {"tensor": {"dtype": "DT_FLOAT", "tensorShape": {"dim": [{"size": "1"}, {"size": "1"}, {"size": "128"}, {"size": "3072"}]}}}, "dtype": {"type": "DT_FLOAT"}}}, {"name": "StatefulPartitionedCall/efficientnetv2-m/blocks_55/se/conv2d_1/BiasAdd/ReadVariableOp", "op": "Const", "attr": {"value": {"tensor": {"dtype": "DT_FLOAT", "tensorShape": {"dim": [{"size": "3072"}]}}}, "dtype": {"type": "DT_FLOAT"}}}, {"name": "StatefulPartitionedCall/efficientnetv2-m/blocks_54/se/Mean/reduction_indices", "op": "Const", "attr": {"value": {"tensor": {"dtype": "DT_INT32", "tensorShape": {"dim": [{"size": "2"}]}}}, "dtype": {"type": "DT_INT32"}}}, {"name": "StatefulPartitionedCall/efficientnetv2-m/blocks_54/se/conv2d/Conv2D/ReadVariableOp", "op": "Const", "attr": {"value": {"tensor": {"dtype": "DT_FLOAT", "tensorShape": {"dim": [{"size": "1"}, {"size": "1"}, {"size": "3072"}, {"size": "128"}]}}}, "dtype": {"type": "DT_FLOAT"}}}, {"name": "StatefulPartitionedCall/efficientnetv2-m/blocks_54/se/conv2d/BiasAdd/ReadVariableOp", "op": "Const", "attr": {"value": {"tensor": {"dtype": "DT_FLOAT", "tensorShape": {"dim": [{"size": "128"}]}}}, "dtype": {"type": "DT_FLOAT"}}}, {"name": "StatefulPartitionedCall/efficientnetv2-m/blocks_54/se/conv2d_1/Conv2D/ReadVariableOp", "op": "Const", "attr": {"value": {"tensor": {"dtype": "DT_FLOAT", "tensorShape": {"dim": [{"size": "1"}, {"size": "1"}, {"size": "128"}, {"size": "3072"}]}}}, "dtype": {"type": "DT_FLOAT"}}}, {"name": "StatefulPartitionedCall/efficientnetv2-m/blocks_54/se/conv2d_1/BiasAdd/ReadVariableOp", "op": "Const", "attr": {"value": {"tensor": {"dtype": "DT_FLOAT", "tensorShape": {"dim": [{"size": "3072"}]}}}, "dtype": {"type": "DT_FLOAT"}}}, {"name": "StatefulPartitionedCall/efficientnetv2-m/blocks_53/se/Mean/reduction_indices", "op": "Const", "attr": {"value": {"tensor": {"dtype": "DT_INT32", "tensorShape": {"dim": [{"size": "2"}]}}}, "dtype": {"type": "DT_INT32"}}}, {"name": "StatefulPartitionedCall/efficientnetv2-m/blocks_53/se/conv2d/Conv2D/ReadVariableOp", "op": "Const", "attr": {"value": {"tensor": {"dtype": "DT_FLOAT", "tensorShape": {"dim": [{"size": "1"}, {"size": "1"}, {"size": "3072"}, {"size": "128"}]}}}, "dtype": {"type": "DT_FLOAT"}}}, {"name": "StatefulPartitionedCall/efficientnetv2-m/blocks_53/se/conv2d/BiasAdd/ReadVariableOp", "op": "Const", "attr": {"value": {"tensor": {"dtype": "DT_FLOAT", "tensorShape": {"dim": [{"size": "128"}]}}}, "dtype": {"type": "DT_FLOAT"}}}, {"name": "StatefulPartitionedCall/efficientnetv2-m/blocks_53/se/conv2d_1/Conv2D/ReadVariableOp", "op": "Const", "attr": {"value": {"tensor": {"dtype": "DT_FLOAT", "tensorShape": {"dim": [{"size": "1"}, {"size": "1"}, {"size": "128"}, {"size": "3072"}]}}}, "dtype": {"type": "DT_FLOAT"}}}, {"name": "StatefulPartitionedCall/efficientnetv2-m/blocks_53/se/conv2d_1/BiasAdd/ReadVariableOp", "op": "Const", "attr": {"value": {"tensor": {"dtype": "DT_FLOAT", "tensorShape": {"dim": [{"size": "3072"}]}}}, "dtype": {"type": "DT_FLOAT"}}}, {"name": "StatefulPartitionedCall/efficientnetv2-m/blocks_52/se/Mean/reduction_indices", "op": "Const", "attr": {"value": {"tensor": {"dtype": "DT_INT32", "tensorShape": {"dim": [{"size": "2"}]}}}, "dtype": {"type": "DT_INT32"}}}, {"name": "StatefulPartitionedCall/efficientnetv2-m/blocks_52/se/conv2d/Conv2D/ReadVariableOp", "op": "Const", "attr": {"value": {"tensor": {"dtype": "DT_FLOAT", "tensorShape": {"dim": [{"size": "1"}, {"size": "1"}, {"size": "1824"}, {"size": "76"}]}}}, "dtype": {"type": "DT_FLOAT"}}}, {"name": "StatefulPartitionedCall/efficientnetv2-m/blocks_52/se/conv2d/BiasAdd/ReadVariableOp", "op": "Const", "attr": {"value": {"tensor": {"dtype": "DT_FLOAT", "tensorShape": {"dim": [{"size": "76"}]}}}, "dtype": {"type": "DT_FLOAT"}}}, {"name": "StatefulPartitionedCall/efficientnetv2-m/blocks_52/se/conv2d_1/Conv2D/ReadVariableOp", "op": "Const", "attr": {"value": {"tensor": {"dtype": "DT_FLOAT", "tensorShape": {"dim": [{"size": "1"}, {"size": "1"}, {"size": "76"}, {"size": "1824"}]}}}, "dtype": {"type": "DT_FLOAT"}}}, {"name": "StatefulPartitionedCall/efficientnetv2-m/blocks_52/se/conv2d_1/BiasAdd/ReadVariableOp", "op": "Const", "attr": {"value": {"tensor": {"dtype": "DT_FLOAT", "tensorShape": {"dim": [{"size": "1824"}]}}}, "dtype": {"type": "DT_FLOAT"}}}, {"name": "StatefulPartitionedCall/efficientnetv2-m/blocks_51/se/Mean/reduction_indices", "op": "Const", "attr": {"value": {"tensor": {"dtype": "DT_INT32", "tensorShape": {"dim": [{"size": "2"}]}}}, "dtype": {"type": "DT_INT32"}}}, {"name": "StatefulPartitionedCall/efficientnetv2-m/blocks_51/se/conv2d/Conv2D/ReadVariableOp", "op": "Const", "attr": {"value": {"tensor": {"dtype": "DT_FLOAT", "tensorShape": {"dim": [{"size": "1"}, {"size": "1"}, {"size": "1824"}, {"size": "76"}]}}}, "dtype": {"type": "DT_FLOAT"}}}, {"name": "StatefulPartitionedCall/efficientnetv2-m/blocks_51/se/conv2d/BiasAdd/ReadVariableOp", "op": "Const", "attr": {"value": {"tensor": {"dtype": "DT_FLOAT", "tensorShape": {"dim": [{"size": "76"}]}}}, "dtype": {"type": "DT_FLOAT"}}}, {"name": "StatefulPartitionedCall/efficientnetv2-m/blocks_51/se/conv2d_1/Conv2D/ReadVariableOp", "op": "Const", "attr": {"value": {"tensor": {"dtype": "DT_FLOAT", "tensorShape": {"dim": [{"size": "1"}, {"size": "1"}, {"size": "76"}, {"size": "1824"}]}}}, "dtype": {"type": "DT_FLOAT"}}}, {"name": "StatefulPartitionedCall/efficientnetv2-m/blocks_51/se/conv2d_1/BiasAdd/ReadVariableOp", "op": "Const", "attr": {"value": {"tensor": {"dtype": "DT_FLOAT", "tensorShape": {"dim": [{"size": "1824"}]}}}, "dtype": {"type": "DT_FLOAT"}}}, {"name": "StatefulPartitionedCall/efficientnetv2-m/blocks_50/se/Mean/reduction_indices", "op": "Const", "attr": {"value": {"tensor": {"dtype": "DT_INT32", "tensorShape": {"dim": [{"size": "2"}]}}}, "dtype": {"type": "DT_INT32"}}}, {"name": "StatefulPartitionedCall/efficientnetv2-m/blocks_50/se/conv2d/Conv2D/ReadVariableOp", "op": "Const", "attr": {"value": {"tensor": {"dtype": "DT_FLOAT", "tensorShape": {"dim": [{"size": "1"}, {"size": "1"}, {"size": "1824"}, {"size": "76"}]}}}, "dtype": {"type": "DT_FLOAT"}}}, {"name": "StatefulPartitionedCall/efficientnetv2-m/blocks_50/se/conv2d/BiasAdd/ReadVariableOp", "op": "Const", "attr": {"value": {"tensor": {"dtype": "DT_FLOAT", "tensorShape": {"dim": [{"size": "76"}]}}}, "dtype": {"type": "DT_FLOAT"}}}, {"name": "StatefulPartitionedCall/efficientnetv2-m/blocks_50/se/conv2d_1/Conv2D/ReadVariableOp", "op": "Const", "attr": {"value": {"tensor": {"dtype": "DT_FLOAT", "tensorShape": {"dim": [{"size": "1"}, {"size": "1"}, {"size": "76"}, {"size": "1824"}]}}}, "dtype": {"type": "DT_FLOAT"}}}, {"name": "StatefulPartitionedCall/efficientnetv2-m/blocks_50/se/conv2d_1/BiasAdd/ReadVariableOp", "op": "Const", "attr": {"value": {"tensor": {"dtype": "DT_FLOAT", "tensorShape": {"dim": [{"size": "1824"}]}}}, "dtype": {"type": "DT_FLOAT"}}}, {"name": "StatefulPartitionedCall/efficientnetv2-m/blocks_49/se/Mean/reduction_indices", "op": "Const", "attr": {"value": {"tensor": {"dtype": "DT_INT32", "tensorShape": {"dim": [{"size": "2"}]}}}, "dtype": {"type": "DT_INT32"}}}, {"name": "StatefulPartitionedCall/efficientnetv2-m/blocks_49/se/conv2d/Conv2D/ReadVariableOp", "op": "Const", "attr": {"value": {"tensor": {"dtype": "DT_FLOAT", "tensorShape": {"dim": [{"size": "1"}, {"size": "1"}, {"size": "1824"}, {"size": "76"}]}}}, "dtype": {"type": "DT_FLOAT"}}}, {"name": "StatefulPartitionedCall/efficientnetv2-m/blocks_49/se/conv2d/BiasAdd/ReadVariableOp", "op": "Const", "attr": {"value": {"tensor": {"dtype": "DT_FLOAT", "tensorShape": {"dim": [{"size": "76"}]}}}, "dtype": {"type": "DT_FLOAT"}}}, {"name": "StatefulPartitionedCall/efficientnetv2-m/blocks_49/se/conv2d_1/Conv2D/ReadVariableOp", "op": "Const", "attr": {"value": {"tensor": {"dtype": "DT_FLOAT", "tensorShape": {"dim": [{"size": "1"}, {"size": "1"}, {"size": "76"}, {"size": "1824"}]}}}, "dtype": {"type": "DT_FLOAT"}}}, {"name": "StatefulPartitionedCall/efficientnetv2-m/blocks_49/se/conv2d_1/BiasAdd/ReadVariableOp", "op": "Const", "attr": {"value": {"tensor": {"dtype": "DT_FLOAT", "tensorShape": {"dim": [{"size": "1824"}]}}}, "dtype": {"type": "DT_FLOAT"}}}, {"name": "StatefulPartitionedCall/efficientnetv2-m/blocks_48/se/Mean/reduction_indices", "op": "Const", "attr": {"value": {"tensor": {"dtype": "DT_INT32", "tensorShape": {"dim": [{"size": "2"}]}}}, "dtype": {"type": "DT_INT32"}}}, {"name": "StatefulPartitionedCall/efficientnetv2-m/blocks_48/se/conv2d/Conv2D/ReadVariableOp", "op": "Const", "attr": {"value": {"tensor": {"dtype": "DT_FLOAT", "tensorShape": {"dim": [{"size": "1"}, {"size": "1"}, {"size": "1824"}, {"size": "76"}]}}}, "dtype": {"type": "DT_FLOAT"}}}, {"name": "StatefulPartitionedCall/efficientnetv2-m/blocks_48/se/conv2d/BiasAdd/ReadVariableOp", "op": "Const", "attr": {"value": {"tensor": {"dtype": "DT_FLOAT", "tensorShape": {"dim": [{"size": "76"}]}}}, "dtype": {"type": "DT_FLOAT"}}}, {"name": "StatefulPartitionedCall/efficientnetv2-m/blocks_48/se/conv2d_1/Conv2D/ReadVariableOp", "op": "Const", "attr": {"value": {"tensor": {"dtype": "DT_FLOAT", "tensorShape": {"dim": [{"size": "1"}, {"size": "1"}, {"size": "76"}, {"size": "1824"}]}}}, "dtype": {"type": "DT_FLOAT"}}}, {"name": "StatefulPartitionedCall/efficientnetv2-m/blocks_48/se/conv2d_1/BiasAdd/ReadVariableOp", "op": "Const", "attr": {"value": {"tensor": {"dtype": "DT_FLOAT", "tensorShape": {"dim": [{"size": "1824"}]}}}, "dtype": {"type": "DT_FLOAT"}}}, {"name": "StatefulPartitionedCall/efficientnetv2-m/blocks_47/se/Mean/reduction_indices", "op": "Const", "attr": {"value": {"tensor": {"dtype": "DT_INT32", "tensorShape": {"dim": [{"size": "2"}]}}}, "dtype": {"type": "DT_INT32"}}}, {"name": "StatefulPartitionedCall/efficientnetv2-m/blocks_47/se/conv2d/Conv2D/ReadVariableOp", "op": "Const", "attr": {"value": {"tensor": {"dtype": "DT_FLOAT", "tensorShape": {"dim": [{"size": "1"}, {"size": "1"}, {"size": "1824"}, {"size": "76"}]}}}, "dtype": {"type": "DT_FLOAT"}}}, {"name": "StatefulPartitionedCall/efficientnetv2-m/blocks_47/se/conv2d/BiasAdd/ReadVariableOp", "op": "Const", "attr": {"value": {"tensor": {"dtype": "DT_FLOAT", "tensorShape": {"dim": [{"size": "76"}]}}}, "dtype": {"type": "DT_FLOAT"}}}, {"name": "StatefulPartitionedCall/efficientnetv2-m/blocks_47/se/conv2d_1/Conv2D/ReadVariableOp", "op": "Const", "attr": {"value": {"tensor": {"dtype": "DT_FLOAT", "tensorShape": {"dim": [{"size": "1"}, {"size": "1"}, {"size": "76"}, {"size": "1824"}]}}}, "dtype": {"type": "DT_FLOAT"}}}, {"name": "StatefulPartitionedCall/efficientnetv2-m/blocks_47/se/conv2d_1/BiasAdd/ReadVariableOp", "op": "Const", "attr": {"value": {"tensor": {"dtype": "DT_FLOAT", "tensorShape": {"dim": [{"size": "1824"}]}}}, "dtype": {"type": "DT_FLOAT"}}}, {"name": "StatefulPartitionedCall/efficientnetv2-m/blocks_46/se/Mean/reduction_indices", "op": "Const", "attr": {"value": {"tensor": {"dtype": "DT_INT32", "tensorShape": {"dim": [{"size": "2"}]}}}, "dtype": {"type": "DT_INT32"}}}, {"name": "StatefulPartitionedCall/efficientnetv2-m/blocks_46/se/conv2d/Conv2D/ReadVariableOp", "op": "Const", "attr": {"value": {"tensor": {"dtype": "DT_FLOAT", "tensorShape": {"dim": [{"size": "1"}, {"size": "1"}, {"size": "1824"}, {"size": "76"}]}}}, "dtype": {"type": "DT_FLOAT"}}}, {"name": "StatefulPartitionedCall/efficientnetv2-m/blocks_46/se/conv2d/BiasAdd/ReadVariableOp", "op": "Const", "attr": {"value": {"tensor": {"dtype": "DT_FLOAT", "tensorShape": {"dim": [{"size": "76"}]}}}, "dtype": {"type": "DT_FLOAT"}}}, {"name": "StatefulPartitionedCall/efficientnetv2-m/blocks_46/se/conv2d_1/Conv2D/ReadVariableOp", "op": "Const", "attr": {"value": {"tensor": {"dtype": "DT_FLOAT", "tensorShape": {"dim": [{"size": "1"}, {"size": "1"}, {"size": "76"}, {"size": "1824"}]}}}, "dtype": {"type": "DT_FLOAT"}}}, {"name": "StatefulPartitionedCall/efficientnetv2-m/blocks_46/se/conv2d_1/BiasAdd/ReadVariableOp", "op": "Const", "attr": {"value": {"tensor": {"dtype": "DT_FLOAT", "tensorShape": {"dim": [{"size": "1824"}]}}}, "dtype": {"type": "DT_FLOAT"}}}, {"name": "StatefulPartitionedCall/efficientnetv2-m/blocks_45/se/Mean/reduction_indices", "op": "Const", "attr": {"value": {"tensor": {"dtype": "DT_INT32", "tensorShape": {"dim": [{"size": "2"}]}}}, "dtype": {"type": "DT_INT32"}}}, {"name": "StatefulPartitionedCall/efficientnetv2-m/blocks_45/se/conv2d/Conv2D/ReadVariableOp", "op": "Const", "attr": {"value": {"tensor": {"dtype": "DT_FLOAT", "tensorShape": {"dim": [{"size": "1"}, {"size": "1"}, {"size": "1824"}, {"size": "76"}]}}}, "dtype": {"type": "DT_FLOAT"}}}, {"name": "StatefulPartitionedCall/efficientnetv2-m/blocks_45/se/conv2d/BiasAdd/ReadVariableOp", "op": "Const", "attr": {"value": {"tensor": {"dtype": "DT_FLOAT", "tensorShape": {"dim": [{"size": "76"}]}}}, "dtype": {"type": "DT_FLOAT"}}}, {"name": "StatefulPartitionedCall/efficientnetv2-m/blocks_45/se/conv2d_1/Conv2D/ReadVariableOp", "op": "Const", "attr": {"value": {"tensor": {"dtype": "DT_FLOAT", "tensorShape": {"dim": [{"size": "1"}, {"size": "1"}, {"size": "76"}, {"size": "1824"}]}}}, "dtype": {"type": "DT_FLOAT"}}}, {"name": "StatefulPartitionedCall/efficientnetv2-m/blocks_45/se/conv2d_1/BiasAdd/ReadVariableOp", "op": "Const", "attr": {"value": {"tensor": {"dtype": "DT_FLOAT", "tensorShape": {"dim": [{"size": "1824"}]}}}, "dtype": {"type": "DT_FLOAT"}}}, {"name": "StatefulPartitionedCall/efficientnetv2-m/blocks_44/se/Mean/reduction_indices", "op": "Const", "attr": {"value": {"tensor": {"dtype": "DT_INT32", "tensorShape": {"dim": [{"size": "2"}]}}}, "dtype": {"type": "DT_INT32"}}}, {"name": "StatefulPartitionedCall/efficientnetv2-m/blocks_44/se/conv2d/Conv2D/ReadVariableOp", "op": "Const", "attr": {"value": {"tensor": {"dtype": "DT_FLOAT", "tensorShape": {"dim": [{"size": "1"}, {"size": "1"}, {"size": "1824"}, {"size": "76"}]}}}, "dtype": {"type": "DT_FLOAT"}}}, {"name": "StatefulPartitionedCall/efficientnetv2-m/blocks_44/se/conv2d/BiasAdd/ReadVariableOp", "op": "Const", "attr": {"value": {"tensor": {"dtype": "DT_FLOAT", "tensorShape": {"dim": [{"size": "76"}]}}}, "dtype": {"type": "DT_FLOAT"}}}, {"name": "StatefulPartitionedCall/efficientnetv2-m/blocks_44/se/conv2d_1/Conv2D/ReadVariableOp", "op": "Const", "attr": {"value": {"tensor": {"dtype": "DT_FLOAT", "tensorShape": {"dim": [{"size": "1"}, {"size": "1"}, {"size": "76"}, {"size": "1824"}]}}}, "dtype": {"type": "DT_FLOAT"}}}, {"name": "StatefulPartitionedCall/efficientnetv2-m/blocks_44/se/conv2d_1/BiasAdd/ReadVariableOp", "op": "Const", "attr": {"value": {"tensor": {"dtype": "DT_FLOAT", "tensorShape": {"dim": [{"size": "1824"}]}}}, "dtype": {"type": "DT_FLOAT"}}}, {"name": "StatefulPartitionedCall/efficientnetv2-m/blocks_43/se/Mean/reduction_indices", "op": "Const", "attr": {"value": {"tensor": {"dtype": "DT_INT32", "tensorShape": {"dim": [{"size": "2"}]}}}, "dtype": {"type": "DT_INT32"}}}, {"name": "StatefulPartitionedCall/efficientnetv2-m/blocks_43/se/conv2d/Conv2D/ReadVariableOp", "op": "Const", "attr": {"value": {"tensor": {"dtype": "DT_FLOAT", "tensorShape": {"dim": [{"size": "1"}, {"size": "1"}, {"size": "1824"}, {"size": "76"}]}}}, "dtype": {"type": "DT_FLOAT"}}}, {"name": "StatefulPartitionedCall/efficientnetv2-m/blocks_43/se/conv2d/BiasAdd/ReadVariableOp", "op": "Const", "attr": {"value": {"tensor": {"dtype": "DT_FLOAT", "tensorShape": {"dim": [{"size": "76"}]}}}, "dtype": {"type": "DT_FLOAT"}}}, {"name": "StatefulPartitionedCall/efficientnetv2-m/blocks_43/se/conv2d_1/Conv2D/ReadVariableOp", "op": "Const", "attr": {"value": {"tensor": {"dtype": "DT_FLOAT", "tensorShape": {"dim": [{"size": "1"}, {"size": "1"}, {"size": "76"}, {"size": "1824"}]}}}, "dtype": {"type": "DT_FLOAT"}}}, {"name": "StatefulPartitionedCall/efficientnetv2-m/blocks_43/se/conv2d_1/BiasAdd/ReadVariableOp", "op": "Const", "attr": {"value": {"tensor": {"dtype": "DT_FLOAT", "tensorShape": {"dim": [{"size": "1824"}]}}}, "dtype": {"type": "DT_FLOAT"}}}, {"name": "StatefulPartitionedCall/efficientnetv2-m/blocks_42/se/Mean/reduction_indices", "op": "Const", "attr": {"value": {"tensor": {"dtype": "DT_INT32", "tensorShape": {"dim": [{"size": "2"}]}}}, "dtype": {"type": "DT_INT32"}}}, {"name": "StatefulPartitionedCall/efficientnetv2-m/blocks_42/se/conv2d/Conv2D/ReadVariableOp", "op": "Const", "attr": {"value": {"tensor": {"dtype": "DT_FLOAT", "tensorShape": {"dim": [{"size": "1"}, {"size": "1"}, {"size": "1824"}, {"size": "76"}]}}}, "dtype": {"type": "DT_FLOAT"}}}, {"name": "StatefulPartitionedCall/efficientnetv2-m/blocks_42/se/conv2d/BiasAdd/ReadVariableOp", "op": "Const", "attr": {"value": {"tensor": {"dtype": "DT_FLOAT", "tensorShape": {"dim": [{"size": "76"}]}}}, "dtype": {"type": "DT_FLOAT"}}}, {"name": "StatefulPartitionedCall/efficientnetv2-m/blocks_42/se/conv2d_1/Conv2D/ReadVariableOp", "op": "Const", "attr": {"value": {"tensor": {"dtype": "DT_FLOAT", "tensorShape": {"dim": [{"size": "1"}, {"size": "1"}, {"size": "76"}, {"size": "1824"}]}}}, "dtype": {"type": "DT_FLOAT"}}}, {"name": "StatefulPartitionedCall/efficientnetv2-m/blocks_42/se/conv2d_1/BiasAdd/ReadVariableOp", "op": "Const", "attr": {"value": {"tensor": {"dtype": "DT_FLOAT", "tensorShape": {"dim": [{"size": "1824"}]}}}, "dtype": {"type": "DT_FLOAT"}}}, {"name": "StatefulPartitionedCall/efficientnetv2-m/blocks_41/se/Mean/reduction_indices", "op": "Const", "attr": {"value": {"tensor": {"dtype": "DT_INT32", "tensorShape": {"dim": [{"size": "2"}]}}}, "dtype": {"type": "DT_INT32"}}}, {"name": "StatefulPartitionedCall/efficientnetv2-m/blocks_41/se/conv2d/Conv2D/ReadVariableOp", "op": "Const", "attr": {"value": {"tensor": {"dtype": "DT_FLOAT", "tensorShape": {"dim": [{"size": "1"}, {"size": "1"}, {"size": "1824"}, {"size": "76"}]}}}, "dtype": {"type": "DT_FLOAT"}}}, {"name": "StatefulPartitionedCall/efficientnetv2-m/blocks_41/se/conv2d/BiasAdd/ReadVariableOp", "op": "Const", "attr": {"value": {"tensor": {"dtype": "DT_FLOAT", "tensorShape": {"dim": [{"size": "76"}]}}}, "dtype": {"type": "DT_FLOAT"}}}, {"name": "StatefulPartitionedCall/efficientnetv2-m/blocks_41/se/conv2d_1/Conv2D/ReadVariableOp", "op": "Const", "attr": {"value": {"tensor": {"dtype": "DT_FLOAT", "tensorShape": {"dim": [{"size": "1"}, {"size": "1"}, {"size": "76"}, {"size": "1824"}]}}}, "dtype": {"type": "DT_FLOAT"}}}, {"name": "StatefulPartitionedCall/efficientnetv2-m/blocks_41/se/conv2d_1/BiasAdd/ReadVariableOp", "op": "Const", "attr": {"value": {"tensor": {"dtype": "DT_FLOAT", "tensorShape": {"dim": [{"size": "1824"}]}}}, "dtype": {"type": "DT_FLOAT"}}}, {"name": "StatefulPartitionedCall/efficientnetv2-m/blocks_40/se/Mean/reduction_indices", "op": "Const", "attr": {"value": {"tensor": {"dtype": "DT_INT32", "tensorShape": {"dim": [{"size": "2"}]}}}, "dtype": {"type": "DT_INT32"}}}, {"name": "StatefulPartitionedCall/efficientnetv2-m/blocks_40/se/conv2d/Conv2D/ReadVariableOp", "op": "Const", "attr": {"value": {"tensor": {"dtype": "DT_FLOAT", "tensorShape": {"dim": [{"size": "1"}, {"size": "1"}, {"size": "1824"}, {"size": "76"}]}}}, "dtype": {"type": "DT_FLOAT"}}}, {"name": "StatefulPartitionedCall/efficientnetv2-m/blocks_40/se/conv2d/BiasAdd/ReadVariableOp", "op": "Const", "attr": {"value": {"tensor": {"dtype": "DT_FLOAT", "tensorShape": {"dim": [{"size": "76"}]}}}, "dtype": {"type": "DT_FLOAT"}}}, {"name": "StatefulPartitionedCall/efficientnetv2-m/blocks_40/se/conv2d_1/Conv2D/ReadVariableOp", "op": "Const", "attr": {"value": {"tensor": {"dtype": "DT_FLOAT", "tensorShape": {"dim": [{"size": "1"}, {"size": "1"}, {"size": "76"}, {"size": "1824"}]}}}, "dtype": {"type": "DT_FLOAT"}}}, {"name": "StatefulPartitionedCall/efficientnetv2-m/blocks_40/se/conv2d_1/BiasAdd/ReadVariableOp", "op": "Const", "attr": {"value": {"tensor": {"dtype": "DT_FLOAT", "tensorShape": {"dim": [{"size": "1824"}]}}}, "dtype": {"type": "DT_FLOAT"}}}, {"name": "StatefulPartitionedCall/efficientnetv2-m/blocks_39/se/Mean/reduction_indices", "op": "Const", "attr": {"value": {"tensor": {"dtype": "DT_INT32", "tensorShape": {"dim": [{"size": "2"}]}}}, "dtype": {"type": "DT_INT32"}}}, {"name": "StatefulPartitionedCall/efficientnetv2-m/blocks_39/se/conv2d/Conv2D/ReadVariableOp", "op": "Const", "attr": {"value": {"tensor": {"dtype": "DT_FLOAT", "tensorShape": {"dim": [{"size": "1"}, {"size": "1"}, {"size": "1824"}, {"size": "76"}]}}}, "dtype": {"type": "DT_FLOAT"}}}, {"name": "StatefulPartitionedCall/efficientnetv2-m/blocks_39/se/conv2d/BiasAdd/ReadVariableOp", "op": "Const", "attr": {"value": {"tensor": {"dtype": "DT_FLOAT", "tensorShape": {"dim": [{"size": "76"}]}}}, "dtype": {"type": "DT_FLOAT"}}}, {"name": "StatefulPartitionedCall/efficientnetv2-m/blocks_39/se/conv2d_1/Conv2D/ReadVariableOp", "op": "Const", "attr": {"value": {"tensor": {"dtype": "DT_FLOAT", "tensorShape": {"dim": [{"size": "1"}, {"size": "1"}, {"size": "76"}, {"size": "1824"}]}}}, "dtype": {"type": "DT_FLOAT"}}}, {"name": "StatefulPartitionedCall/efficientnetv2-m/blocks_39/se/conv2d_1/BiasAdd/ReadVariableOp", "op": "Const", "attr": {"value": {"tensor": {"dtype": "DT_FLOAT", "tensorShape": {"dim": [{"size": "1824"}]}}}, "dtype": {"type": "DT_FLOAT"}}}, {"name": "StatefulPartitionedCall/efficientnetv2-m/blocks_38/se/Mean/reduction_indices", "op": "Const", "attr": {"value": {"tensor": {"dtype": "DT_INT32", "tensorShape": {"dim": [{"size": "2"}]}}}, "dtype": {"type": "DT_INT32"}}}, {"name": "StatefulPartitionedCall/efficientnetv2-m/blocks_38/se/conv2d/Conv2D/ReadVariableOp", "op": "Const", "attr": {"value": {"tensor": {"dtype": "DT_FLOAT", "tensorShape": {"dim": [{"size": "1"}, {"size": "1"}, {"size": "1824"}, {"size": "76"}]}}}, "dtype": {"type": "DT_FLOAT"}}}, {"name": "StatefulPartitionedCall/efficientnetv2-m/blocks_38/se/conv2d/BiasAdd/ReadVariableOp", "op": "Const", "attr": {"value": {"tensor": {"dtype": "DT_FLOAT", "tensorShape": {"dim": [{"size": "76"}]}}}, "dtype": {"type": "DT_FLOAT"}}}, {"name": "StatefulPartitionedCall/efficientnetv2-m/blocks_38/se/conv2d_1/Conv2D/ReadVariableOp", "op": "Const", "attr": {"value": {"tensor": {"dtype": "DT_FLOAT", "tensorShape": {"dim": [{"size": "1"}, {"size": "1"}, {"size": "76"}, {"size": "1824"}]}}}, "dtype": {"type": "DT_FLOAT"}}}, {"name": "StatefulPartitionedCall/efficientnetv2-m/blocks_38/se/conv2d_1/BiasAdd/ReadVariableOp", "op": "Const", "attr": {"value": {"tensor": {"dtype": "DT_FLOAT", "tensorShape": {"dim": [{"size": "1824"}]}}}, "dtype": {"type": "DT_FLOAT"}}}, {"name": "StatefulPartitionedCall/efficientnetv2-m/blocks_37/se/Mean/reduction_indices", "op": "Const", "attr": {"value": {"tensor": {"dtype": "DT_INT32", "tensorShape": {"dim": [{"size": "2"}]}}}, "dtype": {"type": "DT_INT32"}}}, {"name": "StatefulPartitionedCall/efficientnetv2-m/blocks_37/se/conv2d/Conv2D/ReadVariableOp", "op": "Const", "attr": {"value": {"tensor": {"dtype": "DT_FLOAT", "tensorShape": {"dim": [{"size": "1"}, {"size": "1"}, {"size": "1824"}, {"size": "76"}]}}}, "dtype": {"type": "DT_FLOAT"}}}, {"name": "StatefulPartitionedCall/efficientnetv2-m/blocks_37/se/conv2d/BiasAdd/ReadVariableOp", "op": "Const", "attr": {"value": {"tensor": {"dtype": "DT_FLOAT", "tensorShape": {"dim": [{"size": "76"}]}}}, "dtype": {"type": "DT_FLOAT"}}}, {"name": "StatefulPartitionedCall/efficientnetv2-m/blocks_37/se/conv2d_1/Conv2D/ReadVariableOp", "op": "Const", "attr": {"value": {"tensor": {"dtype": "DT_FLOAT", "tensorShape": {"dim": [{"size": "1"}, {"size": "1"}, {"size": "76"}, {"size": "1824"}]}}}, "dtype": {"type": "DT_FLOAT"}}}, {"name": "StatefulPartitionedCall/efficientnetv2-m/blocks_37/se/conv2d_1/BiasAdd/ReadVariableOp", "op": "Const", "attr": {"value": {"tensor": {"dtype": "DT_FLOAT", "tensorShape": {"dim": [{"size": "1824"}]}}}, "dtype": {"type": "DT_FLOAT"}}}, {"name": "StatefulPartitionedCall/efficientnetv2-m/blocks_36/se/Mean/reduction_indices", "op": "Const", "attr": {"value": {"tensor": {"dtype": "DT_INT32", "tensorShape": {"dim": [{"size": "2"}]}}}, "dtype": {"type": "DT_INT32"}}}, {"name": "StatefulPartitionedCall/efficientnetv2-m/blocks_36/se/conv2d/Conv2D/ReadVariableOp", "op": "Const", "attr": {"value": {"tensor": {"dtype": "DT_FLOAT", "tensorShape": {"dim": [{"size": "1"}, {"size": "1"}, {"size": "1824"}, {"size": "76"}]}}}, "dtype": {"type": "DT_FLOAT"}}}, {"name": "StatefulPartitionedCall/efficientnetv2-m/blocks_36/se/conv2d/BiasAdd/ReadVariableOp", "op": "Const", "attr": {"value": {"tensor": {"dtype": "DT_FLOAT", "tensorShape": {"dim": [{"size": "76"}]}}}, "dtype": {"type": "DT_FLOAT"}}}, {"name": "StatefulPartitionedCall/efficientnetv2-m/blocks_36/se/conv2d_1/Conv2D/ReadVariableOp", "op": "Const", "attr": {"value": {"tensor": {"dtype": "DT_FLOAT", "tensorShape": {"dim": [{"size": "1"}, {"size": "1"}, {"size": "76"}, {"size": "1824"}]}}}, "dtype": {"type": "DT_FLOAT"}}}, {"name": "StatefulPartitionedCall/efficientnetv2-m/blocks_36/se/conv2d_1/BiasAdd/ReadVariableOp", "op": "Const", "attr": {"value": {"tensor": {"dtype": "DT_FLOAT", "tensorShape": {"dim": [{"size": "1824"}]}}}, "dtype": {"type": "DT_FLOAT"}}}, {"name": "StatefulPartitionedCall/efficientnetv2-m/blocks_35/se/Mean/reduction_indices", "op": "Const", "attr": {"value": {"tensor": {"dtype": "DT_INT32", "tensorShape": {"dim": [{"size": "2"}]}}}, "dtype": {"type": "DT_INT32"}}}, {"name": "StatefulPartitionedCall/efficientnetv2-m/blocks_35/se/conv2d/Conv2D/ReadVariableOp", "op": "Const", "attr": {"value": {"tensor": {"dtype": "DT_FLOAT", "tensorShape": {"dim": [{"size": "1"}, {"size": "1"}, {"size": "1824"}, {"size": "76"}]}}}, "dtype": {"type": "DT_FLOAT"}}}, {"name": "StatefulPartitionedCall/efficientnetv2-m/blocks_35/se/conv2d/BiasAdd/ReadVariableOp", "op": "Const", "attr": {"value": {"tensor": {"dtype": "DT_FLOAT", "tensorShape": {"dim": [{"size": "76"}]}}}, "dtype": {"type": "DT_FLOAT"}}}, {"name": "StatefulPartitionedCall/efficientnetv2-m/blocks_35/se/conv2d_1/Conv2D/ReadVariableOp", "op": "Const", "attr": {"value": {"tensor": {"dtype": "DT_FLOAT", "tensorShape": {"dim": [{"size": "1"}, {"size": "1"}, {"size": "76"}, {"size": "1824"}]}}}, "dtype": {"type": "DT_FLOAT"}}}, {"name": "StatefulPartitionedCall/efficientnetv2-m/blocks_35/se/conv2d_1/BiasAdd/ReadVariableOp", "op": "Const", "attr": {"value": {"tensor": {"dtype": "DT_FLOAT", "tensorShape": {"dim": [{"size": "1824"}]}}}, "dtype": {"type": "DT_FLOAT"}}}, {"name": "StatefulPartitionedCall/efficientnetv2-m/blocks_34/se/Mean/reduction_indices", "op": "Const", "attr": {"value": {"tensor": {"dtype": "DT_INT32", "tensorShape": {"dim": [{"size": "2"}]}}}, "dtype": {"type": "DT_INT32"}}}, {"name": "StatefulPartitionedCall/efficientnetv2-m/blocks_34/se/conv2d/Conv2D/ReadVariableOp", "op": "Const", "attr": {"value": {"tensor": {"dtype": "DT_FLOAT", "tensorShape": {"dim": [{"size": "1"}, {"size": "1"}, {"size": "1056"}, {"size": "44"}]}}}, "dtype": {"type": "DT_FLOAT"}}}, {"name": "StatefulPartitionedCall/efficientnetv2-m/blocks_34/se/conv2d/BiasAdd/ReadVariableOp", "op": "Const", "attr": {"value": {"tensor": {"dtype": "DT_FLOAT", "tensorShape": {"dim": [{"size": "44"}]}}}, "dtype": {"type": "DT_FLOAT"}}}, {"name": "StatefulPartitionedCall/efficientnetv2-m/blocks_34/se/conv2d_1/Conv2D/ReadVariableOp", "op": "Const", "attr": {"value": {"tensor": {"dtype": "DT_FLOAT", "tensorShape": {"dim": [{"size": "1"}, {"size": "1"}, {"size": "44"}, {"size": "1056"}]}}}, "dtype": {"type": "DT_FLOAT"}}}, {"name": "StatefulPartitionedCall/efficientnetv2-m/blocks_34/se/conv2d_1/BiasAdd/ReadVariableOp", "op": "Const", "attr": {"value": {"tensor": {"dtype": "DT_FLOAT", "tensorShape": {"dim": [{"size": "1056"}]}}}, "dtype": {"type": "DT_FLOAT"}}}, {"name": "StatefulPartitionedCall/efficientnetv2-m/blocks_33/se/Mean/reduction_indices", "op": "Const", "attr": {"value": {"tensor": {"dtype": "DT_INT32", "tensorShape": {"dim": [{"size": "2"}]}}}, "dtype": {"type": "DT_INT32"}}}, {"name": "StatefulPartitionedCall/efficientnetv2-m/blocks_33/se/conv2d/Conv2D/ReadVariableOp", "op": "Const", "attr": {"value": {"tensor": {"dtype": "DT_FLOAT", "tensorShape": {"dim": [{"size": "1"}, {"size": "1"}, {"size": "1056"}, {"size": "44"}]}}}, "dtype": {"type": "DT_FLOAT"}}}, {"name": "StatefulPartitionedCall/efficientnetv2-m/blocks_33/se/conv2d/BiasAdd/ReadVariableOp", "op": "Const", "attr": {"value": {"tensor": {"dtype": "DT_FLOAT", "tensorShape": {"dim": [{"size": "44"}]}}}, "dtype": {"type": "DT_FLOAT"}}}, {"name": "StatefulPartitionedCall/efficientnetv2-m/blocks_33/se/conv2d_1/Conv2D/ReadVariableOp", "op": "Const", "attr": {"value": {"tensor": {"dtype": "DT_FLOAT", "tensorShape": {"dim": [{"size": "1"}, {"size": "1"}, {"size": "44"}, {"size": "1056"}]}}}, "dtype": {"type": "DT_FLOAT"}}}, {"name": "StatefulPartitionedCall/efficientnetv2-m/blocks_33/se/conv2d_1/BiasAdd/ReadVariableOp", "op": "Const", "attr": {"value": {"tensor": {"dtype": "DT_FLOAT", "tensorShape": {"dim": [{"size": "1056"}]}}}, "dtype": {"type": "DT_FLOAT"}}}, {"name": "StatefulPartitionedCall/efficientnetv2-m/blocks_32/se/Mean/reduction_indices", "op": "Const", "attr": {"value": {"tensor": {"dtype": "DT_INT32", "tensorShape": {"dim": [{"size": "2"}]}}}, "dtype": {"type": "DT_INT32"}}}, {"name": "StatefulPartitionedCall/efficientnetv2-m/blocks_32/se/conv2d/Conv2D/ReadVariableOp", "op": "Const", "attr": {"value": {"tensor": {"dtype": "DT_FLOAT", "tensorShape": {"dim": [{"size": "1"}, {"size": "1"}, {"size": "1056"}, {"size": "44"}]}}}, "dtype": {"type": "DT_FLOAT"}}}, {"name": "StatefulPartitionedCall/efficientnetv2-m/blocks_32/se/conv2d/BiasAdd/ReadVariableOp", "op": "Const", "attr": {"value": {"tensor": {"dtype": "DT_FLOAT", "tensorShape": {"dim": [{"size": "44"}]}}}, "dtype": {"type": "DT_FLOAT"}}}, {"name": "StatefulPartitionedCall/efficientnetv2-m/blocks_32/se/conv2d_1/Conv2D/ReadVariableOp", "op": "Const", "attr": {"value": {"tensor": {"dtype": "DT_FLOAT", "tensorShape": {"dim": [{"size": "1"}, {"size": "1"}, {"size": "44"}, {"size": "1056"}]}}}, "dtype": {"type": "DT_FLOAT"}}}, {"name": "StatefulPartitionedCall/efficientnetv2-m/blocks_32/se/conv2d_1/BiasAdd/ReadVariableOp", "op": "Const", "attr": {"value": {"tensor": {"dtype": "DT_FLOAT", "tensorShape": {"dim": [{"size": "1056"}]}}}, "dtype": {"type": "DT_FLOAT"}}}, {"name": "StatefulPartitionedCall/efficientnetv2-m/blocks_31/se/Mean/reduction_indices", "op": "Const", "attr": {"value": {"tensor": {"dtype": "DT_INT32", "tensorShape": {"dim": [{"size": "2"}]}}}, "dtype": {"type": "DT_INT32"}}}, {"name": "StatefulPartitionedCall/efficientnetv2-m/blocks_31/se/conv2d/Conv2D/ReadVariableOp", "op": "Const", "attr": {"value": {"tensor": {"dtype": "DT_FLOAT", "tensorShape": {"dim": [{"size": "1"}, {"size": "1"}, {"size": "1056"}, {"size": "44"}]}}}, "dtype": {"type": "DT_FLOAT"}}}, {"name": "StatefulPartitionedCall/efficientnetv2-m/blocks_31/se/conv2d/BiasAdd/ReadVariableOp", "op": "Const", "attr": {"value": {"tensor": {"dtype": "DT_FLOAT", "tensorShape": {"dim": [{"size": "44"}]}}}, "dtype": {"type": "DT_FLOAT"}}}, {"name": "StatefulPartitionedCall/efficientnetv2-m/blocks_31/se/conv2d_1/Conv2D/ReadVariableOp", "op": "Const", "attr": {"value": {"tensor": {"dtype": "DT_FLOAT", "tensorShape": {"dim": [{"size": "1"}, {"size": "1"}, {"size": "44"}, {"size": "1056"}]}}}, "dtype": {"type": "DT_FLOAT"}}}, {"name": "StatefulPartitionedCall/efficientnetv2-m/blocks_31/se/conv2d_1/BiasAdd/ReadVariableOp", "op": "Const", "attr": {"value": {"tensor": {"dtype": "DT_FLOAT", "tensorShape": {"dim": [{"size": "1056"}]}}}, "dtype": {"type": "DT_FLOAT"}}}, {"name": "StatefulPartitionedCall/efficientnetv2-m/blocks_30/se/Mean/reduction_indices", "op": "Const", "attr": {"value": {"tensor": {"dtype": "DT_INT32", "tensorShape": {"dim": [{"size": "2"}]}}}, "dtype": {"type": "DT_INT32"}}}, {"name": "StatefulPartitionedCall/efficientnetv2-m/blocks_30/se/conv2d/Conv2D/ReadVariableOp", "op": "Const", "attr": {"value": {"tensor": {"dtype": "DT_FLOAT", "tensorShape": {"dim": [{"size": "1"}, {"size": "1"}, {"size": "1056"}, {"size": "44"}]}}}, "dtype": {"type": "DT_FLOAT"}}}, {"name": "StatefulPartitionedCall/efficientnetv2-m/blocks_30/se/conv2d/BiasAdd/ReadVariableOp", "op": "Const", "attr": {"value": {"tensor": {"dtype": "DT_FLOAT", "tensorShape": {"dim": [{"size": "44"}]}}}, "dtype": {"type": "DT_FLOAT"}}}, {"name": "StatefulPartitionedCall/efficientnetv2-m/blocks_30/se/conv2d_1/Conv2D/ReadVariableOp", "op": "Const", "attr": {"value": {"tensor": {"dtype": "DT_FLOAT", "tensorShape": {"dim": [{"size": "1"}, {"size": "1"}, {"size": "44"}, {"size": "1056"}]}}}, "dtype": {"type": "DT_FLOAT"}}}, {"name": "StatefulPartitionedCall/efficientnetv2-m/blocks_30/se/conv2d_1/BiasAdd/ReadVariableOp", "op": "Const", "attr": {"value": {"tensor": {"dtype": "DT_FLOAT", "tensorShape": {"dim": [{"size": "1056"}]}}}, "dtype": {"type": "DT_FLOAT"}}}, {"name": "StatefulPartitionedCall/efficientnetv2-m/blocks_29/se/Mean/reduction_indices", "op": "Const", "attr": {"value": {"tensor": {"dtype": "DT_INT32", "tensorShape": {"dim": [{"size": "2"}]}}}, "dtype": {"type": "DT_INT32"}}}, {"name": "StatefulPartitionedCall/efficientnetv2-m/blocks_29/se/conv2d/Conv2D/ReadVariableOp", "op": "Const", "attr": {"value": {"tensor": {"dtype": "DT_FLOAT", "tensorShape": {"dim": [{"size": "1"}, {"size": "1"}, {"size": "1056"}, {"size": "44"}]}}}, "dtype": {"type": "DT_FLOAT"}}}, {"name": "StatefulPartitionedCall/efficientnetv2-m/blocks_29/se/conv2d/BiasAdd/ReadVariableOp", "op": "Const", "attr": {"value": {"tensor": {"dtype": "DT_FLOAT", "tensorShape": {"dim": [{"size": "44"}]}}}, "dtype": {"type": "DT_FLOAT"}}}, {"name": "StatefulPartitionedCall/efficientnetv2-m/blocks_29/se/conv2d_1/Conv2D/ReadVariableOp", "op": "Const", "attr": {"value": {"tensor": {"dtype": "DT_FLOAT", "tensorShape": {"dim": [{"size": "1"}, {"size": "1"}, {"size": "44"}, {"size": "1056"}]}}}, "dtype": {"type": "DT_FLOAT"}}}, {"name": "StatefulPartitionedCall/efficientnetv2-m/blocks_29/se/conv2d_1/BiasAdd/ReadVariableOp", "op": "Const", "attr": {"value": {"tensor": {"dtype": "DT_FLOAT", "tensorShape": {"dim": [{"size": "1056"}]}}}, "dtype": {"type": "DT_FLOAT"}}}, {"name": "StatefulPartitionedCall/efficientnetv2-m/blocks_28/se/Mean/reduction_indices", "op": "Const", "attr": {"value": {"tensor": {"dtype": "DT_INT32", "tensorShape": {"dim": [{"size": "2"}]}}}, "dtype": {"type": "DT_INT32"}}}, {"name": "StatefulPartitionedCall/efficientnetv2-m/blocks_28/se/conv2d/Conv2D/ReadVariableOp", "op": "Const", "attr": {"value": {"tensor": {"dtype": "DT_FLOAT", "tensorShape": {"dim": [{"size": "1"}, {"size": "1"}, {"size": "1056"}, {"size": "44"}]}}}, "dtype": {"type": "DT_FLOAT"}}}, {"name": "StatefulPartitionedCall/efficientnetv2-m/blocks_28/se/conv2d/BiasAdd/ReadVariableOp", "op": "Const", "attr": {"value": {"tensor": {"dtype": "DT_FLOAT", "tensorShape": {"dim": [{"size": "44"}]}}}, "dtype": {"type": "DT_FLOAT"}}}, {"name": "StatefulPartitionedCall/efficientnetv2-m/blocks_28/se/conv2d_1/Conv2D/ReadVariableOp", "op": "Const", "attr": {"value": {"tensor": {"dtype": "DT_FLOAT", "tensorShape": {"dim": [{"size": "1"}, {"size": "1"}, {"size": "44"}, {"size": "1056"}]}}}, "dtype": {"type": "DT_FLOAT"}}}, {"name": "StatefulPartitionedCall/efficientnetv2-m/blocks_28/se/conv2d_1/BiasAdd/ReadVariableOp", "op": "Const", "attr": {"value": {"tensor": {"dtype": "DT_FLOAT", "tensorShape": {"dim": [{"size": "1056"}]}}}, "dtype": {"type": "DT_FLOAT"}}}, {"name": "StatefulPartitionedCall/efficientnetv2-m/blocks_27/se/Mean/reduction_indices", "op": "Const", "attr": {"value": {"tensor": {"dtype": "DT_INT32", "tensorShape": {"dim": [{"size": "2"}]}}}, "dtype": {"type": "DT_INT32"}}}, {"name": "StatefulPartitionedCall/efficientnetv2-m/blocks_27/se/conv2d/Conv2D/ReadVariableOp", "op": "Const", "attr": {"value": {"tensor": {"dtype": "DT_FLOAT", "tensorShape": {"dim": [{"size": "1"}, {"size": "1"}, {"size": "1056"}, {"size": "44"}]}}}, "dtype": {"type": "DT_FLOAT"}}}, {"name": "StatefulPartitionedCall/efficientnetv2-m/blocks_27/se/conv2d/BiasAdd/ReadVariableOp", "op": "Const", "attr": {"value": {"tensor": {"dtype": "DT_FLOAT", "tensorShape": {"dim": [{"size": "44"}]}}}, "dtype": {"type": "DT_FLOAT"}}}, {"name": "StatefulPartitionedCall/efficientnetv2-m/blocks_27/se/conv2d_1/Conv2D/ReadVariableOp", "op": "Const", "attr": {"value": {"tensor": {"dtype": "DT_FLOAT", "tensorShape": {"dim": [{"size": "1"}, {"size": "1"}, {"size": "44"}, {"size": "1056"}]}}}, "dtype": {"type": "DT_FLOAT"}}}, {"name": "StatefulPartitionedCall/efficientnetv2-m/blocks_27/se/conv2d_1/BiasAdd/ReadVariableOp", "op": "Const", "attr": {"value": {"tensor": {"dtype": "DT_FLOAT", "tensorShape": {"dim": [{"size": "1056"}]}}}, "dtype": {"type": "DT_FLOAT"}}}, {"name": "StatefulPartitionedCall/efficientnetv2-m/blocks_26/se/Mean/reduction_indices", "op": "Const", "attr": {"value": {"tensor": {"dtype": "DT_INT32", "tensorShape": {"dim": [{"size": "2"}]}}}, "dtype": {"type": "DT_INT32"}}}, {"name": "StatefulPartitionedCall/efficientnetv2-m/blocks_26/se/conv2d/Conv2D/ReadVariableOp", "op": "Const", "attr": {"value": {"tensor": {"dtype": "DT_FLOAT", "tensorShape": {"dim": [{"size": "1"}, {"size": "1"}, {"size": "1056"}, {"size": "44"}]}}}, "dtype": {"type": "DT_FLOAT"}}}, {"name": "StatefulPartitionedCall/efficientnetv2-m/blocks_26/se/conv2d/BiasAdd/ReadVariableOp", "op": "Const", "attr": {"value": {"tensor": {"dtype": "DT_FLOAT", "tensorShape": {"dim": [{"size": "44"}]}}}, "dtype": {"type": "DT_FLOAT"}}}, {"name": "StatefulPartitionedCall/efficientnetv2-m/blocks_26/se/conv2d_1/Conv2D/ReadVariableOp", "op": "Const", "attr": {"value": {"tensor": {"dtype": "DT_FLOAT", "tensorShape": {"dim": [{"size": "1"}, {"size": "1"}, {"size": "44"}, {"size": "1056"}]}}}, "dtype": {"type": "DT_FLOAT"}}}, {"name": "StatefulPartitionedCall/efficientnetv2-m/blocks_26/se/conv2d_1/BiasAdd/ReadVariableOp", "op": "Const", "attr": {"value": {"tensor": {"dtype": "DT_FLOAT", "tensorShape": {"dim": [{"size": "1056"}]}}}, "dtype": {"type": "DT_FLOAT"}}}, {"name": "StatefulPartitionedCall/efficientnetv2-m/blocks_25/se/Mean/reduction_indices", "op": "Const", "attr": {"value": {"tensor": {"dtype": "DT_INT32", "tensorShape": {"dim": [{"size": "2"}]}}}, "dtype": {"type": "DT_INT32"}}}, {"name": "StatefulPartitionedCall/efficientnetv2-m/blocks_25/se/conv2d/Conv2D/ReadVariableOp", "op": "Const", "attr": {"value": {"tensor": {"dtype": "DT_FLOAT", "tensorShape": {"dim": [{"size": "1"}, {"size": "1"}, {"size": "1056"}, {"size": "44"}]}}}, "dtype": {"type": "DT_FLOAT"}}}, {"name": "StatefulPartitionedCall/efficientnetv2-m/blocks_25/se/conv2d/BiasAdd/ReadVariableOp", "op": "Const", "attr": {"value": {"tensor": {"dtype": "DT_FLOAT", "tensorShape": {"dim": [{"size": "44"}]}}}, "dtype": {"type": "DT_FLOAT"}}}, {"name": "StatefulPartitionedCall/efficientnetv2-m/blocks_25/se/conv2d_1/Conv2D/ReadVariableOp", "op": "Const", "attr": {"value": {"tensor": {"dtype": "DT_FLOAT", "tensorShape": {"dim": [{"size": "1"}, {"size": "1"}, {"size": "44"}, {"size": "1056"}]}}}, "dtype": {"type": "DT_FLOAT"}}}, {"name": "StatefulPartitionedCall/efficientnetv2-m/blocks_25/se/conv2d_1/BiasAdd/ReadVariableOp", "op": "Const", "attr": {"value": {"tensor": {"dtype": "DT_FLOAT", "tensorShape": {"dim": [{"size": "1056"}]}}}, "dtype": {"type": "DT_FLOAT"}}}, {"name": "StatefulPartitionedCall/efficientnetv2-m/blocks_24/se/Mean/reduction_indices", "op": "Const", "attr": {"value": {"tensor": {"dtype": "DT_INT32", "tensorShape": {"dim": [{"size": "2"}]}}}, "dtype": {"type": "DT_INT32"}}}, {"name": "StatefulPartitionedCall/efficientnetv2-m/blocks_24/se/conv2d/Conv2D/ReadVariableOp", "op": "Const", "attr": {"value": {"tensor": {"dtype": "DT_FLOAT", "tensorShape": {"dim": [{"size": "1"}, {"size": "1"}, {"size": "1056"}, {"size": "44"}]}}}, "dtype": {"type": "DT_FLOAT"}}}, {"name": "StatefulPartitionedCall/efficientnetv2-m/blocks_24/se/conv2d/BiasAdd/ReadVariableOp", "op": "Const", "attr": {"value": {"tensor": {"dtype": "DT_FLOAT", "tensorShape": {"dim": [{"size": "44"}]}}}, "dtype": {"type": "DT_FLOAT"}}}, {"name": "StatefulPartitionedCall/efficientnetv2-m/blocks_24/se/conv2d_1/Conv2D/ReadVariableOp", "op": "Const", "attr": {"value": {"tensor": {"dtype": "DT_FLOAT", "tensorShape": {"dim": [{"size": "1"}, {"size": "1"}, {"size": "44"}, {"size": "1056"}]}}}, "dtype": {"type": "DT_FLOAT"}}}, {"name": "StatefulPartitionedCall/efficientnetv2-m/blocks_24/se/conv2d_1/BiasAdd/ReadVariableOp", "op": "Const", "attr": {"value": {"tensor": {"dtype": "DT_FLOAT", "tensorShape": {"dim": [{"size": "1056"}]}}}, "dtype": {"type": "DT_FLOAT"}}}, {"name": "StatefulPartitionedCall/efficientnetv2-m/blocks_23/se/Mean/reduction_indices", "op": "Const", "attr": {"value": {"tensor": {"dtype": "DT_INT32", "tensorShape": {"dim": [{"size": "2"}]}}}, "dtype": {"type": "DT_INT32"}}}, {"name": "StatefulPartitionedCall/efficientnetv2-m/blocks_23/se/conv2d/Conv2D/ReadVariableOp", "op": "Const", "attr": {"value": {"tensor": {"dtype": "DT_FLOAT", "tensorShape": {"dim": [{"size": "1"}, {"size": "1"}, {"size": "1056"}, {"size": "44"}]}}}, "dtype": {"type": "DT_FLOAT"}}}, {"name": "StatefulPartitionedCall/efficientnetv2-m/blocks_23/se/conv2d/BiasAdd/ReadVariableOp", "op": "Const", "attr": {"value": {"tensor": {"dtype": "DT_FLOAT", "tensorShape": {"dim": [{"size": "44"}]}}}, "dtype": {"type": "DT_FLOAT"}}}, {"name": "StatefulPartitionedCall/efficientnetv2-m/blocks_23/se/conv2d_1/Conv2D/ReadVariableOp", "op": "Const", "attr": {"value": {"tensor": {"dtype": "DT_FLOAT", "tensorShape": {"dim": [{"size": "1"}, {"size": "1"}, {"size": "44"}, {"size": "1056"}]}}}, "dtype": {"type": "DT_FLOAT"}}}, {"name": "StatefulPartitionedCall/efficientnetv2-m/blocks_23/se/conv2d_1/BiasAdd/ReadVariableOp", "op": "Const", "attr": {"value": {"tensor": {"dtype": "DT_FLOAT", "tensorShape": {"dim": [{"size": "1056"}]}}}, "dtype": {"type": "DT_FLOAT"}}}, {"name": "StatefulPartitionedCall/efficientnetv2-m/blocks_22/se/Mean/reduction_indices", "op": "Const", "attr": {"value": {"tensor": {"dtype": "DT_INT32", "tensorShape": {"dim": [{"size": "2"}]}}}, "dtype": {"type": "DT_INT32"}}}, {"name": "StatefulPartitionedCall/efficientnetv2-m/blocks_22/se/conv2d/Conv2D/ReadVariableOp", "op": "Const", "attr": {"value": {"tensor": {"dtype": "DT_FLOAT", "tensorShape": {"dim": [{"size": "1"}, {"size": "1"}, {"size": "1056"}, {"size": "44"}]}}}, "dtype": {"type": "DT_FLOAT"}}}, {"name": "StatefulPartitionedCall/efficientnetv2-m/blocks_22/se/conv2d/BiasAdd/ReadVariableOp", "op": "Const", "attr": {"value": {"tensor": {"dtype": "DT_FLOAT", "tensorShape": {"dim": [{"size": "44"}]}}}, "dtype": {"type": "DT_FLOAT"}}}, {"name": "StatefulPartitionedCall/efficientnetv2-m/blocks_22/se/conv2d_1/Conv2D/ReadVariableOp", "op": "Const", "attr": {"value": {"tensor": {"dtype": "DT_FLOAT", "tensorShape": {"dim": [{"size": "1"}, {"size": "1"}, {"size": "44"}, {"size": "1056"}]}}}, "dtype": {"type": "DT_FLOAT"}}}, {"name": "StatefulPartitionedCall/efficientnetv2-m/blocks_22/se/conv2d_1/BiasAdd/ReadVariableOp", "op": "Const", "attr": {"value": {"tensor": {"dtype": "DT_FLOAT", "tensorShape": {"dim": [{"size": "1056"}]}}}, "dtype": {"type": "DT_FLOAT"}}}, {"name": "StatefulPartitionedCall/efficientnetv2-m/blocks_21/se/Mean/reduction_indices", "op": "Const", "attr": {"value": {"tensor": {"dtype": "DT_INT32", "tensorShape": {"dim": [{"size": "2"}]}}}, "dtype": {"type": "DT_INT32"}}}, {"name": "StatefulPartitionedCall/efficientnetv2-m/blocks_21/se/conv2d/Conv2D/ReadVariableOp", "op": "Const", "attr": {"value": {"tensor": {"dtype": "DT_FLOAT", "tensorShape": {"dim": [{"size": "1"}, {"size": "1"}, {"size": "1056"}, {"size": "44"}]}}}, "dtype": {"type": "DT_FLOAT"}}}, {"name": "StatefulPartitionedCall/efficientnetv2-m/blocks_21/se/conv2d/BiasAdd/ReadVariableOp", "op": "Const", "attr": {"value": {"tensor": {"dtype": "DT_FLOAT", "tensorShape": {"dim": [{"size": "44"}]}}}, "dtype": {"type": "DT_FLOAT"}}}, {"name": "StatefulPartitionedCall/efficientnetv2-m/blocks_21/se/conv2d_1/Conv2D/ReadVariableOp", "op": "Const", "attr": {"value": {"tensor": {"dtype": "DT_FLOAT", "tensorShape": {"dim": [{"size": "1"}, {"size": "1"}, {"size": "44"}, {"size": "1056"}]}}}, "dtype": {"type": "DT_FLOAT"}}}, {"name": "StatefulPartitionedCall/efficientnetv2-m/blocks_21/se/conv2d_1/BiasAdd/ReadVariableOp", "op": "Const", "attr": {"value": {"tensor": {"dtype": "DT_FLOAT", "tensorShape": {"dim": [{"size": "1056"}]}}}, "dtype": {"type": "DT_FLOAT"}}}, {"name": "StatefulPartitionedCall/efficientnetv2-m/blocks_20/se/Mean/reduction_indices", "op": "Const", "attr": {"value": {"tensor": {"dtype": "DT_INT32", "tensorShape": {"dim": [{"size": "2"}]}}}, "dtype": {"type": "DT_INT32"}}}, {"name": "StatefulPartitionedCall/efficientnetv2-m/blocks_20/se/conv2d/Conv2D/ReadVariableOp", "op": "Const", "attr": {"value": {"tensor": {"dtype": "DT_FLOAT", "tensorShape": {"dim": [{"size": "1"}, {"size": "1"}, {"size": "960"}, {"size": "40"}]}}}, "dtype": {"type": "DT_FLOAT"}}}, {"name": "StatefulPartitionedCall/efficientnetv2-m/blocks_20/se/conv2d/BiasAdd/ReadVariableOp", "op": "Const", "attr": {"value": {"tensor": {"dtype": "DT_FLOAT", "tensorShape": {"dim": [{"size": "40"}]}}}, "dtype": {"type": "DT_FLOAT"}}}, {"name": "StatefulPartitionedCall/efficientnetv2-m/blocks_20/se/conv2d_1/Conv2D/ReadVariableOp", "op": "Const", "attr": {"value": {"tensor": {"dtype": "DT_FLOAT", "tensorShape": {"dim": [{"size": "1"}, {"size": "1"}, {"size": "40"}, {"size": "960"}]}}}, "dtype": {"type": "DT_FLOAT"}}}, {"name": "StatefulPartitionedCall/efficientnetv2-m/blocks_20/se/conv2d_1/BiasAdd/ReadVariableOp", "op": "Const", "attr": {"value": {"tensor": {"dtype": "DT_FLOAT", "tensorShape": {"dim": [{"size": "960"}]}}}, "dtype": {"type": "DT_FLOAT"}}}, {"name": "StatefulPartitionedCall/efficientnetv2-m/blocks_19/se/Mean/reduction_indices", "op": "Const", "attr": {"value": {"tensor": {"dtype": "DT_INT32", "tensorShape": {"dim": [{"size": "2"}]}}}, "dtype": {"type": "DT_INT32"}}}, {"name": "StatefulPartitionedCall/efficientnetv2-m/blocks_19/se/conv2d/Conv2D/ReadVariableOp", "op": "Const", "attr": {"value": {"tensor": {"dtype": "DT_FLOAT", "tensorShape": {"dim": [{"size": "1"}, {"size": "1"}, {"size": "640"}, {"size": "40"}]}}}, "dtype": {"type": "DT_FLOAT"}}}, {"name": "StatefulPartitionedCall/efficientnetv2-m/blocks_19/se/conv2d/BiasAdd/ReadVariableOp", "op": "Const", "attr": {"value": {"tensor": {"dtype": "DT_FLOAT", "tensorShape": {"dim": [{"size": "40"}]}}}, "dtype": {"type": "DT_FLOAT"}}}, {"name": "StatefulPartitionedCall/efficientnetv2-m/blocks_19/se/conv2d_1/Conv2D/ReadVariableOp", "op": "Const", "attr": {"value": {"tensor": {"dtype": "DT_FLOAT", "tensorShape": {"dim": [{"size": "1"}, {"size": "1"}, {"size": "40"}, {"size": "640"}]}}}, "dtype": {"type": "DT_FLOAT"}}}, {"name": "StatefulPartitionedCall/efficientnetv2-m/blocks_19/se/conv2d_1/BiasAdd/ReadVariableOp", "op": "Const", "attr": {"value": {"tensor": {"dtype": "DT_FLOAT", "tensorShape": {"dim": [{"size": "640"}]}}}, "dtype": {"type": "DT_FLOAT"}}}, {"name": "StatefulPartitionedCall/efficientnetv2-m/blocks_18/se/Mean/reduction_indices", "op": "Const", "attr": {"value": {"tensor": {"dtype": "DT_INT32", "tensorShape": {"dim": [{"size": "2"}]}}}, "dtype": {"type": "DT_INT32"}}}, {"name": "StatefulPartitionedCall/efficientnetv2-m/blocks_18/se/conv2d/Conv2D/ReadVariableOp", "op": "Const", "attr": {"value": {"tensor": {"dtype": "DT_FLOAT", "tensorShape": {"dim": [{"size": "1"}, {"size": "1"}, {"size": "640"}, {"size": "40"}]}}}, "dtype": {"type": "DT_FLOAT"}}}, {"name": "StatefulPartitionedCall/efficientnetv2-m/blocks_18/se/conv2d/BiasAdd/ReadVariableOp", "op": "Const", "attr": {"value": {"tensor": {"dtype": "DT_FLOAT", "tensorShape": {"dim": [{"size": "40"}]}}}, "dtype": {"type": "DT_FLOAT"}}}, {"name": "StatefulPartitionedCall/efficientnetv2-m/blocks_18/se/conv2d_1/Conv2D/ReadVariableOp", "op": "Const", "attr": {"value": {"tensor": {"dtype": "DT_FLOAT", "tensorShape": {"dim": [{"size": "1"}, {"size": "1"}, {"size": "40"}, {"size": "640"}]}}}, "dtype": {"type": "DT_FLOAT"}}}, {"name": "StatefulPartitionedCall/efficientnetv2-m/blocks_18/se/conv2d_1/BiasAdd/ReadVariableOp", "op": "Const", "attr": {"value": {"tensor": {"dtype": "DT_FLOAT", "tensorShape": {"dim": [{"size": "640"}]}}}, "dtype": {"type": "DT_FLOAT"}}}, {"name": "StatefulPartitionedCall/efficientnetv2-m/blocks_17/se/Mean/reduction_indices", "op": "Const", "attr": {"value": {"tensor": {"dtype": "DT_INT32", "tensorShape": {"dim": [{"size": "2"}]}}}, "dtype": {"type": "DT_INT32"}}}, {"name": "StatefulPartitionedCall/efficientnetv2-m/blocks_17/se/conv2d/Conv2D/ReadVariableOp", "op": "Const", "attr": {"value": {"tensor": {"dtype": "DT_FLOAT", "tensorShape": {"dim": [{"size": "1"}, {"size": "1"}, {"size": "640"}, {"size": "40"}]}}}, "dtype": {"type": "DT_FLOAT"}}}, {"name": "StatefulPartitionedCall/efficientnetv2-m/blocks_17/se/conv2d/BiasAdd/ReadVariableOp", "op": "Const", "attr": {"value": {"tensor": {"dtype": "DT_FLOAT", "tensorShape": {"dim": [{"size": "40"}]}}}, "dtype": {"type": "DT_FLOAT"}}}, {"name": "StatefulPartitionedCall/efficientnetv2-m/blocks_17/se/conv2d_1/Conv2D/ReadVariableOp", "op": "Const", "attr": {"value": {"tensor": {"dtype": "DT_FLOAT", "tensorShape": {"dim": [{"size": "1"}, {"size": "1"}, {"size": "40"}, {"size": "640"}]}}}, "dtype": {"type": "DT_FLOAT"}}}, {"name": "StatefulPartitionedCall/efficientnetv2-m/blocks_17/se/conv2d_1/BiasAdd/ReadVariableOp", "op": "Const", "attr": {"value": {"tensor": {"dtype": "DT_FLOAT", "tensorShape": {"dim": [{"size": "640"}]}}}, "dtype": {"type": "DT_FLOAT"}}}, {"name": "StatefulPartitionedCall/efficientnetv2-m/blocks_16/se/Mean/reduction_indices", "op": "Const", "attr": {"value": {"tensor": {"dtype": "DT_INT32", "tensorShape": {"dim": [{"size": "2"}]}}}, "dtype": {"type": "DT_INT32"}}}, {"name": "StatefulPartitionedCall/efficientnetv2-m/blocks_16/se/conv2d/Conv2D/ReadVariableOp", "op": "Const", "attr": {"value": {"tensor": {"dtype": "DT_FLOAT", "tensorShape": {"dim": [{"size": "1"}, {"size": "1"}, {"size": "640"}, {"size": "40"}]}}}, "dtype": {"type": "DT_FLOAT"}}}, {"name": "StatefulPartitionedCall/efficientnetv2-m/blocks_16/se/conv2d/BiasAdd/ReadVariableOp", "op": "Const", "attr": {"value": {"tensor": {"dtype": "DT_FLOAT", "tensorShape": {"dim": [{"size": "40"}]}}}, "dtype": {"type": "DT_FLOAT"}}}, {"name": "StatefulPartitionedCall/efficientnetv2-m/blocks_16/se/conv2d_1/Conv2D/ReadVariableOp", "op": "Const", "attr": {"value": {"tensor": {"dtype": "DT_FLOAT", "tensorShape": {"dim": [{"size": "1"}, {"size": "1"}, {"size": "40"}, {"size": "640"}]}}}, "dtype": {"type": "DT_FLOAT"}}}, {"name": "StatefulPartitionedCall/efficientnetv2-m/blocks_16/se/conv2d_1/BiasAdd/ReadVariableOp", "op": "Const", "attr": {"value": {"tensor": {"dtype": "DT_FLOAT", "tensorShape": {"dim": [{"size": "640"}]}}}, "dtype": {"type": "DT_FLOAT"}}}, {"name": "StatefulPartitionedCall/efficientnetv2-m/blocks_15/se/Mean/reduction_indices", "op": "Const", "attr": {"value": {"tensor": {"dtype": "DT_INT32", "tensorShape": {"dim": [{"size": "2"}]}}}, "dtype": {"type": "DT_INT32"}}}, {"name": "StatefulPartitionedCall/efficientnetv2-m/blocks_15/se/conv2d/Conv2D/ReadVariableOp", "op": "Const", "attr": {"value": {"tensor": {"dtype": "DT_FLOAT", "tensorShape": {"dim": [{"size": "1"}, {"size": "1"}, {"size": "640"}, {"size": "40"}]}}}, "dtype": {"type": "DT_FLOAT"}}}, {"name": "StatefulPartitionedCall/efficientnetv2-m/blocks_15/se/conv2d/BiasAdd/ReadVariableOp", "op": "Const", "attr": {"value": {"tensor": {"dtype": "DT_FLOAT", "tensorShape": {"dim": [{"size": "40"}]}}}, "dtype": {"type": "DT_FLOAT"}}}, {"name": "StatefulPartitionedCall/efficientnetv2-m/blocks_15/se/conv2d_1/Conv2D/ReadVariableOp", "op": "Const", "attr": {"value": {"tensor": {"dtype": "DT_FLOAT", "tensorShape": {"dim": [{"size": "1"}, {"size": "1"}, {"size": "40"}, {"size": "640"}]}}}, "dtype": {"type": "DT_FLOAT"}}}, {"name": "StatefulPartitionedCall/efficientnetv2-m/blocks_15/se/conv2d_1/BiasAdd/ReadVariableOp", "op": "Const", "attr": {"value": {"tensor": {"dtype": "DT_FLOAT", "tensorShape": {"dim": [{"size": "640"}]}}}, "dtype": {"type": "DT_FLOAT"}}}, {"name": "StatefulPartitionedCall/efficientnetv2-m/blocks_14/se/Mean/reduction_indices", "op": "Const", "attr": {"value": {"tensor": {"dtype": "DT_INT32", "tensorShape": {"dim": [{"size": "2"}]}}}, "dtype": {"type": "DT_INT32"}}}, {"name": "StatefulPartitionedCall/efficientnetv2-m/blocks_14/se/conv2d/Conv2D/ReadVariableOp", "op": "Const", "attr": {"value": {"tensor": {"dtype": "DT_FLOAT", "tensorShape": {"dim": [{"size": "1"}, {"size": "1"}, {"size": "640"}, {"size": "40"}]}}}, "dtype": {"type": "DT_FLOAT"}}}, {"name": "StatefulPartitionedCall/efficientnetv2-m/blocks_14/se/conv2d/BiasAdd/ReadVariableOp", "op": "Const", "attr": {"value": {"tensor": {"dtype": "DT_FLOAT", "tensorShape": {"dim": [{"size": "40"}]}}}, "dtype": {"type": "DT_FLOAT"}}}, {"name": "StatefulPartitionedCall/efficientnetv2-m/blocks_14/se/conv2d_1/Conv2D/ReadVariableOp", "op": "Const", "attr": {"value": {"tensor": {"dtype": "DT_FLOAT", "tensorShape": {"dim": [{"size": "1"}, {"size": "1"}, {"size": "40"}, {"size": "640"}]}}}, "dtype": {"type": "DT_FLOAT"}}}, {"name": "StatefulPartitionedCall/efficientnetv2-m/blocks_14/se/conv2d_1/BiasAdd/ReadVariableOp", "op": "Const", "attr": {"value": {"tensor": {"dtype": "DT_FLOAT", "tensorShape": {"dim": [{"size": "640"}]}}}, "dtype": {"type": "DT_FLOAT"}}}, {"name": "StatefulPartitionedCall/efficientnetv2-m/blocks_13/se/Mean/reduction_indices", "op": "Const", "attr": {"value": {"tensor": {"dtype": "DT_INT32", "tensorShape": {"dim": [{"size": "2"}]}}}, "dtype": {"type": "DT_INT32"}}}, {"name": "StatefulPartitionedCall/efficientnetv2-m/blocks_13/se/conv2d/Conv2D/ReadVariableOp", "op": "Const", "attr": {"value": {"tensor": {"dtype": "DT_FLOAT", "tensorShape": {"dim": [{"size": "1"}, {"size": "1"}, {"size": "320"}, {"size": "20"}]}}}, "dtype": {"type": "DT_FLOAT"}}}, {"name": "StatefulPartitionedCall/efficientnetv2-m/blocks_13/se/conv2d/BiasAdd/ReadVariableOp", "op": "Const", "attr": {"value": {"tensor": {"dtype": "DT_FLOAT", "tensorShape": {"dim": [{"size": "20"}]}}}, "dtype": {"type": "DT_FLOAT"}}}, {"name": "StatefulPartitionedCall/efficientnetv2-m/blocks_13/se/conv2d_1/Conv2D/ReadVariableOp", "op": "Const", "attr": {"value": {"tensor": {"dtype": "DT_FLOAT", "tensorShape": {"dim": [{"size": "1"}, {"size": "1"}, {"size": "20"}, {"size": "320"}]}}}, "dtype": {"type": "DT_FLOAT"}}}, {"name": "StatefulPartitionedCall/efficientnetv2-m/blocks_13/se/conv2d_1/BiasAdd/ReadVariableOp", "op": "Const", "attr": {"value": {"tensor": {"dtype": "DT_FLOAT", "tensorShape": {"dim": [{"size": "320"}]}}}, "dtype": {"type": "DT_FLOAT"}}}, {"name": "StatefulPartitionedCall/efficientnetv2-m/head/global_average_pooling2d/Mean/reduction_indices", "op": "Const", "attr": {"value": {"tensor": {"dtype": "DT_INT32", "tensorShape": {"dim": [{"size": "2"}]}}}, "dtype": {"type": "DT_INT32"}}}, {"name": "input_1", "op": "Placeholder", "attr": {"shape": {"shape": {"dim": [{"size": "-1"}, {"size": "-1"}, {"size": "-1"}, {"size": "3"}]}}, "dtype": {"type": "DT_FLOAT"}}}, {"name": "StatefulPartitionedCall/efficientnetv2-m/stem/conv2d/Conv2D_weights", "op": "Const", "attr": {"value": {"tensor": {"dtype": "DT_FLOAT", "tensorShape": {"dim": [{"size": "3"}, {"size": "3"}, {"size": "3"}, {"size": "24"}]}}}, "dtype": {"type": "DT_FLOAT"}}}, {"name": "StatefulPartitionedCall/efficientnetv2-m/stem/conv2d/Conv2D_bn_offset", "op": "Const", "attr": {"value": {"tensor": {"dtype": "DT_FLOAT", "tensorShape": {"dim": [{"size": "24"}]}}}, "dtype": {"type": "DT_FLOAT"}}}, {"name": "StatefulPartitionedCall/efficientnetv2-m/blocks_0/conv2d/Conv2D_weights", "op": "Const", "attr": {"value": {"tensor": {"dtype": "DT_FLOAT", "tensorShape": {"dim": [{"size": "3"}, {"size": "3"}, {"size": "24"}, {"size": "24"}]}}}, "dtype": {"type": "DT_FLOAT"}}}, {"name": "StatefulPartitionedCall/efficientnetv2-m/blocks_0/conv2d/Conv2D_bn_offset", "op": "Const", "attr": {"value": {"tensor": {"dtype": "DT_FLOAT", "tensorShape": {"dim": [{"size": "24"}]}}}, "dtype": {"type": "DT_FLOAT"}}}, {"name": "StatefulPartitionedCall/efficientnetv2-m/blocks_1/conv2d/Conv2D_weights", "op": "Const", "attr": {"value": {"tensor": {"dtype": "DT_FLOAT", "tensorShape": {"dim": [{"size": "3"}, {"size": "3"}, {"size": "24"}, {"size": "24"}]}}}, "dtype": {"type": "DT_FLOAT"}}}, {"name": "StatefulPartitionedCall/efficientnetv2-m/blocks_1/conv2d/Conv2D_bn_offset", "op": "Const", "attr": {"value": {"tensor": {"dtype": "DT_FLOAT", "tensorShape": {"dim": [{"size": "24"}]}}}, "dtype": {"type": "DT_FLOAT"}}}, {"name": "StatefulPartitionedCall/efficientnetv2-m/blocks_2/conv2d/Conv2D_weights", "op": "Const", "attr": {"value": {"tensor": {"dtype": "DT_FLOAT", "tensorShape": {"dim": [{"size": "3"}, {"size": "3"}, {"size": "24"}, {"size": "24"}]}}}, "dtype": {"type": "DT_FLOAT"}}}, {"name": "StatefulPartitionedCall/efficientnetv2-m/blocks_2/conv2d/Conv2D_bn_offset", "op": "Const", "attr": {"value": {"tensor": {"dtype": "DT_FLOAT", "tensorShape": {"dim": [{"size": "24"}]}}}, "dtype": {"type": "DT_FLOAT"}}}, {"name": "StatefulPartitionedCall/efficientnetv2-m/blocks_3/conv2d/Conv2D_weights", "op": "Const", "attr": {"value": {"tensor": {"dtype": "DT_FLOAT", "tensorShape": {"dim": [{"size": "3"}, {"size": "3"}, {"size": "24"}, {"size": "96"}]}}}, "dtype": {"type": "DT_FLOAT"}}}, {"name": "StatefulPartitionedCall/efficientnetv2-m/blocks_3/conv2d/Conv2D_bn_offset", "op": "Const", "attr": {"value": {"tensor": {"dtype": "DT_FLOAT", "tensorShape": {"dim": [{"size": "96"}]}}}, "dtype": {"type": "DT_FLOAT"}}}, {"name": "StatefulPartitionedCall/efficientnetv2-m/blocks_3/conv2d_1/Conv2D_weights", "op": "Const", "attr": {"value": {"tensor": {"dtype": "DT_FLOAT", "tensorShape": {"dim": [{"size": "1"}, {"size": "1"}, {"size": "96"}, {"size": "48"}]}}}, "dtype": {"type": "DT_FLOAT"}}}, {"name": "StatefulPartitionedCall/efficientnetv2-m/blocks_3/conv2d_1/Conv2D_bn_offset", "op": "Const", "attr": {"value": {"tensor": {"dtype": "DT_FLOAT", "tensorShape": {"dim": [{"size": "48"}]}}}, "dtype": {"type": "DT_FLOAT"}}}, {"name": "StatefulPartitionedCall/efficientnetv2-m/blocks_4/conv2d/Conv2D_weights", "op": "Const", "attr": {"value": {"tensor": {"dtype": "DT_FLOAT", "tensorShape": {"dim": [{"size": "3"}, {"size": "3"}, {"size": "48"}, {"size": "192"}]}}}, "dtype": {"type": "DT_FLOAT"}}}, {"name": "StatefulPartitionedCall/efficientnetv2-m/blocks_4/conv2d/Conv2D_bn_offset", "op": "Const", "attr": {"value": {"tensor": {"dtype": "DT_FLOAT", "tensorShape": {"dim": [{"size": "192"}]}}}, "dtype": {"type": "DT_FLOAT"}}}, {"name": "StatefulPartitionedCall/efficientnetv2-m/blocks_4/conv2d_1/Conv2D_weights", "op": "Const", "attr": {"value": {"tensor": {"dtype": "DT_FLOAT", "tensorShape": {"dim": [{"size": "1"}, {"size": "1"}, {"size": "192"}, {"size": "48"}]}}}, "dtype": {"type": "DT_FLOAT"}}}, {"name": "StatefulPartitionedCall/efficientnetv2-m/blocks_49/conv2d_1/Conv2D_weights", "op": "Const", "attr": {"value": {"tensor": {"dtype": "DT_FLOAT", "tensorShape": {"dim": [{"size": "1"}, {"size": "1"}, {"size": "1824"}, {"size": "304"}]}}}, "dtype": {"type": "DT_FLOAT"}}}, {"name": "StatefulPartitionedCall/efficientnetv2-m/blocks_4/conv2d_1/Conv2D_bn_offset", "op": "Const", "attr": {"value": {"tensor": {"dtype": "DT_FLOAT", "tensorShape": {"dim": [{"size": "48"}]}}}, "dtype": {"type": "DT_FLOAT"}}}, {"name": "StatefulPartitionedCall/efficientnetv2-m/blocks_5/conv2d/Conv2D_weights", "op": "Const", "attr": {"value": {"tensor": {"dtype": "DT_FLOAT", "tensorShape": {"dim": [{"size": "3"}, {"size": "3"}, {"size": "48"}, {"size": "192"}]}}}, "dtype": {"type": "DT_FLOAT"}}}, {"name": "StatefulPartitionedCall/efficientnetv2-m/blocks_5/conv2d/Conv2D_bn_offset", "op": "Const", "attr": {"value": {"tensor": {"dtype": "DT_FLOAT", "tensorShape": {"dim": [{"size": "192"}]}}}, "dtype": {"type": "DT_FLOAT"}}}, {"name": "StatefulPartitionedCall/efficientnetv2-m/blocks_5/conv2d_1/Conv2D_weights", "op": "Const", "attr": {"value": {"tensor": {"dtype": "DT_FLOAT", "tensorShape": {"dim": [{"size": "1"}, {"size": "1"}, {"size": "192"}, {"size": "48"}]}}}, "dtype": {"type": "DT_FLOAT"}}}, {"name": "StatefulPartitionedCall/efficientnetv2-m/blocks_49/conv2d_1/Conv2D_bn_offset", "op": "Const", "attr": {"value": {"tensor": {"dtype": "DT_FLOAT", "tensorShape": {"dim": [{"size": "304"}]}}}, "dtype": {"type": "DT_FLOAT"}}}, {"name": "StatefulPartitionedCall/efficientnetv2-m/blocks_5/conv2d_1/Conv2D_bn_offset", "op": "Const", "attr": {"value": {"tensor": {"dtype": "DT_FLOAT", "tensorShape": {"dim": [{"size": "48"}]}}}, "dtype": {"type": "DT_FLOAT"}}}, {"name": "StatefulPartitionedCall/efficientnetv2-m/blocks_6/conv2d/Conv2D_weights", "op": "Const", "attr": {"value": {"tensor": {"dtype": "DT_FLOAT", "tensorShape": {"dim": [{"size": "3"}, {"size": "3"}, {"size": "48"}, {"size": "192"}]}}}, "dtype": {"type": "DT_FLOAT"}}}, {"name": "StatefulPartitionedCall/efficientnetv2-m/blocks_6/conv2d/Conv2D_bn_offset", "op": "Const", "attr": {"value": {"tensor": {"dtype": "DT_FLOAT", "tensorShape": {"dim": [{"size": "192"}]}}}, "dtype": {"type": "DT_FLOAT"}}}, {"name": "StatefulPartitionedCall/efficientnetv2-m/blocks_6/conv2d_1/Conv2D_weights", "op": "Const", "attr": {"value": {"tensor": {"dtype": "DT_FLOAT", "tensorShape": {"dim": [{"size": "1"}, {"size": "1"}, {"size": "192"}, {"size": "48"}]}}}, "dtype": {"type": "DT_FLOAT"}}}, {"name": "StatefulPartitionedCall/efficientnetv2-m/blocks_6/conv2d_1/Conv2D_bn_offset", "op": "Const", "attr": {"value": {"tensor": {"dtype": "DT_FLOAT", "tensorShape": {"dim": [{"size": "48"}]}}}, "dtype": {"type": "DT_FLOAT"}}}, {"name": "StatefulPartitionedCall/efficientnetv2-m/blocks_7/conv2d/Conv2D_weights", "op": "Const", "attr": {"value": {"tensor": {"dtype": "DT_FLOAT", "tensorShape": {"dim": [{"size": "3"}, {"size": "3"}, {"size": "48"}, {"size": "192"}]}}}, "dtype": {"type": "DT_FLOAT"}}}, {"name": "StatefulPartitionedCall/efficientnetv2-m/blocks_50/conv2d/Conv2D_weights", "op": "Const", "attr": {"value": {"tensor": {"dtype": "DT_FLOAT", "tensorShape": {"dim": [{"size": "1"}, {"size": "1"}, {"size": "304"}, {"size": "1824"}]}}}, "dtype": {"type": "DT_FLOAT"}}}, {"name": "StatefulPartitionedCall/efficientnetv2-m/blocks_7/conv2d/Conv2D_bn_offset", "op": "Const", "attr": {"value": {"tensor": {"dtype": "DT_FLOAT", "tensorShape": {"dim": [{"size": "192"}]}}}, "dtype": {"type": "DT_FLOAT"}}}, {"name": "StatefulPartitionedCall/efficientnetv2-m/blocks_7/conv2d_1/Conv2D_weights", "op": "Const", "attr": {"value": {"tensor": {"dtype": "DT_FLOAT", "tensorShape": {"dim": [{"size": "1"}, {"size": "1"}, {"size": "192"}, {"size": "48"}]}}}, "dtype": {"type": "DT_FLOAT"}}}, {"name": "StatefulPartitionedCall/efficientnetv2-m/blocks_7/conv2d_1/Conv2D_bn_offset", "op": "Const", "attr": {"value": {"tensor": {"dtype": "DT_FLOAT", "tensorShape": {"dim": [{"size": "48"}]}}}, "dtype": {"type": "DT_FLOAT"}}}, {"name": "StatefulPartitionedCall/efficientnetv2-m/blocks_8/conv2d/Conv2D_weights", "op": "Const", "attr": {"value": {"tensor": {"dtype": "DT_FLOAT", "tensorShape": {"dim": [{"size": "3"}, {"size": "3"}, {"size": "48"}, {"size": "192"}]}}}, "dtype": {"type": "DT_FLOAT"}}}, {"name": "StatefulPartitionedCall/efficientnetv2-m/blocks_50/conv2d/Conv2D_bn_offset", "op": "Const", "attr": {"value": {"tensor": {"dtype": "DT_FLOAT", "tensorShape": {"dim": [{"size": "1824"}]}}}, "dtype": {"type": "DT_FLOAT"}}}, {"name": "StatefulPartitionedCall/efficientnetv2-m/blocks_8/conv2d/Conv2D_bn_offset", "op": "Const", "attr": {"value": {"tensor": {"dtype": "DT_FLOAT", "tensorShape": {"dim": [{"size": "192"}]}}}, "dtype": {"type": "DT_FLOAT"}}}, {"name": "StatefulPartitionedCall/efficientnetv2-m/blocks_8/conv2d_1/Conv2D_weights", "op": "Const", "attr": {"value": {"tensor": {"dtype": "DT_FLOAT", "tensorShape": {"dim": [{"size": "1"}, {"size": "1"}, {"size": "192"}, {"size": "80"}]}}}, "dtype": {"type": "DT_FLOAT"}}}, {"name": "StatefulPartitionedCall/efficientnetv2-m/blocks_8/conv2d_1/Conv2D_bn_offset", "op": "Const", "attr": {"value": {"tensor": {"dtype": "DT_FLOAT", "tensorShape": {"dim": [{"size": "80"}]}}}, "dtype": {"type": "DT_FLOAT"}}}, {"name": "StatefulPartitionedCall/efficientnetv2-m/blocks_9/conv2d/Conv2D_weights", "op": "Const", "attr": {"value": {"tensor": {"dtype": "DT_FLOAT", "tensorShape": {"dim": [{"size": "3"}, {"size": "3"}, {"size": "80"}, {"size": "320"}]}}}, "dtype": {"type": "DT_FLOAT"}}}, {"name": "StatefulPartitionedCall/efficientnetv2-m/blocks_9/conv2d/Conv2D_bn_offset", "op": "Const", "attr": {"value": {"tensor": {"dtype": "DT_FLOAT", "tensorShape": {"dim": [{"size": "320"}]}}}, "dtype": {"type": "DT_FLOAT"}}}, {"name": "StatefulPartitionedCall/efficientnetv2-m/blocks_9/conv2d_1/Conv2D_weights", "op": "Const", "attr": {"value": {"tensor": {"dtype": "DT_FLOAT", "tensorShape": {"dim": [{"size": "1"}, {"size": "1"}, {"size": "320"}, {"size": "80"}]}}}, "dtype": {"type": "DT_FLOAT"}}}, {"name": "StatefulPartitionedCall/efficientnetv2-m/blocks_9/conv2d_1/Conv2D_bn_offset", "op": "Const", "attr": {"value": {"tensor": {"dtype": "DT_FLOAT", "tensorShape": {"dim": [{"size": "80"}]}}}, "dtype": {"type": "DT_FLOAT"}}}, {"name": "StatefulPartitionedCall/efficientnetv2-m/blocks_10/conv2d/Conv2D_weights", "op": "Const", "attr": {"value": {"tensor": {"dtype": "DT_FLOAT", "tensorShape": {"dim": [{"size": "3"}, {"size": "3"}, {"size": "80"}, {"size": "320"}]}}}, "dtype": {"type": "DT_FLOAT"}}}, {"name": "StatefulPartitionedCall/efficientnetv2-m/blocks_50/depthwise_conv2d/depthwise_weights", "op": "Const", "attr": {"value": {"tensor": {"dtype": "DT_FLOAT", "tensorShape": {"dim": [{"size": "3"}, {"size": "3"}, {"size": "1824"}, {"size": "1"}]}}}, "dtype": {"type": "DT_FLOAT"}}}, {"name": "StatefulPartitionedCall/efficientnetv2-m/blocks_10/conv2d/Conv2D_bn_offset", "op": "Const", "attr": {"value": {"tensor": {"dtype": "DT_FLOAT", "tensorShape": {"dim": [{"size": "320"}]}}}, "dtype": {"type": "DT_FLOAT"}}}, {"name": "StatefulPartitionedCall/efficientnetv2-m/blocks_10/conv2d_1/Conv2D_weights", "op": "Const", "attr": {"value": {"tensor": {"dtype": "DT_FLOAT", "tensorShape": {"dim": [{"size": "1"}, {"size": "1"}, {"size": "320"}, {"size": "80"}]}}}, "dtype": {"type": "DT_FLOAT"}}}, {"name": "StatefulPartitionedCall/efficientnetv2-m/blocks_10/conv2d_1/Conv2D_bn_offset", "op": "Const", "attr": {"value": {"tensor": {"dtype": "DT_FLOAT", "tensorShape": {"dim": [{"size": "80"}]}}}, "dtype": {"type": "DT_FLOAT"}}}, {"name": "StatefulPartitionedCall/efficientnetv2-m/blocks_11/conv2d/Conv2D_weights", "op": "Const", "attr": {"value": {"tensor": {"dtype": "DT_FLOAT", "tensorShape": {"dim": [{"size": "3"}, {"size": "3"}, {"size": "80"}, {"size": "320"}]}}}, "dtype": {"type": "DT_FLOAT"}}}, {"name": "StatefulPartitionedCall/efficientnetv2-m/blocks_50/depthwise_conv2d/depthwise_bn_offset", "op": "Const", "attr": {"value": {"tensor": {"dtype": "DT_FLOAT", "tensorShape": {"dim": [{"size": "1824"}]}}}, "dtype": {"type": "DT_FLOAT"}}}, {"name": "StatefulPartitionedCall/efficientnetv2-m/blocks_11/conv2d/Conv2D_bn_offset", "op": "Const", "attr": {"value": {"tensor": {"dtype": "DT_FLOAT", "tensorShape": {"dim": [{"size": "320"}]}}}, "dtype": {"type": "DT_FLOAT"}}}, {"name": "StatefulPartitionedCall/efficientnetv2-m/blocks_11/conv2d_1/Conv2D_weights", "op": "Const", "attr": {"value": {"tensor": {"dtype": "DT_FLOAT", "tensorShape": {"dim": [{"size": "1"}, {"size": "1"}, {"size": "320"}, {"size": "80"}]}}}, "dtype": {"type": "DT_FLOAT"}}}, {"name": "StatefulPartitionedCall/efficientnetv2-m/blocks_11/conv2d_1/Conv2D_bn_offset", "op": "Const", "attr": {"value": {"tensor": {"dtype": "DT_FLOAT", "tensorShape": {"dim": [{"size": "80"}]}}}, "dtype": {"type": "DT_FLOAT"}}}, {"name": "StatefulPartitionedCall/efficientnetv2-m/blocks_12/conv2d/Conv2D_weights", "op": "Const", "attr": {"value": {"tensor": {"dtype": "DT_FLOAT", "tensorShape": {"dim": [{"size": "3"}, {"size": "3"}, {"size": "80"}, {"size": "320"}]}}}, "dtype": {"type": "DT_FLOAT"}}}, {"name": "StatefulPartitionedCall/efficientnetv2-m/blocks_12/conv2d/Conv2D_bn_offset", "op": "Const", "attr": {"value": {"tensor": {"dtype": "DT_FLOAT", "tensorShape": {"dim": [{"size": "320"}]}}}, "dtype": {"type": "DT_FLOAT"}}}, {"name": "StatefulPartitionedCall/efficientnetv2-m/blocks_12/conv2d_1/Conv2D_weights", "op": "Const", "attr": {"value": {"tensor": {"dtype": "DT_FLOAT", "tensorShape": {"dim": [{"size": "1"}, {"size": "1"}, {"size": "320"}, {"size": "80"}]}}}, "dtype": {"type": "DT_FLOAT"}}}, {"name": "StatefulPartitionedCall/efficientnetv2-m/blocks_12/conv2d_1/Conv2D_bn_offset", "op": "Const", "attr": {"value": {"tensor": {"dtype": "DT_FLOAT", "tensorShape": {"dim": [{"size": "80"}]}}}, "dtype": {"type": "DT_FLOAT"}}}, {"name": "StatefulPartitionedCall/efficientnetv2-m/blocks_13/conv2d/Conv2D_weights", "op": "Const", "attr": {"value": {"tensor": {"dtype": "DT_FLOAT", "tensorShape": {"dim": [{"size": "1"}, {"size": "1"}, {"size": "80"}, {"size": "320"}]}}}, "dtype": {"type": "DT_FLOAT"}}}, {"name": "StatefulPartitionedCall/efficientnetv2-m/blocks_13/conv2d/Conv2D_bn_offset", "op": "Const", "attr": {"value": {"tensor": {"dtype": "DT_FLOAT", "tensorShape": {"dim": [{"size": "320"}]}}}, "dtype": {"type": "DT_FLOAT"}}}, {"name": "StatefulPartitionedCall/efficientnetv2-m/blocks_13/depthwise_conv2d/depthwise_weights", "op": "Const", "attr": {"value": {"tensor": {"dtype": "DT_FLOAT", "tensorShape": {"dim": [{"size": "3"}, {"size": "3"}, {"size": "320"}, {"size": "1"}]}}}, "dtype": {"type": "DT_FLOAT"}}}, {"name": "StatefulPartitionedCall/efficientnetv2-m/blocks_13/depthwise_conv2d/depthwise_bn_offset", "op": "Const", "attr": {"value": {"tensor": {"dtype": "DT_FLOAT", "tensorShape": {"dim": [{"size": "320"}]}}}, "dtype": {"type": "DT_FLOAT"}}}, {"name": "StatefulPartitionedCall/efficientnetv2-m/blocks_56/depthwise_conv2d/depthwise_weights", "op": "Const", "attr": {"value": {"tensor": {"dtype": "DT_FLOAT", "tensorShape": {"dim": [{"size": "3"}, {"size": "3"}, {"size": "3072"}, {"size": "1"}]}}}, "dtype": {"type": "DT_FLOAT"}}}, {"name": "StatefulPartitionedCall/efficientnetv2-m/blocks_13/conv2d_1/Conv2D_weights", "op": "Const", "attr": {"value": {"tensor": {"dtype": "DT_FLOAT", "tensorShape": {"dim": [{"size": "1"}, {"size": "1"}, {"size": "320"}, {"size": "160"}]}}}, "dtype": {"type": "DT_FLOAT"}}}, {"name": "StatefulPartitionedCall/efficientnetv2-m/blocks_13/conv2d_1/Conv2D_bn_offset", "op": "Const", "attr": {"value": {"tensor": {"dtype": "DT_FLOAT", "tensorShape": {"dim": [{"size": "160"}]}}}, "dtype": {"type": "DT_FLOAT"}}}, {"name": "StatefulPartitionedCall/efficientnetv2-m/blocks_14/conv2d/Conv2D_weights", "op": "Const", "attr": {"value": {"tensor": {"dtype": "DT_FLOAT", "tensorShape": {"dim": [{"size": "1"}, {"size": "1"}, {"size": "160"}, {"size": "640"}]}}}, "dtype": {"type": "DT_FLOAT"}}}, {"name": "StatefulPartitionedCall/efficientnetv2-m/blocks_14/conv2d/Conv2D_bn_offset", "op": "Const", "attr": {"value": {"tensor": {"dtype": "DT_FLOAT", "tensorShape": {"dim": [{"size": "640"}]}}}, "dtype": {"type": "DT_FLOAT"}}}, {"name": "StatefulPartitionedCall/efficientnetv2-m/blocks_14/depthwise_conv2d/depthwise_weights", "op": "Const", "attr": {"value": {"tensor": {"dtype": "DT_FLOAT", "tensorShape": {"dim": [{"size": "3"}, {"size": "3"}, {"size": "640"}, {"size": "1"}]}}}, "dtype": {"type": "DT_FLOAT"}}}, {"name": "StatefulPartitionedCall/efficientnetv2-m/blocks_14/depthwise_conv2d/depthwise_bn_offset", "op": "Const", "attr": {"value": {"tensor": {"dtype": "DT_FLOAT", "tensorShape": {"dim": [{"size": "640"}]}}}, "dtype": {"type": "DT_FLOAT"}}}, {"name": "StatefulPartitionedCall/efficientnetv2-m/blocks_14/conv2d_1/Conv2D_weights", "op": "Const", "attr": {"value": {"tensor": {"dtype": "DT_FLOAT", "tensorShape": {"dim": [{"size": "1"}, {"size": "1"}, {"size": "640"}, {"size": "160"}]}}}, "dtype": {"type": "DT_FLOAT"}}}, {"name": "StatefulPartitionedCall/efficientnetv2-m/blocks_14/conv2d_1/Conv2D_bn_offset", "op": "Const", "attr": {"value": {"tensor": {"dtype": "DT_FLOAT", "tensorShape": {"dim": [{"size": "160"}]}}}, "dtype": {"type": "DT_FLOAT"}}}, {"name": "StatefulPartitionedCall/efficientnetv2-m/blocks_15/conv2d/Conv2D_weights", "op": "Const", "attr": {"value": {"tensor": {"dtype": "DT_FLOAT", "tensorShape": {"dim": [{"size": "1"}, {"size": "1"}, {"size": "160"}, {"size": "640"}]}}}, "dtype": {"type": "DT_FLOAT"}}}, {"name": "StatefulPartitionedCall/efficientnetv2-m/blocks_15/conv2d/Conv2D_bn_offset", "op": "Const", "attr": {"value": {"tensor": {"dtype": "DT_FLOAT", "tensorShape": {"dim": [{"size": "640"}]}}}, "dtype": {"type": "DT_FLOAT"}}}, {"name": "StatefulPartitionedCall/efficientnetv2-m/blocks_15/depthwise_conv2d/depthwise_weights", "op": "Const", "attr": {"value": {"tensor": {"dtype": "DT_FLOAT", "tensorShape": {"dim": [{"size": "3"}, {"size": "3"}, {"size": "640"}, {"size": "1"}]}}}, "dtype": {"type": "DT_FLOAT"}}}, {"name": "StatefulPartitionedCall/efficientnetv2-m/blocks_15/depthwise_conv2d/depthwise_bn_offset", "op": "Const", "attr": {"value": {"tensor": {"dtype": "DT_FLOAT", "tensorShape": {"dim": [{"size": "640"}]}}}, "dtype": {"type": "DT_FLOAT"}}}, {"name": "StatefulPartitionedCall/efficientnetv2-m/blocks_50/conv2d_1/Conv2D_weights", "op": "Const", "attr": {"value": {"tensor": {"dtype": "DT_FLOAT", "tensorShape": {"dim": [{"size": "1"}, {"size": "1"}, {"size": "1824"}, {"size": "304"}]}}}, "dtype": {"type": "DT_FLOAT"}}}, {"name": "StatefulPartitionedCall/efficientnetv2-m/blocks_56/depthwise_conv2d/depthwise_bn_offset", "op": "Const", "attr": {"value": {"tensor": {"dtype": "DT_FLOAT", "tensorShape": {"dim": [{"size": "3072"}]}}}, "dtype": {"type": "DT_FLOAT"}}}, {"name": "StatefulPartitionedCall/efficientnetv2-m/blocks_15/conv2d_1/Conv2D_weights", "op": "Const", "attr": {"value": {"tensor": {"dtype": "DT_FLOAT", "tensorShape": {"dim": [{"size": "1"}, {"size": "1"}, {"size": "640"}, {"size": "160"}]}}}, "dtype": {"type": "DT_FLOAT"}}}, {"name": "StatefulPartitionedCall/efficientnetv2-m/blocks_50/conv2d_1/Conv2D_bn_offset", "op": "Const", "attr": {"value": {"tensor": {"dtype": "DT_FLOAT", "tensorShape": {"dim": [{"size": "304"}]}}}, "dtype": {"type": "DT_FLOAT"}}}, {"name": "StatefulPartitionedCall/efficientnetv2-m/blocks_15/conv2d_1/Conv2D_bn_offset", "op": "Const", "attr": {"value": {"tensor": {"dtype": "DT_FLOAT", "tensorShape": {"dim": [{"size": "160"}]}}}, "dtype": {"type": "DT_FLOAT"}}}, {"name": "StatefulPartitionedCall/efficientnetv2-m/blocks_16/conv2d/Conv2D_weights", "op": "Const", "attr": {"value": {"tensor": {"dtype": "DT_FLOAT", "tensorShape": {"dim": [{"size": "1"}, {"size": "1"}, {"size": "160"}, {"size": "640"}]}}}, "dtype": {"type": "DT_FLOAT"}}}, {"name": "StatefulPartitionedCall/efficientnetv2-m/blocks_16/conv2d/Conv2D_bn_offset", "op": "Const", "attr": {"value": {"tensor": {"dtype": "DT_FLOAT", "tensorShape": {"dim": [{"size": "640"}]}}}, "dtype": {"type": "DT_FLOAT"}}}, {"name": "StatefulPartitionedCall/efficientnetv2-m/blocks_16/depthwise_conv2d/depthwise_weights", "op": "Const", "attr": {"value": {"tensor": {"dtype": "DT_FLOAT", "tensorShape": {"dim": [{"size": "3"}, {"size": "3"}, {"size": "640"}, {"size": "1"}]}}}, "dtype": {"type": "DT_FLOAT"}}}, {"name": "StatefulPartitionedCall/efficientnetv2-m/blocks_16/depthwise_conv2d/depthwise_bn_offset", "op": "Const", "attr": {"value": {"tensor": {"dtype": "DT_FLOAT", "tensorShape": {"dim": [{"size": "640"}]}}}, "dtype": {"type": "DT_FLOAT"}}}, {"name": "StatefulPartitionedCall/efficientnetv2-m/blocks_51/conv2d/Conv2D_weights", "op": "Const", "attr": {"value": {"tensor": {"dtype": "DT_FLOAT", "tensorShape": {"dim": [{"size": "1"}, {"size": "1"}, {"size": "304"}, {"size": "1824"}]}}}, "dtype": {"type": "DT_FLOAT"}}}, {"name": "StatefulPartitionedCall/efficientnetv2-m/blocks_16/conv2d_1/Conv2D_weights", "op": "Const", "attr": {"value": {"tensor": {"dtype": "DT_FLOAT", "tensorShape": {"dim": [{"size": "1"}, {"size": "1"}, {"size": "640"}, {"size": "160"}]}}}, "dtype": {"type": "DT_FLOAT"}}}, {"name": "StatefulPartitionedCall/efficientnetv2-m/blocks_16/conv2d_1/Conv2D_bn_offset", "op": "Const", "attr": {"value": {"tensor": {"dtype": "DT_FLOAT", "tensorShape": {"dim": [{"size": "160"}]}}}, "dtype": {"type": "DT_FLOAT"}}}, {"name": "StatefulPartitionedCall/efficientnetv2-m/blocks_17/conv2d/Conv2D_weights", "op": "Const", "attr": {"value": {"tensor": {"dtype": "DT_FLOAT", "tensorShape": {"dim": [{"size": "1"}, {"size": "1"}, {"size": "160"}, {"size": "640"}]}}}, "dtype": {"type": "DT_FLOAT"}}}, {"name": "StatefulPartitionedCall/efficientnetv2-m/blocks_51/conv2d/Conv2D_bn_offset", "op": "Const", "attr": {"value": {"tensor": {"dtype": "DT_FLOAT", "tensorShape": {"dim": [{"size": "1824"}]}}}, "dtype": {"type": "DT_FLOAT"}}}, {"name": "StatefulPartitionedCall/efficientnetv2-m/blocks_17/conv2d/Conv2D_bn_offset", "op": "Const", "attr": {"value": {"tensor": {"dtype": "DT_FLOAT", "tensorShape": {"dim": [{"size": "640"}]}}}, "dtype": {"type": "DT_FLOAT"}}}, {"name": "StatefulPartitionedCall/efficientnetv2-m/blocks_17/depthwise_conv2d/depthwise_weights", "op": "Const", "attr": {"value": {"tensor": {"dtype": "DT_FLOAT", "tensorShape": {"dim": [{"size": "3"}, {"size": "3"}, {"size": "640"}, {"size": "1"}]}}}, "dtype": {"type": "DT_FLOAT"}}}, {"name": "StatefulPartitionedCall/efficientnetv2-m/blocks_17/depthwise_conv2d/depthwise_bn_offset", "op": "Const", "attr": {"value": {"tensor": {"dtype": "DT_FLOAT", "tensorShape": {"dim": [{"size": "640"}]}}}, "dtype": {"type": "DT_FLOAT"}}}, {"name": "StatefulPartitionedCall/efficientnetv2-m/blocks_17/conv2d_1/Conv2D_weights", "op": "Const", "attr": {"value": {"tensor": {"dtype": "DT_FLOAT", "tensorShape": {"dim": [{"size": "1"}, {"size": "1"}, {"size": "640"}, {"size": "160"}]}}}, "dtype": {"type": "DT_FLOAT"}}}, {"name": "StatefulPartitionedCall/efficientnetv2-m/blocks_17/conv2d_1/Conv2D_bn_offset", "op": "Const", "attr": {"value": {"tensor": {"dtype": "DT_FLOAT", "tensorShape": {"dim": [{"size": "160"}]}}}, "dtype": {"type": "DT_FLOAT"}}}, {"name": "StatefulPartitionedCall/efficientnetv2-m/blocks_18/conv2d/Conv2D_weights", "op": "Const", "attr": {"value": {"tensor": {"dtype": "DT_FLOAT", "tensorShape": {"dim": [{"size": "1"}, {"size": "1"}, {"size": "160"}, {"size": "640"}]}}}, "dtype": {"type": "DT_FLOAT"}}}, {"name": "StatefulPartitionedCall/efficientnetv2-m/blocks_51/depthwise_conv2d/depthwise_weights", "op": "Const", "attr": {"value": {"tensor": {"dtype": "DT_FLOAT", "tensorShape": {"dim": [{"size": "3"}, {"size": "3"}, {"size": "1824"}, {"size": "1"}]}}}, "dtype": {"type": "DT_FLOAT"}}}, {"name": "StatefulPartitionedCall/efficientnetv2-m/blocks_18/conv2d/Conv2D_bn_offset", "op": "Const", "attr": {"value": {"tensor": {"dtype": "DT_FLOAT", "tensorShape": {"dim": [{"size": "640"}]}}}, "dtype": {"type": "DT_FLOAT"}}}, {"name": "StatefulPartitionedCall/efficientnetv2-m/blocks_18/depthwise_conv2d/depthwise_weights", "op": "Const", "attr": {"value": {"tensor": {"dtype": "DT_FLOAT", "tensorShape": {"dim": [{"size": "3"}, {"size": "3"}, {"size": "640"}, {"size": "1"}]}}}, "dtype": {"type": "DT_FLOAT"}}}, {"name": "StatefulPartitionedCall/efficientnetv2-m/blocks_18/depthwise_conv2d/depthwise_bn_offset", "op": "Const", "attr": {"value": {"tensor": {"dtype": "DT_FLOAT", "tensorShape": {"dim": [{"size": "640"}]}}}, "dtype": {"type": "DT_FLOAT"}}}, {"name": "StatefulPartitionedCall/efficientnetv2-m/blocks_51/depthwise_conv2d/depthwise_bn_offset", "op": "Const", "attr": {"value": {"tensor": {"dtype": "DT_FLOAT", "tensorShape": {"dim": [{"size": "1824"}]}}}, "dtype": {"type": "DT_FLOAT"}}}, {"name": "StatefulPartitionedCall/efficientnetv2-m/blocks_18/conv2d_1/Conv2D_weights", "op": "Const", "attr": {"value": {"tensor": {"dtype": "DT_FLOAT", "tensorShape": {"dim": [{"size": "1"}, {"size": "1"}, {"size": "640"}, {"size": "160"}]}}}, "dtype": {"type": "DT_FLOAT"}}}, {"name": "StatefulPartitionedCall/efficientnetv2-m/blocks_18/conv2d_1/Conv2D_bn_offset", "op": "Const", "attr": {"value": {"tensor": {"dtype": "DT_FLOAT", "tensorShape": {"dim": [{"size": "160"}]}}}, "dtype": {"type": "DT_FLOAT"}}}, {"name": "StatefulPartitionedCall/efficientnetv2-m/blocks_19/conv2d/Conv2D_weights", "op": "Const", "attr": {"value": {"tensor": {"dtype": "DT_FLOAT", "tensorShape": {"dim": [{"size": "1"}, {"size": "1"}, {"size": "160"}, {"size": "640"}]}}}, "dtype": {"type": "DT_FLOAT"}}}, {"name": "StatefulPartitionedCall/efficientnetv2-m/blocks_19/conv2d/Conv2D_bn_offset", "op": "Const", "attr": {"value": {"tensor": {"dtype": "DT_FLOAT", "tensorShape": {"dim": [{"size": "640"}]}}}, "dtype": {"type": "DT_FLOAT"}}}, {"name": "StatefulPartitionedCall/efficientnetv2-m/blocks_19/depthwise_conv2d/depthwise_weights", "op": "Const", "attr": {"value": {"tensor": {"dtype": "DT_FLOAT", "tensorShape": {"dim": [{"size": "3"}, {"size": "3"}, {"size": "640"}, {"size": "1"}]}}}, "dtype": {"type": "DT_FLOAT"}}}, {"name": "StatefulPartitionedCall/efficientnetv2-m/blocks_19/depthwise_conv2d/depthwise_bn_offset", "op": "Const", "attr": {"value": {"tensor": {"dtype": "DT_FLOAT", "tensorShape": {"dim": [{"size": "640"}]}}}, "dtype": {"type": "DT_FLOAT"}}}, {"name": "StatefulPartitionedCall/efficientnetv2-m/blocks_19/conv2d_1/Conv2D_weights", "op": "Const", "attr": {"value": {"tensor": {"dtype": "DT_FLOAT", "tensorShape": {"dim": [{"size": "1"}, {"size": "1"}, {"size": "640"}, {"size": "160"}]}}}, "dtype": {"type": "DT_FLOAT"}}}, {"name": "StatefulPartitionedCall/efficientnetv2-m/blocks_19/conv2d_1/Conv2D_bn_offset", "op": "Const", "attr": {"value": {"tensor": {"dtype": "DT_FLOAT", "tensorShape": {"dim": [{"size": "160"}]}}}, "dtype": {"type": "DT_FLOAT"}}}, {"name": "StatefulPartitionedCall/efficientnetv2-m/blocks_20/conv2d/Conv2D_weights", "op": "Const", "attr": {"value": {"tensor": {"dtype": "DT_FLOAT", "tensorShape": {"dim": [{"size": "1"}, {"size": "1"}, {"size": "160"}, {"size": "960"}]}}}, "dtype": {"type": "DT_FLOAT"}}}, {"name": "StatefulPartitionedCall/efficientnetv2-m/blocks_20/conv2d/Conv2D_bn_offset", "op": "Const", "attr": {"value": {"tensor": {"dtype": "DT_FLOAT", "tensorShape": {"dim": [{"size": "960"}]}}}, "dtype": {"type": "DT_FLOAT"}}}, {"name": "StatefulPartitionedCall/efficientnetv2-m/blocks_20/depthwise_conv2d/depthwise_weights", "op": "Const", "attr": {"value": {"tensor": {"dtype": "DT_FLOAT", "tensorShape": {"dim": [{"size": "3"}, {"size": "3"}, {"size": "960"}, {"size": "1"}]}}}, "dtype": {"type": "DT_FLOAT"}}}, {"name": "StatefulPartitionedCall/efficientnetv2-m/blocks_20/depthwise_conv2d/depthwise_bn_offset", "op": "Const", "attr": {"value": {"tensor": {"dtype": "DT_FLOAT", "tensorShape": {"dim": [{"size": "960"}]}}}, "dtype": {"type": "DT_FLOAT"}}}, {"name": "StatefulPartitionedCall/efficientnetv2-m/blocks_20/conv2d_1/Conv2D_weights", "op": "Const", "attr": {"value": {"tensor": {"dtype": "DT_FLOAT", "tensorShape": {"dim": [{"size": "1"}, {"size": "1"}, {"size": "960"}, {"size": "176"}]}}}, "dtype": {"type": "DT_FLOAT"}}}, {"name": "StatefulPartitionedCall/efficientnetv2-m/blocks_20/conv2d_1/Conv2D_bn_offset", "op": "Const", "attr": {"value": {"tensor": {"dtype": "DT_FLOAT", "tensorShape": {"dim": [{"size": "176"}]}}}, "dtype": {"type": "DT_FLOAT"}}}, {"name": "StatefulPartitionedCall/efficientnetv2-m/blocks_21/conv2d/Conv2D_weights", "op": "Const", "attr": {"value": {"tensor": {"dtype": "DT_FLOAT", "tensorShape": {"dim": [{"size": "1"}, {"size": "1"}, {"size": "176"}, {"size": "1056"}]}}}, "dtype": {"type": "DT_FLOAT"}}}, {"name": "StatefulPartitionedCall/efficientnetv2-m/blocks_21/conv2d/Conv2D_bn_offset", "op": "Const", "attr": {"value": {"tensor": {"dtype": "DT_FLOAT", "tensorShape": {"dim": [{"size": "1056"}]}}}, "dtype": {"type": "DT_FLOAT"}}}, {"name": "StatefulPartitionedCall/efficientnetv2-m/blocks_21/depthwise_conv2d/depthwise_weights", "op": "Const", "attr": {"value": {"tensor": {"dtype": "DT_FLOAT", "tensorShape": {"dim": [{"size": "3"}, {"size": "3"}, {"size": "1056"}, {"size": "1"}]}}}, "dtype": {"type": "DT_FLOAT"}}}, {"name": "StatefulPartitionedCall/efficientnetv2-m/blocks_21/depthwise_conv2d/depthwise_bn_offset", "op": "Const", "attr": {"value": {"tensor": {"dtype": "DT_FLOAT", "tensorShape": {"dim": [{"size": "1056"}]}}}, "dtype": {"type": "DT_FLOAT"}}}, {"name": "StatefulPartitionedCall/efficientnetv2-m/blocks_21/conv2d_1/Conv2D_weights", "op": "Const", "attr": {"value": {"tensor": {"dtype": "DT_FLOAT", "tensorShape": {"dim": [{"size": "1"}, {"size": "1"}, {"size": "1056"}, {"size": "176"}]}}}, "dtype": {"type": "DT_FLOAT"}}}, {"name": "StatefulPartitionedCall/efficientnetv2-m/blocks_51/conv2d_1/Conv2D_weights", "op": "Const", "attr": {"value": {"tensor": {"dtype": "DT_FLOAT", "tensorShape": {"dim": [{"size": "1"}, {"size": "1"}, {"size": "1824"}, {"size": "304"}]}}}, "dtype": {"type": "DT_FLOAT"}}}, {"name": "StatefulPartitionedCall/efficientnetv2-m/blocks_21/conv2d_1/Conv2D_bn_offset", "op": "Const", "attr": {"value": {"tensor": {"dtype": "DT_FLOAT", "tensorShape": {"dim": [{"size": "176"}]}}}, "dtype": {"type": "DT_FLOAT"}}}, {"name": "StatefulPartitionedCall/efficientnetv2-m/blocks_22/conv2d/Conv2D_weights", "op": "Const", "attr": {"value": {"tensor": {"dtype": "DT_FLOAT", "tensorShape": {"dim": [{"size": "1"}, {"size": "1"}, {"size": "176"}, {"size": "1056"}]}}}, "dtype": {"type": "DT_FLOAT"}}}, {"name": "StatefulPartitionedCall/efficientnetv2-m/blocks_22/conv2d/Conv2D_bn_offset", "op": "Const", "attr": {"value": {"tensor": {"dtype": "DT_FLOAT", "tensorShape": {"dim": [{"size": "1056"}]}}}, "dtype": {"type": "DT_FLOAT"}}}, {"name": "StatefulPartitionedCall/efficientnetv2-m/blocks_22/depthwise_conv2d/depthwise_weights", "op": "Const", "attr": {"value": {"tensor": {"dtype": "DT_FLOAT", "tensorShape": {"dim": [{"size": "3"}, {"size": "3"}, {"size": "1056"}, {"size": "1"}]}}}, "dtype": {"type": "DT_FLOAT"}}}, {"name": "StatefulPartitionedCall/efficientnetv2-m/blocks_22/depthwise_conv2d/depthwise_bn_offset", "op": "Const", "attr": {"value": {"tensor": {"dtype": "DT_FLOAT", "tensorShape": {"dim": [{"size": "1056"}]}}}, "dtype": {"type": "DT_FLOAT"}}}, {"name": "StatefulPartitionedCall/efficientnetv2-m/blocks_51/conv2d_1/Conv2D_bn_offset", "op": "Const", "attr": {"value": {"tensor": {"dtype": "DT_FLOAT", "tensorShape": {"dim": [{"size": "304"}]}}}, "dtype": {"type": "DT_FLOAT"}}}, {"name": "StatefulPartitionedCall/efficientnetv2-m/blocks_22/conv2d_1/Conv2D_weights", "op": "Const", "attr": {"value": {"tensor": {"dtype": "DT_FLOAT", "tensorShape": {"dim": [{"size": "1"}, {"size": "1"}, {"size": "1056"}, {"size": "176"}]}}}, "dtype": {"type": "DT_FLOAT"}}}, {"name": "StatefulPartitionedCall/efficientnetv2-m/blocks_22/conv2d_1/Conv2D_bn_offset", "op": "Const", "attr": {"value": {"tensor": {"dtype": "DT_FLOAT", "tensorShape": {"dim": [{"size": "176"}]}}}, "dtype": {"type": "DT_FLOAT"}}}, {"name": "StatefulPartitionedCall/efficientnetv2-m/blocks_23/conv2d/Conv2D_weights", "op": "Const", "attr": {"value": {"tensor": {"dtype": "DT_FLOAT", "tensorShape": {"dim": [{"size": "1"}, {"size": "1"}, {"size": "176"}, {"size": "1056"}]}}}, "dtype": {"type": "DT_FLOAT"}}}, {"name": "StatefulPartitionedCall/efficientnetv2-m/blocks_52/conv2d/Conv2D_weights", "op": "Const", "attr": {"value": {"tensor": {"dtype": "DT_FLOAT", "tensorShape": {"dim": [{"size": "1"}, {"size": "1"}, {"size": "304"}, {"size": "1824"}]}}}, "dtype": {"type": "DT_FLOAT"}}}, {"name": "StatefulPartitionedCall/efficientnetv2-m/blocks_23/conv2d/Conv2D_bn_offset", "op": "Const", "attr": {"value": {"tensor": {"dtype": "DT_FLOAT", "tensorShape": {"dim": [{"size": "1056"}]}}}, "dtype": {"type": "DT_FLOAT"}}}, {"name": "StatefulPartitionedCall/efficientnetv2-m/blocks_23/depthwise_conv2d/depthwise_weights", "op": "Const", "attr": {"value": {"tensor": {"dtype": "DT_FLOAT", "tensorShape": {"dim": [{"size": "3"}, {"size": "3"}, {"size": "1056"}, {"size": "1"}]}}}, "dtype": {"type": "DT_FLOAT"}}}, {"name": "StatefulPartitionedCall/efficientnetv2-m/blocks_23/depthwise_conv2d/depthwise_bn_offset", "op": "Const", "attr": {"value": {"tensor": {"dtype": "DT_FLOAT", "tensorShape": {"dim": [{"size": "1056"}]}}}, "dtype": {"type": "DT_FLOAT"}}}, {"name": "StatefulPartitionedCall/efficientnetv2-m/blocks_52/conv2d/Conv2D_bn_offset", "op": "Const", "attr": {"value": {"tensor": {"dtype": "DT_FLOAT", "tensorShape": {"dim": [{"size": "1824"}]}}}, "dtype": {"type": "DT_FLOAT"}}}, {"name": "StatefulPartitionedCall/efficientnetv2-m/blocks_23/conv2d_1/Conv2D_weights", "op": "Const", "attr": {"value": {"tensor": {"dtype": "DT_FLOAT", "tensorShape": {"dim": [{"size": "1"}, {"size": "1"}, {"size": "1056"}, {"size": "176"}]}}}, "dtype": {"type": "DT_FLOAT"}}}, {"name": "StatefulPartitionedCall/efficientnetv2-m/blocks_23/conv2d_1/Conv2D_bn_offset", "op": "Const", "attr": {"value": {"tensor": {"dtype": "DT_FLOAT", "tensorShape": {"dim": [{"size": "176"}]}}}, "dtype": {"type": "DT_FLOAT"}}}, {"name": "StatefulPartitionedCall/efficientnetv2-m/blocks_24/conv2d/Conv2D_weights", "op": "Const", "attr": {"value": {"tensor": {"dtype": "DT_FLOAT", "tensorShape": {"dim": [{"size": "1"}, {"size": "1"}, {"size": "176"}, {"size": "1056"}]}}}, "dtype": {"type": "DT_FLOAT"}}}, {"name": "StatefulPartitionedCall/efficientnetv2-m/blocks_24/conv2d/Conv2D_bn_offset", "op": "Const", "attr": {"value": {"tensor": {"dtype": "DT_FLOAT", "tensorShape": {"dim": [{"size": "1056"}]}}}, "dtype": {"type": "DT_FLOAT"}}}, {"name": "StatefulPartitionedCall/efficientnetv2-m/blocks_24/depthwise_conv2d/depthwise_weights", "op": "Const", "attr": {"value": {"tensor": {"dtype": "DT_FLOAT", "tensorShape": {"dim": [{"size": "3"}, {"size": "3"}, {"size": "1056"}, {"size": "1"}]}}}, "dtype": {"type": "DT_FLOAT"}}}, {"name": "StatefulPartitionedCall/efficientnetv2-m/blocks_24/depthwise_conv2d/depthwise_bn_offset", "op": "Const", "attr": {"value": {"tensor": {"dtype": "DT_FLOAT", "tensorShape": {"dim": [{"size": "1056"}]}}}, "dtype": {"type": "DT_FLOAT"}}}, {"name": "StatefulPartitionedCall/efficientnetv2-m/blocks_52/depthwise_conv2d/depthwise_weights", "op": "Const", "attr": {"value": {"tensor": {"dtype": "DT_FLOAT", "tensorShape": {"dim": [{"size": "3"}, {"size": "3"}, {"size": "1824"}, {"size": "1"}]}}}, "dtype": {"type": "DT_FLOAT"}}}, {"name": "StatefulPartitionedCall/efficientnetv2-m/blocks_24/conv2d_1/Conv2D_weights", "op": "Const", "attr": {"value": {"tensor": {"dtype": "DT_FLOAT", "tensorShape": {"dim": [{"size": "1"}, {"size": "1"}, {"size": "1056"}, {"size": "176"}]}}}, "dtype": {"type": "DT_FLOAT"}}}, {"name": "StatefulPartitionedCall/efficientnetv2-m/blocks_24/conv2d_1/Conv2D_bn_offset", "op": "Const", "attr": {"value": {"tensor": {"dtype": "DT_FLOAT", "tensorShape": {"dim": [{"size": "176"}]}}}, "dtype": {"type": "DT_FLOAT"}}}, {"name": "StatefulPartitionedCall/efficientnetv2-m/blocks_25/conv2d/Conv2D_weights", "op": "Const", "attr": {"value": {"tensor": {"dtype": "DT_FLOAT", "tensorShape": {"dim": [{"size": "1"}, {"size": "1"}, {"size": "176"}, {"size": "1056"}]}}}, "dtype": {"type": "DT_FLOAT"}}}, {"name": "StatefulPartitionedCall/efficientnetv2-m/blocks_52/depthwise_conv2d/depthwise_bn_offset", "op": "Const", "attr": {"value": {"tensor": {"dtype": "DT_FLOAT", "tensorShape": {"dim": [{"size": "1824"}]}}}, "dtype": {"type": "DT_FLOAT"}}}, {"name": "StatefulPartitionedCall/efficientnetv2-m/blocks_25/conv2d/Conv2D_bn_offset", "op": "Const", "attr": {"value": {"tensor": {"dtype": "DT_FLOAT", "tensorShape": {"dim": [{"size": "1056"}]}}}, "dtype": {"type": "DT_FLOAT"}}}, {"name": "StatefulPartitionedCall/efficientnetv2-m/blocks_25/depthwise_conv2d/depthwise_weights", "op": "Const", "attr": {"value": {"tensor": {"dtype": "DT_FLOAT", "tensorShape": {"dim": [{"size": "3"}, {"size": "3"}, {"size": "1056"}, {"size": "1"}]}}}, "dtype": {"type": "DT_FLOAT"}}}, {"name": "StatefulPartitionedCall/efficientnetv2-m/blocks_25/depthwise_conv2d/depthwise_bn_offset", "op": "Const", "attr": {"value": {"tensor": {"dtype": "DT_FLOAT", "tensorShape": {"dim": [{"size": "1056"}]}}}, "dtype": {"type": "DT_FLOAT"}}}, {"name": "StatefulPartitionedCall/efficientnetv2-m/blocks_25/conv2d_1/Conv2D_weights", "op": "Const", "attr": {"value": {"tensor": {"dtype": "DT_FLOAT", "tensorShape": {"dim": [{"size": "1"}, {"size": "1"}, {"size": "1056"}, {"size": "176"}]}}}, "dtype": {"type": "DT_FLOAT"}}}, {"name": "StatefulPartitionedCall/efficientnetv2-m/blocks_25/conv2d_1/Conv2D_bn_offset", "op": "Const", "attr": {"value": {"tensor": {"dtype": "DT_FLOAT", "tensorShape": {"dim": [{"size": "176"}]}}}, "dtype": {"type": "DT_FLOAT"}}}, {"name": "StatefulPartitionedCall/efficientnetv2-m/blocks_26/conv2d/Conv2D_weights", "op": "Const", "attr": {"value": {"tensor": {"dtype": "DT_FLOAT", "tensorShape": {"dim": [{"size": "1"}, {"size": "1"}, {"size": "176"}, {"size": "1056"}]}}}, "dtype": {"type": "DT_FLOAT"}}}, {"name": "StatefulPartitionedCall/efficientnetv2-m/blocks_26/conv2d/Conv2D_bn_offset", "op": "Const", "attr": {"value": {"tensor": {"dtype": "DT_FLOAT", "tensorShape": {"dim": [{"size": "1056"}]}}}, "dtype": {"type": "DT_FLOAT"}}}, {"name": "StatefulPartitionedCall/efficientnetv2-m/blocks_26/depthwise_conv2d/depthwise_weights", "op": "Const", "attr": {"value": {"tensor": {"dtype": "DT_FLOAT", "tensorShape": {"dim": [{"size": "3"}, {"size": "3"}, {"size": "1056"}, {"size": "1"}]}}}, "dtype": {"type": "DT_FLOAT"}}}, {"name": "StatefulPartitionedCall/efficientnetv2-m/blocks_26/depthwise_conv2d/depthwise_bn_offset", "op": "Const", "attr": {"value": {"tensor": {"dtype": "DT_FLOAT", "tensorShape": {"dim": [{"size": "1056"}]}}}, "dtype": {"type": "DT_FLOAT"}}}, {"name": "StatefulPartitionedCall/efficientnetv2-m/blocks_26/conv2d_1/Conv2D_weights", "op": "Const", "attr": {"value": {"tensor": {"dtype": "DT_FLOAT", "tensorShape": {"dim": [{"size": "1"}, {"size": "1"}, {"size": "1056"}, {"size": "176"}]}}}, "dtype": {"type": "DT_FLOAT"}}}, {"name": "StatefulPartitionedCall/efficientnetv2-m/blocks_26/conv2d_1/Conv2D_bn_offset", "op": "Const", "attr": {"value": {"tensor": {"dtype": "DT_FLOAT", "tensorShape": {"dim": [{"size": "176"}]}}}, "dtype": {"type": "DT_FLOAT"}}}, {"name": "StatefulPartitionedCall/efficientnetv2-m/blocks_27/conv2d/Conv2D_weights", "op": "Const", "attr": {"value": {"tensor": {"dtype": "DT_FLOAT", "tensorShape": {"dim": [{"size": "1"}, {"size": "1"}, {"size": "176"}, {"size": "1056"}]}}}, "dtype": {"type": "DT_FLOAT"}}}, {"name": "StatefulPartitionedCall/efficientnetv2-m/blocks_27/conv2d/Conv2D_bn_offset", "op": "Const", "attr": {"value": {"tensor": {"dtype": "DT_FLOAT", "tensorShape": {"dim": [{"size": "1056"}]}}}, "dtype": {"type": "DT_FLOAT"}}}, {"name": "StatefulPartitionedCall/efficientnetv2-m/blocks_27/depthwise_conv2d/depthwise_weights", "op": "Const", "attr": {"value": {"tensor": {"dtype": "DT_FLOAT", "tensorShape": {"dim": [{"size": "3"}, {"size": "3"}, {"size": "1056"}, {"size": "1"}]}}}, "dtype": {"type": "DT_FLOAT"}}}, {"name": "StatefulPartitionedCall/efficientnetv2-m/blocks_27/depthwise_conv2d/depthwise_bn_offset", "op": "Const", "attr": {"value": {"tensor": {"dtype": "DT_FLOAT", "tensorShape": {"dim": [{"size": "1056"}]}}}, "dtype": {"type": "DT_FLOAT"}}}, {"name": "StatefulPartitionedCall/efficientnetv2-m/blocks_27/conv2d_1/Conv2D_weights", "op": "Const", "attr": {"value": {"tensor": {"dtype": "DT_FLOAT", "tensorShape": {"dim": [{"size": "1"}, {"size": "1"}, {"size": "1056"}, {"size": "176"}]}}}, "dtype": {"type": "DT_FLOAT"}}}, {"name": "StatefulPartitionedCall/efficientnetv2-m/blocks_27/conv2d_1/Conv2D_bn_offset", "op": "Const", "attr": {"value": {"tensor": {"dtype": "DT_FLOAT", "tensorShape": {"dim": [{"size": "176"}]}}}, "dtype": {"type": "DT_FLOAT"}}}, {"name": "StatefulPartitionedCall/efficientnetv2-m/blocks_28/conv2d/Conv2D_weights", "op": "Const", "attr": {"value": {"tensor": {"dtype": "DT_FLOAT", "tensorShape": {"dim": [{"size": "1"}, {"size": "1"}, {"size": "176"}, {"size": "1056"}]}}}, "dtype": {"type": "DT_FLOAT"}}}, {"name": "StatefulPartitionedCall/efficientnetv2-m/blocks_28/conv2d/Conv2D_bn_offset", "op": "Const", "attr": {"value": {"tensor": {"dtype": "DT_FLOAT", "tensorShape": {"dim": [{"size": "1056"}]}}}, "dtype": {"type": "DT_FLOAT"}}}, {"name": "StatefulPartitionedCall/efficientnetv2-m/blocks_28/depthwise_conv2d/depthwise_weights", "op": "Const", "attr": {"value": {"tensor": {"dtype": "DT_FLOAT", "tensorShape": {"dim": [{"size": "3"}, {"size": "3"}, {"size": "1056"}, {"size": "1"}]}}}, "dtype": {"type": "DT_FLOAT"}}}, {"name": "StatefulPartitionedCall/efficientnetv2-m/blocks_28/depthwise_conv2d/depthwise_bn_offset", "op": "Const", "attr": {"value": {"tensor": {"dtype": "DT_FLOAT", "tensorShape": {"dim": [{"size": "1056"}]}}}, "dtype": {"type": "DT_FLOAT"}}}, {"name": "StatefulPartitionedCall/efficientnetv2-m/blocks_52/conv2d_1/Conv2D_weights", "op": "Const", "attr": {"value": {"tensor": {"dtype": "DT_FLOAT", "tensorShape": {"dim": [{"size": "1"}, {"size": "1"}, {"size": "1824"}, {"size": "512"}]}}}, "dtype": {"type": "DT_FLOAT"}}}, {"name": "StatefulPartitionedCall/efficientnetv2-m/blocks_28/conv2d_1/Conv2D_weights", "op": "Const", "attr": {"value": {"tensor": {"dtype": "DT_FLOAT", "tensorShape": {"dim": [{"size": "1"}, {"size": "1"}, {"size": "1056"}, {"size": "176"}]}}}, "dtype": {"type": "DT_FLOAT"}}}, {"name": "StatefulPartitionedCall/efficientnetv2-m/blocks_52/conv2d_1/Conv2D_bn_offset", "op": "Const", "attr": {"value": {"tensor": {"dtype": "DT_FLOAT", "tensorShape": {"dim": [{"size": "512"}]}}}, "dtype": {"type": "DT_FLOAT"}}}, {"name": "StatefulPartitionedCall/efficientnetv2-m/blocks_28/conv2d_1/Conv2D_bn_offset", "op": "Const", "attr": {"value": {"tensor": {"dtype": "DT_FLOAT", "tensorShape": {"dim": [{"size": "176"}]}}}, "dtype": {"type": "DT_FLOAT"}}}, {"name": "StatefulPartitionedCall/efficientnetv2-m/blocks_29/conv2d/Conv2D_weights", "op": "Const", "attr": {"value": {"tensor": {"dtype": "DT_FLOAT", "tensorShape": {"dim": [{"size": "1"}, {"size": "1"}, {"size": "176"}, {"size": "1056"}]}}}, "dtype": {"type": "DT_FLOAT"}}}, {"name": "StatefulPartitionedCall/efficientnetv2-m/blocks_29/conv2d/Conv2D_bn_offset", "op": "Const", "attr": {"value": {"tensor": {"dtype": "DT_FLOAT", "tensorShape": {"dim": [{"size": "1056"}]}}}, "dtype": {"type": "DT_FLOAT"}}}, {"name": "StatefulPartitionedCall/efficientnetv2-m/blocks_29/depthwise_conv2d/depthwise_weights", "op": "Const", "attr": {"value": {"tensor": {"dtype": "DT_FLOAT", "tensorShape": {"dim": [{"size": "3"}, {"size": "3"}, {"size": "1056"}, {"size": "1"}]}}}, "dtype": {"type": "DT_FLOAT"}}}, {"name": "StatefulPartitionedCall/efficientnetv2-m/blocks_29/depthwise_conv2d/depthwise_bn_offset", "op": "Const", "attr": {"value": {"tensor": {"dtype": "DT_FLOAT", "tensorShape": {"dim": [{"size": "1056"}]}}}, "dtype": {"type": "DT_FLOAT"}}}, {"name": "StatefulPartitionedCall/efficientnetv2-m/blocks_53/conv2d/Conv2D_weights", "op": "Const", "attr": {"value": {"tensor": {"dtype": "DT_FLOAT", "tensorShape": {"dim": [{"size": "1"}, {"size": "1"}, {"size": "512"}, {"size": "3072"}]}}}, "dtype": {"type": "DT_FLOAT"}}}, {"name": "StatefulPartitionedCall/efficientnetv2-m/blocks_29/conv2d_1/Conv2D_weights", "op": "Const", "attr": {"value": {"tensor": {"dtype": "DT_FLOAT", "tensorShape": {"dim": [{"size": "1"}, {"size": "1"}, {"size": "1056"}, {"size": "176"}]}}}, "dtype": {"type": "DT_FLOAT"}}}, {"name": "StatefulPartitionedCall/efficientnetv2-m/blocks_53/conv2d/Conv2D_bn_offset", "op": "Const", "attr": {"value": {"tensor": {"dtype": "DT_FLOAT", "tensorShape": {"dim": [{"size": "3072"}]}}}, "dtype": {"type": "DT_FLOAT"}}}, {"name": "StatefulPartitionedCall/efficientnetv2-m/blocks_29/conv2d_1/Conv2D_bn_offset", "op": "Const", "attr": {"value": {"tensor": {"dtype": "DT_FLOAT", "tensorShape": {"dim": [{"size": "176"}]}}}, "dtype": {"type": "DT_FLOAT"}}}, {"name": "StatefulPartitionedCall/efficientnetv2-m/blocks_30/conv2d/Conv2D_weights", "op": "Const", "attr": {"value": {"tensor": {"dtype": "DT_FLOAT", "tensorShape": {"dim": [{"size": "1"}, {"size": "1"}, {"size": "176"}, {"size": "1056"}]}}}, "dtype": {"type": "DT_FLOAT"}}}, {"name": "StatefulPartitionedCall/efficientnetv2-m/blocks_30/conv2d/Conv2D_bn_offset", "op": "Const", "attr": {"value": {"tensor": {"dtype": "DT_FLOAT", "tensorShape": {"dim": [{"size": "1056"}]}}}, "dtype": {"type": "DT_FLOAT"}}}, {"name": "StatefulPartitionedCall/efficientnetv2-m/blocks_30/depthwise_conv2d/depthwise_weights", "op": "Const", "attr": {"value": {"tensor": {"dtype": "DT_FLOAT", "tensorShape": {"dim": [{"size": "3"}, {"size": "3"}, {"size": "1056"}, {"size": "1"}]}}}, "dtype": {"type": "DT_FLOAT"}}}, {"name": "StatefulPartitionedCall/efficientnetv2-m/blocks_30/depthwise_conv2d/depthwise_bn_offset", "op": "Const", "attr": {"value": {"tensor": {"dtype": "DT_FLOAT", "tensorShape": {"dim": [{"size": "1056"}]}}}, "dtype": {"type": "DT_FLOAT"}}}, {"name": "StatefulPartitionedCall/efficientnetv2-m/blocks_30/conv2d_1/Conv2D_weights", "op": "Const", "attr": {"value": {"tensor": {"dtype": "DT_FLOAT", "tensorShape": {"dim": [{"size": "1"}, {"size": "1"}, {"size": "1056"}, {"size": "176"}]}}}, "dtype": {"type": "DT_FLOAT"}}}, {"name": "StatefulPartitionedCall/efficientnetv2-m/blocks_53/depthwise_conv2d/depthwise_weights", "op": "Const", "attr": {"value": {"tensor": {"dtype": "DT_FLOAT", "tensorShape": {"dim": [{"size": "3"}, {"size": "3"}, {"size": "3072"}, {"size": "1"}]}}}, "dtype": {"type": "DT_FLOAT"}}}, {"name": "StatefulPartitionedCall/efficientnetv2-m/blocks_30/conv2d_1/Conv2D_bn_offset", "op": "Const", "attr": {"value": {"tensor": {"dtype": "DT_FLOAT", "tensorShape": {"dim": [{"size": "176"}]}}}, "dtype": {"type": "DT_FLOAT"}}}, {"name": "StatefulPartitionedCall/efficientnetv2-m/blocks_31/conv2d/Conv2D_weights", "op": "Const", "attr": {"value": {"tensor": {"dtype": "DT_FLOAT", "tensorShape": {"dim": [{"size": "1"}, {"size": "1"}, {"size": "176"}, {"size": "1056"}]}}}, "dtype": {"type": "DT_FLOAT"}}}, {"name": "StatefulPartitionedCall/efficientnetv2-m/blocks_31/conv2d/Conv2D_bn_offset", "op": "Const", "attr": {"value": {"tensor": {"dtype": "DT_FLOAT", "tensorShape": {"dim": [{"size": "1056"}]}}}, "dtype": {"type": "DT_FLOAT"}}}, {"name": "StatefulPartitionedCall/efficientnetv2-m/blocks_31/depthwise_conv2d/depthwise_weights", "op": "Const", "attr": {"value": {"tensor": {"dtype": "DT_FLOAT", "tensorShape": {"dim": [{"size": "3"}, {"size": "3"}, {"size": "1056"}, {"size": "1"}]}}}, "dtype": {"type": "DT_FLOAT"}}}, {"name": "StatefulPartitionedCall/efficientnetv2-m/blocks_31/depthwise_conv2d/depthwise_bn_offset", "op": "Const", "attr": {"value": {"tensor": {"dtype": "DT_FLOAT", "tensorShape": {"dim": [{"size": "1056"}]}}}, "dtype": {"type": "DT_FLOAT"}}}, {"name": "StatefulPartitionedCall/efficientnetv2-m/blocks_53/depthwise_conv2d/depthwise_bn_offset", "op": "Const", "attr": {"value": {"tensor": {"dtype": "DT_FLOAT", "tensorShape": {"dim": [{"size": "3072"}]}}}, "dtype": {"type": "DT_FLOAT"}}}, {"name": "StatefulPartitionedCall/efficientnetv2-m/blocks_31/conv2d_1/Conv2D_weights", "op": "Const", "attr": {"value": {"tensor": {"dtype": "DT_FLOAT", "tensorShape": {"dim": [{"size": "1"}, {"size": "1"}, {"size": "1056"}, {"size": "176"}]}}}, "dtype": {"type": "DT_FLOAT"}}}, {"name": "StatefulPartitionedCall/efficientnetv2-m/blocks_31/conv2d_1/Conv2D_bn_offset", "op": "Const", "attr": {"value": {"tensor": {"dtype": "DT_FLOAT", "tensorShape": {"dim": [{"size": "176"}]}}}, "dtype": {"type": "DT_FLOAT"}}}, {"name": "StatefulPartitionedCall/efficientnetv2-m/blocks_32/conv2d/Conv2D_weights", "op": "Const", "attr": {"value": {"tensor": {"dtype": "DT_FLOAT", "tensorShape": {"dim": [{"size": "1"}, {"size": "1"}, {"size": "176"}, {"size": "1056"}]}}}, "dtype": {"type": "DT_FLOAT"}}}, {"name": "StatefulPartitionedCall/efficientnetv2-m/blocks_32/conv2d/Conv2D_bn_offset", "op": "Const", "attr": {"value": {"tensor": {"dtype": "DT_FLOAT", "tensorShape": {"dim": [{"size": "1056"}]}}}, "dtype": {"type": "DT_FLOAT"}}}, {"name": "StatefulPartitionedCall/efficientnetv2-m/blocks_32/depthwise_conv2d/depthwise_weights", "op": "Const", "attr": {"value": {"tensor": {"dtype": "DT_FLOAT", "tensorShape": {"dim": [{"size": "3"}, {"size": "3"}, {"size": "1056"}, {"size": "1"}]}}}, "dtype": {"type": "DT_FLOAT"}}}, {"name": "StatefulPartitionedCall/efficientnetv2-m/blocks_32/depthwise_conv2d/depthwise_bn_offset", "op": "Const", "attr": {"value": {"tensor": {"dtype": "DT_FLOAT", "tensorShape": {"dim": [{"size": "1056"}]}}}, "dtype": {"type": "DT_FLOAT"}}}, {"name": "StatefulPartitionedCall/efficientnetv2-m/blocks_32/conv2d_1/Conv2D_weights", "op": "Const", "attr": {"value": {"tensor": {"dtype": "DT_FLOAT", "tensorShape": {"dim": [{"size": "1"}, {"size": "1"}, {"size": "1056"}, {"size": "176"}]}}}, "dtype": {"type": "DT_FLOAT"}}}, {"name": "StatefulPartitionedCall/efficientnetv2-m/blocks_32/conv2d_1/Conv2D_bn_offset", "op": "Const", "attr": {"value": {"tensor": {"dtype": "DT_FLOAT", "tensorShape": {"dim": [{"size": "176"}]}}}, "dtype": {"type": "DT_FLOAT"}}}, {"name": "StatefulPartitionedCall/efficientnetv2-m/blocks_33/conv2d/Conv2D_weights", "op": "Const", "attr": {"value": {"tensor": {"dtype": "DT_FLOAT", "tensorShape": {"dim": [{"size": "1"}, {"size": "1"}, {"size": "176"}, {"size": "1056"}]}}}, "dtype": {"type": "DT_FLOAT"}}}, {"name": "StatefulPartitionedCall/efficientnetv2-m/blocks_33/conv2d/Conv2D_bn_offset", "op": "Const", "attr": {"value": {"tensor": {"dtype": "DT_FLOAT", "tensorShape": {"dim": [{"size": "1056"}]}}}, "dtype": {"type": "DT_FLOAT"}}}, {"name": "StatefulPartitionedCall/efficientnetv2-m/blocks_33/depthwise_conv2d/depthwise_weights", "op": "Const", "attr": {"value": {"tensor": {"dtype": "DT_FLOAT", "tensorShape": {"dim": [{"size": "3"}, {"size": "3"}, {"size": "1056"}, {"size": "1"}]}}}, "dtype": {"type": "DT_FLOAT"}}}, {"name": "StatefulPartitionedCall/efficientnetv2-m/blocks_33/depthwise_conv2d/depthwise_bn_offset", "op": "Const", "attr": {"value": {"tensor": {"dtype": "DT_FLOAT", "tensorShape": {"dim": [{"size": "1056"}]}}}, "dtype": {"type": "DT_FLOAT"}}}, {"name": "StatefulPartitionedCall/efficientnetv2-m/blocks_33/conv2d_1/Conv2D_weights", "op": "Const", "attr": {"value": {"tensor": {"dtype": "DT_FLOAT", "tensorShape": {"dim": [{"size": "1"}, {"size": "1"}, {"size": "1056"}, {"size": "176"}]}}}, "dtype": {"type": "DT_FLOAT"}}}, {"name": "StatefulPartitionedCall/efficientnetv2-m/blocks_33/conv2d_1/Conv2D_bn_offset", "op": "Const", "attr": {"value": {"tensor": {"dtype": "DT_FLOAT", "tensorShape": {"dim": [{"size": "176"}]}}}, "dtype": {"type": "DT_FLOAT"}}}, {"name": "StatefulPartitionedCall/efficientnetv2-m/blocks_34/conv2d/Conv2D_weights", "op": "Const", "attr": {"value": {"tensor": {"dtype": "DT_FLOAT", "tensorShape": {"dim": [{"size": "1"}, {"size": "1"}, {"size": "176"}, {"size": "1056"}]}}}, "dtype": {"type": "DT_FLOAT"}}}, {"name": "StatefulPartitionedCall/efficientnetv2-m/blocks_34/conv2d/Conv2D_bn_offset", "op": "Const", "attr": {"value": {"tensor": {"dtype": "DT_FLOAT", "tensorShape": {"dim": [{"size": "1056"}]}}}, "dtype": {"type": "DT_FLOAT"}}}, {"name": "StatefulPartitionedCall/efficientnetv2-m/blocks_34/depthwise_conv2d/depthwise_weights", "op": "Const", "attr": {"value": {"tensor": {"dtype": "DT_FLOAT", "tensorShape": {"dim": [{"size": "3"}, {"size": "3"}, {"size": "1056"}, {"size": "1"}]}}}, "dtype": {"type": "DT_FLOAT"}}}, {"name": "StatefulPartitionedCall/efficientnetv2-m/blocks_34/depthwise_conv2d/depthwise_bn_offset", "op": "Const", "attr": {"value": {"tensor": {"dtype": "DT_FLOAT", "tensorShape": {"dim": [{"size": "1056"}]}}}, "dtype": {"type": "DT_FLOAT"}}}, {"name": "StatefulPartitionedCall/efficientnetv2-m/blocks_53/conv2d_1/Conv2D_weights", "op": "Const", "attr": {"value": {"tensor": {"dtype": "DT_FLOAT", "tensorShape": {"dim": [{"size": "1"}, {"size": "1"}, {"size": "3072"}, {"size": "512"}]}}}, "dtype": {"type": "DT_FLOAT"}}}, {"name": "StatefulPartitionedCall/efficientnetv2-m/blocks_34/conv2d_1/Conv2D_weights", "op": "Const", "attr": {"value": {"tensor": {"dtype": "DT_FLOAT", "tensorShape": {"dim": [{"size": "1"}, {"size": "1"}, {"size": "1056"}, {"size": "304"}]}}}, "dtype": {"type": "DT_FLOAT"}}}, {"name": "StatefulPartitionedCall/efficientnetv2-m/blocks_34/conv2d_1/Conv2D_bn_offset", "op": "Const", "attr": {"value": {"tensor": {"dtype": "DT_FLOAT", "tensorShape": {"dim": [{"size": "304"}]}}}, "dtype": {"type": "DT_FLOAT"}}}, {"name": "StatefulPartitionedCall/efficientnetv2-m/blocks_35/conv2d/Conv2D_weights", "op": "Const", "attr": {"value": {"tensor": {"dtype": "DT_FLOAT", "tensorShape": {"dim": [{"size": "1"}, {"size": "1"}, {"size": "304"}, {"size": "1824"}]}}}, "dtype": {"type": "DT_FLOAT"}}}, {"name": "StatefulPartitionedCall/efficientnetv2-m/blocks_53/conv2d_1/Conv2D_bn_offset", "op": "Const", "attr": {"value": {"tensor": {"dtype": "DT_FLOAT", "tensorShape": {"dim": [{"size": "512"}]}}}, "dtype": {"type": "DT_FLOAT"}}}, {"name": "StatefulPartitionedCall/efficientnetv2-m/blocks_35/conv2d/Conv2D_bn_offset", "op": "Const", "attr": {"value": {"tensor": {"dtype": "DT_FLOAT", "tensorShape": {"dim": [{"size": "1824"}]}}}, "dtype": {"type": "DT_FLOAT"}}}, {"name": "StatefulPartitionedCall/efficientnetv2-m/blocks_35/depthwise_conv2d/depthwise_weights", "op": "Const", "attr": {"value": {"tensor": {"dtype": "DT_FLOAT", "tensorShape": {"dim": [{"size": "3"}, {"size": "3"}, {"size": "1824"}, {"size": "1"}]}}}, "dtype": {"type": "DT_FLOAT"}}}, {"name": "StatefulPartitionedCall/efficientnetv2-m/blocks_35/depthwise_conv2d/depthwise_bn_offset", "op": "Const", "attr": {"value": {"tensor": {"dtype": "DT_FLOAT", "tensorShape": {"dim": [{"size": "1824"}]}}}, "dtype": {"type": "DT_FLOAT"}}}, {"name": "StatefulPartitionedCall/efficientnetv2-m/blocks_35/conv2d_1/Conv2D_weights", "op": "Const", "attr": {"value": {"tensor": {"dtype": "DT_FLOAT", "tensorShape": {"dim": [{"size": "1"}, {"size": "1"}, {"size": "1824"}, {"size": "304"}]}}}, "dtype": {"type": "DT_FLOAT"}}}, {"name": "StatefulPartitionedCall/efficientnetv2-m/blocks_54/conv2d/Conv2D_weights", "op": "Const", "attr": {"value": {"tensor": {"dtype": "DT_FLOAT", "tensorShape": {"dim": [{"size": "1"}, {"size": "1"}, {"size": "512"}, {"size": "3072"}]}}}, "dtype": {"type": "DT_FLOAT"}}}, {"name": "StatefulPartitionedCall/efficientnetv2-m/blocks_35/conv2d_1/Conv2D_bn_offset", "op": "Const", "attr": {"value": {"tensor": {"dtype": "DT_FLOAT", "tensorShape": {"dim": [{"size": "304"}]}}}, "dtype": {"type": "DT_FLOAT"}}}, {"name": "StatefulPartitionedCall/efficientnetv2-m/blocks_36/conv2d/Conv2D_weights", "op": "Const", "attr": {"value": {"tensor": {"dtype": "DT_FLOAT", "tensorShape": {"dim": [{"size": "1"}, {"size": "1"}, {"size": "304"}, {"size": "1824"}]}}}, "dtype": {"type": "DT_FLOAT"}}}, {"name": "StatefulPartitionedCall/efficientnetv2-m/blocks_56/conv2d_1/Conv2D_weights", "op": "Const", "attr": {"value": {"tensor": {"dtype": "DT_FLOAT", "tensorShape": {"dim": [{"size": "1"}, {"size": "1"}, {"size": "3072"}, {"size": "512"}]}}}, "dtype": {"type": "DT_FLOAT"}}}, {"name": "StatefulPartitionedCall/efficientnetv2-m/blocks_36/conv2d/Conv2D_bn_offset", "op": "Const", "attr": {"value": {"tensor": {"dtype": "DT_FLOAT", "tensorShape": {"dim": [{"size": "1824"}]}}}, "dtype": {"type": "DT_FLOAT"}}}, {"name": "StatefulPartitionedCall/efficientnetv2-m/blocks_36/depthwise_conv2d/depthwise_weights", "op": "Const", "attr": {"value": {"tensor": {"dtype": "DT_FLOAT", "tensorShape": {"dim": [{"size": "3"}, {"size": "3"}, {"size": "1824"}, {"size": "1"}]}}}, "dtype": {"type": "DT_FLOAT"}}}, {"name": "StatefulPartitionedCall/efficientnetv2-m/blocks_36/depthwise_conv2d/depthwise_bn_offset", "op": "Const", "attr": {"value": {"tensor": {"dtype": "DT_FLOAT", "tensorShape": {"dim": [{"size": "1824"}]}}}, "dtype": {"type": "DT_FLOAT"}}}, {"name": "StatefulPartitionedCall/efficientnetv2-m/blocks_54/conv2d/Conv2D_bn_offset", "op": "Const", "attr": {"value": {"tensor": {"dtype": "DT_FLOAT", "tensorShape": {"dim": [{"size": "3072"}]}}}, "dtype": {"type": "DT_FLOAT"}}}, {"name": "StatefulPartitionedCall/efficientnetv2-m/blocks_36/conv2d_1/Conv2D_weights", "op": "Const", "attr": {"value": {"tensor": {"dtype": "DT_FLOAT", "tensorShape": {"dim": [{"size": "1"}, {"size": "1"}, {"size": "1824"}, {"size": "304"}]}}}, "dtype": {"type": "DT_FLOAT"}}}, {"name": "StatefulPartitionedCall/efficientnetv2-m/blocks_36/conv2d_1/Conv2D_bn_offset", "op": "Const", "attr": {"value": {"tensor": {"dtype": "DT_FLOAT", "tensorShape": {"dim": [{"size": "304"}]}}}, "dtype": {"type": "DT_FLOAT"}}}, {"name": "StatefulPartitionedCall/efficientnetv2-m/blocks_37/conv2d/Conv2D_weights", "op": "Const", "attr": {"value": {"tensor": {"dtype": "DT_FLOAT", "tensorShape": {"dim": [{"size": "1"}, {"size": "1"}, {"size": "304"}, {"size": "1824"}]}}}, "dtype": {"type": "DT_FLOAT"}}}, {"name": "StatefulPartitionedCall/efficientnetv2-m/blocks_37/conv2d/Conv2D_bn_offset", "op": "Const", "attr": {"value": {"tensor": {"dtype": "DT_FLOAT", "tensorShape": {"dim": [{"size": "1824"}]}}}, "dtype": {"type": "DT_FLOAT"}}}, {"name": "StatefulPartitionedCall/efficientnetv2-m/blocks_37/depthwise_conv2d/depthwise_weights", "op": "Const", "attr": {"value": {"tensor": {"dtype": "DT_FLOAT", "tensorShape": {"dim": [{"size": "3"}, {"size": "3"}, {"size": "1824"}, {"size": "1"}]}}}, "dtype": {"type": "DT_FLOAT"}}}, {"name": "StatefulPartitionedCall/efficientnetv2-m/blocks_37/depthwise_conv2d/depthwise_bn_offset", "op": "Const", "attr": {"value": {"tensor": {"dtype": "DT_FLOAT", "tensorShape": {"dim": [{"size": "1824"}]}}}, "dtype": {"type": "DT_FLOAT"}}}, {"name": "StatefulPartitionedCall/efficientnetv2-m/blocks_54/depthwise_conv2d/depthwise_weights", "op": "Const", "attr": {"value": {"tensor": {"dtype": "DT_FLOAT", "tensorShape": {"dim": [{"size": "3"}, {"size": "3"}, {"size": "3072"}, {"size": "1"}]}}}, "dtype": {"type": "DT_FLOAT"}}}, {"name": "StatefulPartitionedCall/efficientnetv2-m/blocks_37/conv2d_1/Conv2D_weights", "op": "Const", "attr": {"value": {"tensor": {"dtype": "DT_FLOAT", "tensorShape": {"dim": [{"size": "1"}, {"size": "1"}, {"size": "1824"}, {"size": "304"}]}}}, "dtype": {"type": "DT_FLOAT"}}}, {"name": "StatefulPartitionedCall/efficientnetv2-m/blocks_54/depthwise_conv2d/depthwise_bn_offset", "op": "Const", "attr": {"value": {"tensor": {"dtype": "DT_FLOAT", "tensorShape": {"dim": [{"size": "3072"}]}}}, "dtype": {"type": "DT_FLOAT"}}}, {"name": "StatefulPartitionedCall/efficientnetv2-m/blocks_37/conv2d_1/Conv2D_bn_offset", "op": "Const", "attr": {"value": {"tensor": {"dtype": "DT_FLOAT", "tensorShape": {"dim": [{"size": "304"}]}}}, "dtype": {"type": "DT_FLOAT"}}}, {"name": "StatefulPartitionedCall/efficientnetv2-m/blocks_38/conv2d/Conv2D_weights", "op": "Const", "attr": {"value": {"tensor": {"dtype": "DT_FLOAT", "tensorShape": {"dim": [{"size": "1"}, {"size": "1"}, {"size": "304"}, {"size": "1824"}]}}}, "dtype": {"type": "DT_FLOAT"}}}, {"name": "StatefulPartitionedCall/efficientnetv2-m/blocks_38/conv2d/Conv2D_bn_offset", "op": "Const", "attr": {"value": {"tensor": {"dtype": "DT_FLOAT", "tensorShape": {"dim": [{"size": "1824"}]}}}, "dtype": {"type": "DT_FLOAT"}}}, {"name": "StatefulPartitionedCall/efficientnetv2-m/blocks_38/depthwise_conv2d/depthwise_weights", "op": "Const", "attr": {"value": {"tensor": {"dtype": "DT_FLOAT", "tensorShape": {"dim": [{"size": "3"}, {"size": "3"}, {"size": "1824"}, {"size": "1"}]}}}, "dtype": {"type": "DT_FLOAT"}}}, {"name": "StatefulPartitionedCall/efficientnetv2-m/blocks_38/depthwise_conv2d/depthwise_bn_offset", "op": "Const", "attr": {"value": {"tensor": {"dtype": "DT_FLOAT", "tensorShape": {"dim": [{"size": "1824"}]}}}, "dtype": {"type": "DT_FLOAT"}}}, {"name": "StatefulPartitionedCall/efficientnetv2-m/blocks_38/conv2d_1/Conv2D_weights", "op": "Const", "attr": {"value": {"tensor": {"dtype": "DT_FLOAT", "tensorShape": {"dim": [{"size": "1"}, {"size": "1"}, {"size": "1824"}, {"size": "304"}]}}}, "dtype": {"type": "DT_FLOAT"}}}, {"name": "StatefulPartitionedCall/efficientnetv2-m/blocks_38/conv2d_1/Conv2D_bn_offset", "op": "Const", "attr": {"value": {"tensor": {"dtype": "DT_FLOAT", "tensorShape": {"dim": [{"size": "304"}]}}}, "dtype": {"type": "DT_FLOAT"}}}, {"name": "StatefulPartitionedCall/efficientnetv2-m/blocks_39/conv2d/Conv2D_weights", "op": "Const", "attr": {"value": {"tensor": {"dtype": "DT_FLOAT", "tensorShape": {"dim": [{"size": "1"}, {"size": "1"}, {"size": "304"}, {"size": "1824"}]}}}, "dtype": {"type": "DT_FLOAT"}}}, {"name": "StatefulPartitionedCall/efficientnetv2-m/blocks_39/conv2d/Conv2D_bn_offset", "op": "Const", "attr": {"value": {"tensor": {"dtype": "DT_FLOAT", "tensorShape": {"dim": [{"size": "1824"}]}}}, "dtype": {"type": "DT_FLOAT"}}}, {"name": "StatefulPartitionedCall/efficientnetv2-m/blocks_39/depthwise_conv2d/depthwise_weights", "op": "Const", "attr": {"value": {"tensor": {"dtype": "DT_FLOAT", "tensorShape": {"dim": [{"size": "3"}, {"size": "3"}, {"size": "1824"}, {"size": "1"}]}}}, "dtype": {"type": "DT_FLOAT"}}}, {"name": "StatefulPartitionedCall/efficientnetv2-m/blocks_39/depthwise_conv2d/depthwise_bn_offset", "op": "Const", "attr": {"value": {"tensor": {"dtype": "DT_FLOAT", "tensorShape": {"dim": [{"size": "1824"}]}}}, "dtype": {"type": "DT_FLOAT"}}}, {"name": "StatefulPartitionedCall/efficientnetv2-m/blocks_39/conv2d_1/Conv2D_weights", "op": "Const", "attr": {"value": {"tensor": {"dtype": "DT_FLOAT", "tensorShape": {"dim": [{"size": "1"}, {"size": "1"}, {"size": "1824"}, {"size": "304"}]}}}, "dtype": {"type": "DT_FLOAT"}}}, {"name": "StatefulPartitionedCall/efficientnetv2-m/blocks_39/conv2d_1/Conv2D_bn_offset", "op": "Const", "attr": {"value": {"tensor": {"dtype": "DT_FLOAT", "tensorShape": {"dim": [{"size": "304"}]}}}, "dtype": {"type": "DT_FLOAT"}}}, {"name": "StatefulPartitionedCall/efficientnetv2-m/blocks_40/conv2d/Conv2D_weights", "op": "Const", "attr": {"value": {"tensor": {"dtype": "DT_FLOAT", "tensorShape": {"dim": [{"size": "1"}, {"size": "1"}, {"size": "304"}, {"size": "1824"}]}}}, "dtype": {"type": "DT_FLOAT"}}}, {"name": "StatefulPartitionedCall/efficientnetv2-m/blocks_56/conv2d_1/Conv2D_bn_offset", "op": "Const", "attr": {"value": {"tensor": {"dtype": "DT_FLOAT", "tensorShape": {"dim": [{"size": "512"}]}}}, "dtype": {"type": "DT_FLOAT"}}}, {"name": "StatefulPartitionedCall/efficientnetv2-m/blocks_40/conv2d/Conv2D_bn_offset", "op": "Const", "attr": {"value": {"tensor": {"dtype": "DT_FLOAT", "tensorShape": {"dim": [{"size": "1824"}]}}}, "dtype": {"type": "DT_FLOAT"}}}, {"name": "StatefulPartitionedCall/efficientnetv2-m/blocks_40/depthwise_conv2d/depthwise_weights", "op": "Const", "attr": {"value": {"tensor": {"dtype": "DT_FLOAT", "tensorShape": {"dim": [{"size": "3"}, {"size": "3"}, {"size": "1824"}, {"size": "1"}]}}}, "dtype": {"type": "DT_FLOAT"}}}, {"name": "StatefulPartitionedCall/efficientnetv2-m/blocks_40/depthwise_conv2d/depthwise_bn_offset", "op": "Const", "attr": {"value": {"tensor": {"dtype": "DT_FLOAT", "tensorShape": {"dim": [{"size": "1824"}]}}}, "dtype": {"type": "DT_FLOAT"}}}, {"name": "StatefulPartitionedCall/efficientnetv2-m/blocks_40/conv2d_1/Conv2D_weights", "op": "Const", "attr": {"value": {"tensor": {"dtype": "DT_FLOAT", "tensorShape": {"dim": [{"size": "1"}, {"size": "1"}, {"size": "1824"}, {"size": "304"}]}}}, "dtype": {"type": "DT_FLOAT"}}}, {"name": "StatefulPartitionedCall/efficientnetv2-m/blocks_40/conv2d_1/Conv2D_bn_offset", "op": "Const", "attr": {"value": {"tensor": {"dtype": "DT_FLOAT", "tensorShape": {"dim": [{"size": "304"}]}}}, "dtype": {"type": "DT_FLOAT"}}}, {"name": "StatefulPartitionedCall/efficientnetv2-m/blocks_41/conv2d/Conv2D_weights", "op": "Const", "attr": {"value": {"tensor": {"dtype": "DT_FLOAT", "tensorShape": {"dim": [{"size": "1"}, {"size": "1"}, {"size": "304"}, {"size": "1824"}]}}}, "dtype": {"type": "DT_FLOAT"}}}, {"name": "StatefulPartitionedCall/efficientnetv2-m/blocks_54/conv2d_1/Conv2D_weights", "op": "Const", "attr": {"value": {"tensor": {"dtype": "DT_FLOAT", "tensorShape": {"dim": [{"size": "1"}, {"size": "1"}, {"size": "3072"}, {"size": "512"}]}}}, "dtype": {"type": "DT_FLOAT"}}}, {"name": "StatefulPartitionedCall/efficientnetv2-m/blocks_41/conv2d/Conv2D_bn_offset", "op": "Const", "attr": {"value": {"tensor": {"dtype": "DT_FLOAT", "tensorShape": {"dim": [{"size": "1824"}]}}}, "dtype": {"type": "DT_FLOAT"}}}, {"name": "StatefulPartitionedCall/efficientnetv2-m/blocks_41/depthwise_conv2d/depthwise_weights", "op": "Const", "attr": {"value": {"tensor": {"dtype": "DT_FLOAT", "tensorShape": {"dim": [{"size": "3"}, {"size": "3"}, {"size": "1824"}, {"size": "1"}]}}}, "dtype": {"type": "DT_FLOAT"}}}, {"name": "StatefulPartitionedCall/efficientnetv2-m/blocks_41/depthwise_conv2d/depthwise_bn_offset", "op": "Const", "attr": {"value": {"tensor": {"dtype": "DT_FLOAT", "tensorShape": {"dim": [{"size": "1824"}]}}}, "dtype": {"type": "DT_FLOAT"}}}, {"name": "StatefulPartitionedCall/efficientnetv2-m/blocks_54/conv2d_1/Conv2D_bn_offset", "op": "Const", "attr": {"value": {"tensor": {"dtype": "DT_FLOAT", "tensorShape": {"dim": [{"size": "512"}]}}}, "dtype": {"type": "DT_FLOAT"}}}, {"name": "StatefulPartitionedCall/efficientnetv2-m/blocks_41/conv2d_1/Conv2D_weights", "op": "Const", "attr": {"value": {"tensor": {"dtype": "DT_FLOAT", "tensorShape": {"dim": [{"size": "1"}, {"size": "1"}, {"size": "1824"}, {"size": "304"}]}}}, "dtype": {"type": "DT_FLOAT"}}}, {"name": "StatefulPartitionedCall/efficientnetv2-m/blocks_41/conv2d_1/Conv2D_bn_offset", "op": "Const", "attr": {"value": {"tensor": {"dtype": "DT_FLOAT", "tensorShape": {"dim": [{"size": "304"}]}}}, "dtype": {"type": "DT_FLOAT"}}}, {"name": "StatefulPartitionedCall/efficientnetv2-m/blocks_42/conv2d/Conv2D_weights", "op": "Const", "attr": {"value": {"tensor": {"dtype": "DT_FLOAT", "tensorShape": {"dim": [{"size": "1"}, {"size": "1"}, {"size": "304"}, {"size": "1824"}]}}}, "dtype": {"type": "DT_FLOAT"}}}, {"name": "StatefulPartitionedCall/efficientnetv2-m/blocks_42/conv2d/Conv2D_bn_offset", "op": "Const", "attr": {"value": {"tensor": {"dtype": "DT_FLOAT", "tensorShape": {"dim": [{"size": "1824"}]}}}, "dtype": {"type": "DT_FLOAT"}}}, {"name": "StatefulPartitionedCall/efficientnetv2-m/blocks_42/depthwise_conv2d/depthwise_weights", "op": "Const", "attr": {"value": {"tensor": {"dtype": "DT_FLOAT", "tensorShape": {"dim": [{"size": "3"}, {"size": "3"}, {"size": "1824"}, {"size": "1"}]}}}, "dtype": {"type": "DT_FLOAT"}}}, {"name": "StatefulPartitionedCall/efficientnetv2-m/blocks_42/depthwise_conv2d/depthwise_bn_offset", "op": "Const", "attr": {"value": {"tensor": {"dtype": "DT_FLOAT", "tensorShape": {"dim": [{"size": "1824"}]}}}, "dtype": {"type": "DT_FLOAT"}}}, {"name": "StatefulPartitionedCall/efficientnetv2-m/blocks_55/conv2d/Conv2D_weights", "op": "Const", "attr": {"value": {"tensor": {"dtype": "DT_FLOAT", "tensorShape": {"dim": [{"size": "1"}, {"size": "1"}, {"size": "512"}, {"size": "3072"}]}}}, "dtype": {"type": "DT_FLOAT"}}}, {"name": "StatefulPartitionedCall/efficientnetv2-m/blocks_42/conv2d_1/Conv2D_weights", "op": "Const", "attr": {"value": {"tensor": {"dtype": "DT_FLOAT", "tensorShape": {"dim": [{"size": "1"}, {"size": "1"}, {"size": "1824"}, {"size": "304"}]}}}, "dtype": {"type": "DT_FLOAT"}}}, {"name": "StatefulPartitionedCall/efficientnetv2-m/blocks_55/conv2d/Conv2D_bn_offset", "op": "Const", "attr": {"value": {"tensor": {"dtype": "DT_FLOAT", "tensorShape": {"dim": [{"size": "3072"}]}}}, "dtype": {"type": "DT_FLOAT"}}}, {"name": "StatefulPartitionedCall/efficientnetv2-m/blocks_42/conv2d_1/Conv2D_bn_offset", "op": "Const", "attr": {"value": {"tensor": {"dtype": "DT_FLOAT", "tensorShape": {"dim": [{"size": "304"}]}}}, "dtype": {"type": "DT_FLOAT"}}}, {"name": "StatefulPartitionedCall/efficientnetv2-m/blocks_43/conv2d/Conv2D_weights", "op": "Const", "attr": {"value": {"tensor": {"dtype": "DT_FLOAT", "tensorShape": {"dim": [{"size": "1"}, {"size": "1"}, {"size": "304"}, {"size": "1824"}]}}}, "dtype": {"type": "DT_FLOAT"}}}, {"name": "StatefulPartitionedCall/efficientnetv2-m/blocks_43/conv2d/Conv2D_bn_offset", "op": "Const", "attr": {"value": {"tensor": {"dtype": "DT_FLOAT", "tensorShape": {"dim": [{"size": "1824"}]}}}, "dtype": {"type": "DT_FLOAT"}}}, {"name": "StatefulPartitionedCall/efficientnetv2-m/blocks_43/depthwise_conv2d/depthwise_weights", "op": "Const", "attr": {"value": {"tensor": {"dtype": "DT_FLOAT", "tensorShape": {"dim": [{"size": "3"}, {"size": "3"}, {"size": "1824"}, {"size": "1"}]}}}, "dtype": {"type": "DT_FLOAT"}}}, {"name": "StatefulPartitionedCall/efficientnetv2-m/blocks_43/depthwise_conv2d/depthwise_bn_offset", "op": "Const", "attr": {"value": {"tensor": {"dtype": "DT_FLOAT", "tensorShape": {"dim": [{"size": "1824"}]}}}, "dtype": {"type": "DT_FLOAT"}}}, {"name": "StatefulPartitionedCall/efficientnetv2-m/blocks_43/conv2d_1/Conv2D_weights", "op": "Const", "attr": {"value": {"tensor": {"dtype": "DT_FLOAT", "tensorShape": {"dim": [{"size": "1"}, {"size": "1"}, {"size": "1824"}, {"size": "304"}]}}}, "dtype": {"type": "DT_FLOAT"}}}, {"name": "StatefulPartitionedCall/efficientnetv2-m/blocks_55/depthwise_conv2d/depthwise_weights", "op": "Const", "attr": {"value": {"tensor": {"dtype": "DT_FLOAT", "tensorShape": {"dim": [{"size": "3"}, {"size": "3"}, {"size": "3072"}, {"size": "1"}]}}}, "dtype": {"type": "DT_FLOAT"}}}, {"name": "StatefulPartitionedCall/efficientnetv2-m/blocks_43/conv2d_1/Conv2D_bn_offset", "op": "Const", "attr": {"value": {"tensor": {"dtype": "DT_FLOAT", "tensorShape": {"dim": [{"size": "304"}]}}}, "dtype": {"type": "DT_FLOAT"}}}, {"name": "StatefulPartitionedCall/efficientnetv2-m/blocks_44/conv2d/Conv2D_weights", "op": "Const", "attr": {"value": {"tensor": {"dtype": "DT_FLOAT", "tensorShape": {"dim": [{"size": "1"}, {"size": "1"}, {"size": "304"}, {"size": "1824"}]}}}, "dtype": {"type": "DT_FLOAT"}}}, {"name": "StatefulPartitionedCall/efficientnetv2-m/blocks_44/conv2d/Conv2D_bn_offset", "op": "Const", "attr": {"value": {"tensor": {"dtype": "DT_FLOAT", "tensorShape": {"dim": [{"size": "1824"}]}}}, "dtype": {"type": "DT_FLOAT"}}}, {"name": "StatefulPartitionedCall/efficientnetv2-m/blocks_44/depthwise_conv2d/depthwise_weights", "op": "Const", "attr": {"value": {"tensor": {"dtype": "DT_FLOAT", "tensorShape": {"dim": [{"size": "3"}, {"size": "3"}, {"size": "1824"}, {"size": "1"}]}}}, "dtype": {"type": "DT_FLOAT"}}}, {"name": "StatefulPartitionedCall/efficientnetv2-m/blocks_44/depthwise_conv2d/depthwise_bn_offset", "op": "Const", "attr": {"value": {"tensor": {"dtype": "DT_FLOAT", "tensorShape": {"dim": [{"size": "1824"}]}}}, "dtype": {"type": "DT_FLOAT"}}}, {"name": "StatefulPartitionedCall/efficientnetv2-m/blocks_55/depthwise_conv2d/depthwise_bn_offset", "op": "Const", "attr": {"value": {"tensor": {"dtype": "DT_FLOAT", "tensorShape": {"dim": [{"size": "3072"}]}}}, "dtype": {"type": "DT_FLOAT"}}}, {"name": "StatefulPartitionedCall/efficientnetv2-m/blocks_44/conv2d_1/Conv2D_weights", "op": "Const", "attr": {"value": {"tensor": {"dtype": "DT_FLOAT", "tensorShape": {"dim": [{"size": "1"}, {"size": "1"}, {"size": "1824"}, {"size": "304"}]}}}, "dtype": {"type": "DT_FLOAT"}}}, {"name": "StatefulPartitionedCall/efficientnetv2-m/blocks_44/conv2d_1/Conv2D_bn_offset", "op": "Const", "attr": {"value": {"tensor": {"dtype": "DT_FLOAT", "tensorShape": {"dim": [{"size": "304"}]}}}, "dtype": {"type": "DT_FLOAT"}}}, {"name": "StatefulPartitionedCall/efficientnetv2-m/blocks_45/conv2d/Conv2D_weights", "op": "Const", "attr": {"value": {"tensor": {"dtype": "DT_FLOAT", "tensorShape": {"dim": [{"size": "1"}, {"size": "1"}, {"size": "304"}, {"size": "1824"}]}}}, "dtype": {"type": "DT_FLOAT"}}}, {"name": "StatefulPartitionedCall/efficientnetv2-m/blocks_45/conv2d/Conv2D_bn_offset", "op": "Const", "attr": {"value": {"tensor": {"dtype": "DT_FLOAT", "tensorShape": {"dim": [{"size": "1824"}]}}}, "dtype": {"type": "DT_FLOAT"}}}, {"name": "StatefulPartitionedCall/efficientnetv2-m/blocks_45/depthwise_conv2d/depthwise_weights", "op": "Const", "attr": {"value": {"tensor": {"dtype": "DT_FLOAT", "tensorShape": {"dim": [{"size": "3"}, {"size": "3"}, {"size": "1824"}, {"size": "1"}]}}}, "dtype": {"type": "DT_FLOAT"}}}, {"name": "StatefulPartitionedCall/efficientnetv2-m/blocks_45/depthwise_conv2d/depthwise_bn_offset", "op": "Const", "attr": {"value": {"tensor": {"dtype": "DT_FLOAT", "tensorShape": {"dim": [{"size": "1824"}]}}}, "dtype": {"type": "DT_FLOAT"}}}, {"name": "StatefulPartitionedCall/efficientnetv2-m/head/conv2d/Conv2D_weights", "op": "Const", "attr": {"value": {"tensor": {"dtype": "DT_FLOAT", "tensorShape": {"dim": [{"size": "1"}, {"size": "1"}, {"size": "512"}, {"size": "1280"}]}}}, "dtype": {"type": "DT_FLOAT"}}}, {"name": "StatefulPartitionedCall/efficientnetv2-m/blocks_45/conv2d_1/Conv2D_weights", "op": "Const", "attr": {"value": {"tensor": {"dtype": "DT_FLOAT", "tensorShape": {"dim": [{"size": "1"}, {"size": "1"}, {"size": "1824"}, {"size": "304"}]}}}, "dtype": {"type": "DT_FLOAT"}}}, {"name": "StatefulPartitionedCall/efficientnetv2-m/blocks_45/conv2d_1/Conv2D_bn_offset", "op": "Const", "attr": {"value": {"tensor": {"dtype": "DT_FLOAT", "tensorShape": {"dim": [{"size": "304"}]}}}, "dtype": {"type": "DT_FLOAT"}}}, {"name": "StatefulPartitionedCall/efficientnetv2-m/blocks_46/conv2d/Conv2D_weights", "op": "Const", "attr": {"value": {"tensor": {"dtype": "DT_FLOAT", "tensorShape": {"dim": [{"size": "1"}, {"size": "1"}, {"size": "304"}, {"size": "1824"}]}}}, "dtype": {"type": "DT_FLOAT"}}}, {"name": "StatefulPartitionedCall/efficientnetv2-m/blocks_46/conv2d/Conv2D_bn_offset", "op": "Const", "attr": {"value": {"tensor": {"dtype": "DT_FLOAT", "tensorShape": {"dim": [{"size": "1824"}]}}}, "dtype": {"type": "DT_FLOAT"}}}, {"name": "StatefulPartitionedCall/efficientnetv2-m/blocks_46/depthwise_conv2d/depthwise_weights", "op": "Const", "attr": {"value": {"tensor": {"dtype": "DT_FLOAT", "tensorShape": {"dim": [{"size": "3"}, {"size": "3"}, {"size": "1824"}, {"size": "1"}]}}}, "dtype": {"type": "DT_FLOAT"}}}, {"name": "StatefulPartitionedCall/efficientnetv2-m/blocks_46/depthwise_conv2d/depthwise_bn_offset", "op": "Const", "attr": {"value": {"tensor": {"dtype": "DT_FLOAT", "tensorShape": {"dim": [{"size": "1824"}]}}}, "dtype": {"type": "DT_FLOAT"}}}, {"name": "StatefulPartitionedCall/efficientnetv2-m/blocks_46/conv2d_1/Conv2D_weights", "op": "Const", "attr": {"value": {"tensor": {"dtype": "DT_FLOAT", "tensorShape": {"dim": [{"size": "1"}, {"size": "1"}, {"size": "1824"}, {"size": "304"}]}}}, "dtype": {"type": "DT_FLOAT"}}}, {"name": "StatefulPartitionedCall/efficientnetv2-m/blocks_46/conv2d_1/Conv2D_bn_offset", "op": "Const", "attr": {"value": {"tensor": {"dtype": "DT_FLOAT", "tensorShape": {"dim": [{"size": "304"}]}}}, "dtype": {"type": "DT_FLOAT"}}}, {"name": "StatefulPartitionedCall/efficientnetv2-m/blocks_47/conv2d/Conv2D_weights", "op": "Const", "attr": {"value": {"tensor": {"dtype": "DT_FLOAT", "tensorShape": {"dim": [{"size": "1"}, {"size": "1"}, {"size": "304"}, {"size": "1824"}]}}}, "dtype": {"type": "DT_FLOAT"}}}, {"name": "StatefulPartitionedCall/efficientnetv2-m/blocks_47/conv2d/Conv2D_bn_offset", "op": "Const", "attr": {"value": {"tensor": {"dtype": "DT_FLOAT", "tensorShape": {"dim": [{"size": "1824"}]}}}, "dtype": {"type": "DT_FLOAT"}}}, {"name": "StatefulPartitionedCall/efficientnetv2-m/blocks_47/depthwise_conv2d/depthwise_weights", "op": "Const", "attr": {"value": {"tensor": {"dtype": "DT_FLOAT", "tensorShape": {"dim": [{"size": "3"}, {"size": "3"}, {"size": "1824"}, {"size": "1"}]}}}, "dtype": {"type": "DT_FLOAT"}}}, {"name": "StatefulPartitionedCall/efficientnetv2-m/blocks_47/depthwise_conv2d/depthwise_bn_offset", "op": "Const", "attr": {"value": {"tensor": {"dtype": "DT_FLOAT", "tensorShape": {"dim": [{"size": "1824"}]}}}, "dtype": {"type": "DT_FLOAT"}}}, {"name": "StatefulPartitionedCall/efficientnetv2-m/blocks_55/conv2d_1/Conv2D_weights", "op": "Const", "attr": {"value": {"tensor": {"dtype": "DT_FLOAT", "tensorShape": {"dim": [{"size": "1"}, {"size": "1"}, {"size": "3072"}, {"size": "512"}]}}}, "dtype": {"type": "DT_FLOAT"}}}, {"name": "StatefulPartitionedCall/efficientnetv2-m/blocks_47/conv2d_1/Conv2D_weights", "op": "Const", "attr": {"value": {"tensor": {"dtype": "DT_FLOAT", "tensorShape": {"dim": [{"size": "1"}, {"size": "1"}, {"size": "1824"}, {"size": "304"}]}}}, "dtype": {"type": "DT_FLOAT"}}}, {"name": "StatefulPartitionedCall/efficientnetv2-m/head/conv2d/Conv2D_bn_offset", "op": "Const", "attr": {"value": {"tensor": {"dtype": "DT_FLOAT", "tensorShape": {"dim": [{"size": "1280"}]}}}, "dtype": {"type": "DT_FLOAT"}}}, {"name": "StatefulPartitionedCall/efficientnetv2-m/blocks_47/conv2d_1/Conv2D_bn_offset", "op": "Const", "attr": {"value": {"tensor": {"dtype": "DT_FLOAT", "tensorShape": {"dim": [{"size": "304"}]}}}, "dtype": {"type": "DT_FLOAT"}}}, {"name": "StatefulPartitionedCall/efficientnetv2-m/blocks_48/conv2d/Conv2D_weights", "op": "Const", "attr": {"value": {"tensor": {"dtype": "DT_FLOAT", "tensorShape": {"dim": [{"size": "1"}, {"size": "1"}, {"size": "304"}, {"size": "1824"}]}}}, "dtype": {"type": "DT_FLOAT"}}}, {"name": "StatefulPartitionedCall/efficientnetv2-m/blocks_55/conv2d_1/Conv2D_bn_offset", "op": "Const", "attr": {"value": {"tensor": {"dtype": "DT_FLOAT", "tensorShape": {"dim": [{"size": "512"}]}}}, "dtype": {"type": "DT_FLOAT"}}}, {"name": "StatefulPartitionedCall/efficientnetv2-m/blocks_48/conv2d/Conv2D_bn_offset", "op": "Const", "attr": {"value": {"tensor": {"dtype": "DT_FLOAT", "tensorShape": {"dim": [{"size": "1824"}]}}}, "dtype": {"type": "DT_FLOAT"}}}, {"name": "StatefulPartitionedCall/efficientnetv2-m/blocks_48/depthwise_conv2d/depthwise_weights", "op": "Const", "attr": {"value": {"tensor": {"dtype": "DT_FLOAT", "tensorShape": {"dim": [{"size": "3"}, {"size": "3"}, {"size": "1824"}, {"size": "1"}]}}}, "dtype": {"type": "DT_FLOAT"}}}, {"name": "StatefulPartitionedCall/efficientnetv2-m/blocks_48/depthwise_conv2d/depthwise_bn_offset", "op": "Const", "attr": {"value": {"tensor": {"dtype": "DT_FLOAT", "tensorShape": {"dim": [{"size": "1824"}]}}}, "dtype": {"type": "DT_FLOAT"}}}, {"name": "StatefulPartitionedCall/efficientnetv2-m/blocks_48/conv2d_1/Conv2D_weights", "op": "Const", "attr": {"value": {"tensor": {"dtype": "DT_FLOAT", "tensorShape": {"dim": [{"size": "1"}, {"size": "1"}, {"size": "1824"}, {"size": "304"}]}}}, "dtype": {"type": "DT_FLOAT"}}}, {"name": "StatefulPartitionedCall/efficientnetv2-m/blocks_56/conv2d/Conv2D_weights", "op": "Const", "attr": {"value": {"tensor": {"dtype": "DT_FLOAT", "tensorShape": {"dim": [{"size": "1"}, {"size": "1"}, {"size": "512"}, {"size": "3072"}]}}}, "dtype": {"type": "DT_FLOAT"}}}, {"name": "StatefulPartitionedCall/efficientnetv2-m/blocks_48/conv2d_1/Conv2D_bn_offset", "op": "Const", "attr": {"value": {"tensor": {"dtype": "DT_FLOAT", "tensorShape": {"dim": [{"size": "304"}]}}}, "dtype": {"type": "DT_FLOAT"}}}, {"name": "StatefulPartitionedCall/efficientnetv2-m/blocks_49/conv2d/Conv2D_weights", "op": "Const", "attr": {"value": {"tensor": {"dtype": "DT_FLOAT", "tensorShape": {"dim": [{"size": "1"}, {"size": "1"}, {"size": "304"}, {"size": "1824"}]}}}, "dtype": {"type": "DT_FLOAT"}}}, {"name": "StatefulPartitionedCall/efficientnetv2-m/blocks_49/conv2d/Conv2D_bn_offset", "op": "Const", "attr": {"value": {"tensor": {"dtype": "DT_FLOAT", "tensorShape": {"dim": [{"size": "1824"}]}}}, "dtype": {"type": "DT_FLOAT"}}}, {"name": "StatefulPartitionedCall/efficientnetv2-m/blocks_49/depthwise_conv2d/depthwise_weights", "op": "Const", "attr": {"value": {"tensor": {"dtype": "DT_FLOAT", "tensorShape": {"dim": [{"size": "3"}, {"size": "3"}, {"size": "1824"}, {"size": "1"}]}}}, "dtype": {"type": "DT_FLOAT"}}}, {"name": "StatefulPartitionedCall/efficientnetv2-m/blocks_49/depthwise_conv2d/depthwise_bn_offset", "op": "Const", "attr": {"value": {"tensor": {"dtype": "DT_FLOAT", "tensorShape": {"dim": [{"size": "1824"}]}}}, "dtype": {"type": "DT_FLOAT"}}}, {"name": "StatefulPartitionedCall/efficientnetv2-m/blocks_56/conv2d/Conv2D_bn_offset", "op": "Const", "attr": {"value": {"tensor": {"dtype": "DT_FLOAT", "tensorShape": {"dim": [{"size": "3072"}]}}}, "dtype": {"type": "DT_FLOAT"}}}, {"name": "StatefulPartitionedCall/efficientnetv2-m/stem/tpu_batch_normalization/FusedBatchNormV3", "op": "_FusedConv2D", "input": ["input_1", "StatefulPartitionedCall/efficientnetv2-m/stem/conv2d/Conv2D_weights", "StatefulPartitionedCall/efficientnetv2-m/stem/conv2d/Conv2D_bn_offset"], "device": "/device:CPU:0", "attr": {"num_host_args": {"i": "0"}, "data_format": {"s": "TkhXQw=="}, "filter_format": {"s": "SFdJTw=="}, "fused_ops": {"list": {"s": ["Qmlhc0FkZA=="]}}, "num_args": {"i": "1"}, "strides": {"list": {"i": ["1", "2", "2", "1"]}}, "TArgs": {"list": {"type": ["DT_FLOAT"]}}, "padding": {"s": "U0FNRQ=="}, "use_cudnn_on_gpu": {"b": true}, "leakyrelu_alpha": {"f": 0.2}, "epsilon": {"f": 0.0}, "T": {"type": "DT_FLOAT"}, "explicit_paddings": {"list": {}}, "dilations": {"list": {"i": ["1", "1", "1", "1"]}}}}, {"name": "StatefulPartitionedCall/efficientnetv2-m/stem/Sigmoid", "op": "Sigmoid", "input": ["StatefulPartitionedCall/efficientnetv2-m/stem/tpu_batch_normalization/FusedBatchNormV3"], "attr": {"T": {"type": "DT_FLOAT"}}}, {"name": "StatefulPartitionedCall/efficientnetv2-m/stem/mul", "op": "Mul", "input": ["StatefulPartitionedCall/efficientnetv2-m/stem/tpu_batch_normalization/FusedBatchNormV3", "StatefulPartitionedCall/efficientnetv2-m/stem/Sigmoid"], "attr": {"T": {"type": "DT_FLOAT"}}}, {"name": "StatefulPartitionedCall/efficientnetv2-m/blocks_0/tpu_batch_normalization/FusedBatchNormV3", "op": "_FusedConv2D", "input": ["StatefulPartitionedCall/efficientnetv2-m/stem/mul", "StatefulPartitionedCall/efficientnetv2-m/blocks_0/conv2d/Conv2D_weights", "StatefulPartitionedCall/efficientnetv2-m/blocks_0/conv2d/Conv2D_bn_offset"], "device": "/device:CPU:0", "attr": {"num_host_args": {"i": "0"}, "data_format": {"s": "TkhXQw=="}, "filter_format": {"s": "SFdJTw=="}, "fused_ops": {"list": {"s": ["Qmlhc0FkZA=="]}}, "num_args": {"i": "1"}, "strides": {"list": {"i": ["1", "1", "1", "1"]}}, "TArgs": {"list": {"type": ["DT_FLOAT"]}}, "padding": {"s": "U0FNRQ=="}, "use_cudnn_on_gpu": {"b": true}, "leakyrelu_alpha": {"f": 0.2}, "epsilon": {"f": 0.0}, "T": {"type": "DT_FLOAT"}, "explicit_paddings": {"list": {}}, "dilations": {"list": {"i": ["1", "1", "1", "1"]}}}}, {"name": "StatefulPartitionedCall/efficientnetv2-m/blocks_0/Sigmoid", "op": "Sigmoid", "input": ["StatefulPartitionedCall/efficientnetv2-m/blocks_0/tpu_batch_normalization/FusedBatchNormV3"], "attr": {"T": {"type": "DT_FLOAT"}}}, {"name": "StatefulPartitionedCall/efficientnetv2-m/blocks_0/mul", "op": "Mul", "input": ["StatefulPartitionedCall/efficientnetv2-m/blocks_0/tpu_batch_normalization/FusedBatchNormV3", "StatefulPartitionedCall/efficientnetv2-m/blocks_0/Sigmoid"], "attr": {"T": {"type": "DT_FLOAT"}}}, {"name": "StatefulPartitionedCall/efficientnetv2-m/blocks_0/Add", "op": "AddV2", "input": ["StatefulPartitionedCall/efficientnetv2-m/blocks_0/mul", "StatefulPartitionedCall/efficientnetv2-m/stem/mul"], "attr": {"T": {"type": "DT_FLOAT"}}}, {"name": "StatefulPartitionedCall/efficientnetv2-m/blocks_1/tpu_batch_normalization/FusedBatchNormV3", "op": "_FusedConv2D", "input": ["StatefulPartitionedCall/efficientnetv2-m/blocks_0/Add", "StatefulPartitionedCall/efficientnetv2-m/blocks_1/conv2d/Conv2D_weights", "StatefulPartitionedCall/efficientnetv2-m/blocks_1/conv2d/Conv2D_bn_offset"], "device": "/device:CPU:0", "attr": {"num_host_args": {"i": "0"}, "data_format": {"s": "TkhXQw=="}, "filter_format": {"s": "SFdJTw=="}, "strides": {"list": {"i": ["1", "1", "1", "1"]}}, "num_args": {"i": "1"}, "fused_ops": {"list": {"s": ["Qmlhc0FkZA=="]}}, "TArgs": {"list": {"type": ["DT_FLOAT"]}}, "padding": {"s": "U0FNRQ=="}, "use_cudnn_on_gpu": {"b": true}, "leakyrelu_alpha": {"f": 0.2}, "epsilon": {"f": 0.0}, "T": {"type": "DT_FLOAT"}, "explicit_paddings": {"list": {}}, "dilations": {"list": {"i": ["1", "1", "1", "1"]}}}}, {"name": "StatefulPartitionedCall/efficientnetv2-m/blocks_1/Sigmoid", "op": "Sigmoid", "input": ["StatefulPartitionedCall/efficientnetv2-m/blocks_1/tpu_batch_normalization/FusedBatchNormV3"], "attr": {"T": {"type": "DT_FLOAT"}}}, {"name": "StatefulPartitionedCall/efficientnetv2-m/blocks_1/mul", "op": "Mul", "input": ["StatefulPartitionedCall/efficientnetv2-m/blocks_1/tpu_batch_normalization/FusedBatchNormV3", "StatefulPartitionedCall/efficientnetv2-m/blocks_1/Sigmoid"], "attr": {"T": {"type": "DT_FLOAT"}}}, {"name": "StatefulPartitionedCall/efficientnetv2-m/blocks_1/Add", "op": "AddV2", "input": ["StatefulPartitionedCall/efficientnetv2-m/blocks_1/mul", "StatefulPartitionedCall/efficientnetv2-m/blocks_0/Add"], "attr": {"T": {"type": "DT_FLOAT"}}}, {"name": "StatefulPartitionedCall/efficientnetv2-m/blocks_2/tpu_batch_normalization/FusedBatchNormV3", "op": "_FusedConv2D", "input": ["StatefulPartitionedCall/efficientnetv2-m/blocks_1/Add", "StatefulPartitionedCall/efficientnetv2-m/blocks_2/conv2d/Conv2D_weights", "StatefulPartitionedCall/efficientnetv2-m/blocks_2/conv2d/Conv2D_bn_offset"], "device": "/device:CPU:0", "attr": {"num_host_args": {"i": "0"}, "data_format": {"s": "TkhXQw=="}, "filter_format": {"s": "SFdJTw=="}, "fused_ops": {"list": {"s": ["Qmlhc0FkZA=="]}}, "num_args": {"i": "1"}, "strides": {"list": {"i": ["1", "1", "1", "1"]}}, "TArgs": {"list": {"type": ["DT_FLOAT"]}}, "padding": {"s": "U0FNRQ=="}, "use_cudnn_on_gpu": {"b": true}, "leakyrelu_alpha": {"f": 0.2}, "epsilon": {"f": 0.0}, "T": {"type": "DT_FLOAT"}, "explicit_paddings": {"list": {}}, "dilations": {"list": {"i": ["1", "1", "1", "1"]}}}}, {"name": "StatefulPartitionedCall/efficientnetv2-m/blocks_2/Sigmoid", "op": "Sigmoid", "input": ["StatefulPartitionedCall/efficientnetv2-m/blocks_2/tpu_batch_normalization/FusedBatchNormV3"], "attr": {"T": {"type": "DT_FLOAT"}}}, {"name": "StatefulPartitionedCall/efficientnetv2-m/blocks_2/mul", "op": "Mul", "input": ["StatefulPartitionedCall/efficientnetv2-m/blocks_2/tpu_batch_normalization/FusedBatchNormV3", "StatefulPartitionedCall/efficientnetv2-m/blocks_2/Sigmoid"], "attr": {"T": {"type": "DT_FLOAT"}}}, {"name": "StatefulPartitionedCall/efficientnetv2-m/blocks_2/Add", "op": "AddV2", "input": ["StatefulPartitionedCall/efficientnetv2-m/blocks_2/mul", "StatefulPartitionedCall/efficientnetv2-m/blocks_1/Add"], "attr": {"T": {"type": "DT_FLOAT"}}}, {"name": "StatefulPartitionedCall/efficientnetv2-m/blocks_3/tpu_batch_normalization/FusedBatchNormV3", "op": "_FusedConv2D", "input": ["StatefulPartitionedCall/efficientnetv2-m/blocks_2/Add", "StatefulPartitionedCall/efficientnetv2-m/blocks_3/conv2d/Conv2D_weights", "StatefulPartitionedCall/efficientnetv2-m/blocks_3/conv2d/Conv2D_bn_offset"], "device": "/device:CPU:0", "attr": {"num_host_args": {"i": "0"}, "data_format": {"s": "TkhXQw=="}, "filter_format": {"s": "SFdJTw=="}, "strides": {"list": {"i": ["1", "2", "2", "1"]}}, "num_args": {"i": "1"}, "fused_ops": {"list": {"s": ["Qmlhc0FkZA=="]}}, "TArgs": {"list": {"type": ["DT_FLOAT"]}}, "padding": {"s": "U0FNRQ=="}, "use_cudnn_on_gpu": {"b": true}, "leakyrelu_alpha": {"f": 0.2}, "epsilon": {"f": 0.0}, "T": {"type": "DT_FLOAT"}, "explicit_paddings": {"list": {}}, "dilations": {"list": {"i": ["1", "1", "1", "1"]}}}}, {"name": "StatefulPartitionedCall/efficientnetv2-m/blocks_3/Sigmoid", "op": "Sigmoid", "input": ["StatefulPartitionedCall/efficientnetv2-m/blocks_3/tpu_batch_normalization/FusedBatchNormV3"], "attr": {"T": {"type": "DT_FLOAT"}}}, {"name": "StatefulPartitionedCall/efficientnetv2-m/blocks_3/mul", "op": "Mul", "input": ["StatefulPartitionedCall/efficientnetv2-m/blocks_3/tpu_batch_normalization/FusedBatchNormV3", "StatefulPartitionedCall/efficientnetv2-m/blocks_3/Sigmoid"], "attr": {"T": {"type": "DT_FLOAT"}}}, {"name": "StatefulPartitionedCall/efficientnetv2-m/blocks_3/tpu_batch_normalization_1/FusedBatchNormV3", "op": "_FusedConv2D", "input": ["StatefulPartitionedCall/efficientnetv2-m/blocks_3/mul", "StatefulPartitionedCall/efficientnetv2-m/blocks_3/conv2d_1/Conv2D_weights", "StatefulPartitionedCall/efficientnetv2-m/blocks_3/conv2d_1/Conv2D_bn_offset"], "device": "/device:CPU:0", "attr": {"num_host_args": {"i": "0"}, "data_format": {"s": "TkhXQw=="}, "filter_format": {"s": "SFdJTw=="}, "fused_ops": {"list": {"s": ["Qmlhc0FkZA=="]}}, "num_args": {"i": "1"}, "strides": {"list": {"i": ["1", "1", "1", "1"]}}, "TArgs": {"list": {"type": ["DT_FLOAT"]}}, "padding": {"s": "U0FNRQ=="}, "use_cudnn_on_gpu": {"b": true}, "leakyrelu_alpha": {"f": 0.2}, "epsilon": {"f": 0.0}, "T": {"type": "DT_FLOAT"}, "explicit_paddings": {"list": {}}, "dilations": {"list": {"i": ["1", "1", "1", "1"]}}}}, {"name": "StatefulPartitionedCall/efficientnetv2-m/blocks_4/tpu_batch_normalization/FusedBatchNormV3", "op": "_FusedConv2D", "input": ["StatefulPartitionedCall/efficientnetv2-m/blocks_3/tpu_batch_normalization_1/FusedBatchNormV3", "StatefulPartitionedCall/efficientnetv2-m/blocks_4/conv2d/Conv2D_weights", "StatefulPartitionedCall/efficientnetv2-m/blocks_4/conv2d/Conv2D_bn_offset"], "device": "/device:CPU:0", "attr": {"num_host_args": {"i": "0"}, "data_format": {"s": "TkhXQw=="}, "filter_format": {"s": "SFdJTw=="}, "strides": {"list": {"i": ["1", "1", "1", "1"]}}, "num_args": {"i": "1"}, "fused_ops": {"list": {"s": ["Qmlhc0FkZA=="]}}, "TArgs": {"list": {"type": ["DT_FLOAT"]}}, "padding": {"s": "U0FNRQ=="}, "use_cudnn_on_gpu": {"b": true}, "leakyrelu_alpha": {"f": 0.2}, "epsilon": {"f": 0.0}, "T": {"type": "DT_FLOAT"}, "explicit_paddings": {"list": {}}, "dilations": {"list": {"i": ["1", "1", "1", "1"]}}}}, {"name": "StatefulPartitionedCall/efficientnetv2-m/blocks_4/Sigmoid", "op": "Sigmoid", "input": ["StatefulPartitionedCall/efficientnetv2-m/blocks_4/tpu_batch_normalization/FusedBatchNormV3"], "attr": {"T": {"type": "DT_FLOAT"}}}, {"name": "StatefulPartitionedCall/efficientnetv2-m/blocks_4/mul", "op": "Mul", "input": ["StatefulPartitionedCall/efficientnetv2-m/blocks_4/tpu_batch_normalization/FusedBatchNormV3", "StatefulPartitionedCall/efficientnetv2-m/blocks_4/Sigmoid"], "attr": {"T": {"type": "DT_FLOAT"}}}, {"name": "StatefulPartitionedCall/efficientnetv2-m/blocks_4/tpu_batch_normalization_1/FusedBatchNormV3", "op": "_FusedConv2D", "input": ["StatefulPartitionedCall/efficientnetv2-m/blocks_4/mul", "StatefulPartitionedCall/efficientnetv2-m/blocks_4/conv2d_1/Conv2D_weights", "StatefulPartitionedCall/efficientnetv2-m/blocks_4/conv2d_1/Conv2D_bn_offset"], "device": "/device:CPU:0", "attr": {"num_host_args": {"i": "0"}, "data_format": {"s": "TkhXQw=="}, "filter_format": {"s": "SFdJTw=="}, "strides": {"list": {"i": ["1", "1", "1", "1"]}}, "num_args": {"i": "1"}, "fused_ops": {"list": {"s": ["Qmlhc0FkZA=="]}}, "TArgs": {"list": {"type": ["DT_FLOAT"]}}, "padding": {"s": "U0FNRQ=="}, "use_cudnn_on_gpu": {"b": true}, "leakyrelu_alpha": {"f": 0.2}, "epsilon": {"f": 0.0}, "T": {"type": "DT_FLOAT"}, "explicit_paddings": {"list": {}}, "dilations": {"list": {"i": ["1", "1", "1", "1"]}}}}, {"name": "StatefulPartitionedCall/efficientnetv2-m/blocks_4/Add", "op": "AddV2", "input": ["StatefulPartitionedCall/efficientnetv2-m/blocks_4/tpu_batch_normalization_1/FusedBatchNormV3", "StatefulPartitionedCall/efficientnetv2-m/blocks_3/tpu_batch_normalization_1/FusedBatchNormV3"], "attr": {"T": {"type": "DT_FLOAT"}}}, {"name": "StatefulPartitionedCall/efficientnetv2-m/blocks_5/tpu_batch_normalization/FusedBatchNormV3", "op": "_FusedConv2D", "input": ["StatefulPartitionedCall/efficientnetv2-m/blocks_4/Add", "StatefulPartitionedCall/efficientnetv2-m/blocks_5/conv2d/Conv2D_weights", "StatefulPartitionedCall/efficientnetv2-m/blocks_5/conv2d/Conv2D_bn_offset"], "device": "/device:CPU:0", "attr": {"num_host_args": {"i": "0"}, "data_format": {"s": "TkhXQw=="}, "filter_format…
leOp", "shape": [1056], "dtype": "float32"}, {"name": "StatefulPartitionedCall/efficientnetv2-m/blocks_24/se/Mean/reduction_indices", "shape": [2], "dtype": "int32"}, {"name": "StatefulPartitionedCall/efficientnetv2-m/blocks_24/se/conv2d/Conv2D/ReadVariableOp", "shape": [1, 1, 1056, 44], "dtype": "float32"}, {"name": "StatefulPartitionedCall/efficientnetv2-m/blocks_24/se/conv2d/BiasAdd/ReadVariableOp", "shape": [44], "dtype": "float32"}, {"name": "StatefulPartitionedCall/efficientnetv2-m/blocks_24/se/conv2d_1/Conv2D/ReadVariableOp", "shape": [1, 1, 44, 1056], "dtype": "float32"}, {"name": "StatefulPartitionedCall/efficientnetv2-m/blocks_24/se/conv2d_1/BiasAdd/ReadVariableOp", "shape": [1056], "dtype": "float32"}, {"name": "StatefulPartitionedCall/efficientnetv2-m/blocks_23/se/Mean/reduction_indices", "shape": [2], "dtype": "int32"}, {"name": "StatefulPartitionedCall/efficientnetv2-m/blocks_23/se/conv2d/Conv2D/ReadVariableOp", "shape": [1, 1, 1056, 44], "dtype": "float32"}, {"name": "StatefulPartitionedCall/efficientnetv2-m/blocks_23/se/conv2d/BiasAdd/ReadVariableOp", "shape": [44], "dtype": "float32"}, {"name": "StatefulPartitionedCall/efficientnetv2-m/blocks_23/se/conv2d_1/Conv2D/ReadVariableOp", "shape": [1, 1, 44, 1056], "dtype": "float32"}, {"name": "StatefulPartitionedCall/efficientnetv2-m/blocks_23/se/conv2d_1/BiasAdd/ReadVariableOp", "shape": [1056], "dtype": "float32"}, {"name": "StatefulPartitionedCall/efficientnetv2-m/blocks_22/se/Mean/reduction_indices", "shape": [2], "dtype": "int32"}, {"name": "StatefulPartitionedCall/efficientnetv2-m/blocks_22/se/conv2d/Conv2D/ReadVariableOp", "shape": [1, 1, 1056, 44], "dtype": "float32"}, {"name": "StatefulPartitionedCall/efficientnetv2-m/blocks_22/se/conv2d/BiasAdd/ReadVariableOp", "shape": [44], "dtype": "float32"}, {"name": "StatefulPartitionedCall/efficientnetv2-m/blocks_22/se/conv2d_1/Conv2D/ReadVariableOp", "shape": [1, 1, 44, 1056], "dtype": "float32"}, {"name": "StatefulPartitionedCall/efficientnetv2-m/blocks_22/se/conv2d_1/BiasAdd/ReadVariableOp", "shape": [1056], "dtype": "float32"}, {"name": "StatefulPartitionedCall/efficientnetv2-m/blocks_21/se/Mean/reduction_indices", "shape": [2], "dtype": "int32"}, {"name": "StatefulPartitionedCall/efficientnetv2-m/blocks_21/se/conv2d/Conv2D/ReadVariableOp", "shape": [1, 1, 1056, 44], "dtype": "float32"}, {"name": "StatefulPartitionedCall/efficientnetv2-m/blocks_21/se/conv2d/BiasAdd/ReadVariableOp", "shape": [44], "dtype": "float32"}, {"name": "StatefulPartitionedCall/efficientnetv2-m/blocks_21/se/conv2d_1/Conv2D/ReadVariableOp", "shape": [1, 1, 44, 1056], "dtype": "float32"}, {"name": "StatefulPartitionedCall/efficientnetv2-m/blocks_21/se/conv2d_1/BiasAdd/ReadVariableOp", "shape": [1056], "dtype": "float32"}, {"name": "StatefulPartitionedCall/efficientnetv2-m/blocks_20/se/Mean/reduction_indices", "shape": [2], "dtype": "int32"}, {"name": "StatefulPartitionedCall/efficientnetv2-m/blocks_20/se/conv2d/Conv2D/ReadVariableOp", "shape": [1, 1, 960, 40], "dtype": "float32"}, {"name": "StatefulPartitionedCall/efficientnetv2-m/blocks_20/se/conv2d/BiasAdd/ReadVariableOp", "shape": [40], "dtype": "float32"}, {"name": "StatefulPartitionedCall/efficientnetv2-m/blocks_20/se/conv2d_1/Conv2D/ReadVariableOp", "shape": [1, 1, 40, 960], "dtype": "float32"}, {"name": "StatefulPartitionedCall/efficientnetv2-m/blocks_20/se/conv2d_1/BiasAdd/ReadVariableOp", "shape": [960], "dtype": "float32"}, {"name": "StatefulPartitionedCall/efficientnetv2-m/blocks_19/se/Mean/reduction_indices", "shape": [2], "dtype": "int32"}, {"name": "StatefulPartitionedCall/efficientnetv2-m/blocks_19/se/conv2d/Conv2D/ReadVariableOp", "shape": [1, 1, 640, 40], "dtype": "float32"}, {"name": "StatefulPartitionedCall/efficientnetv2-m/blocks_19/se/conv2d/BiasAdd/ReadVariableOp", "shape": [40], "dtype": "float32"}, {"name": "StatefulPartitionedCall/efficientnetv2-m/blocks_19/se/conv2d_1/Conv2D/ReadVariableOp", "shape": [1, 1, 40, 640], "dtype": "float32"}, {"name": "StatefulPartitionedCall/efficientnetv2-m/blocks_19/se/conv2d_1/BiasAdd/ReadVariableOp", "shape": [640], "dtype": "float32"}, {"name": "StatefulPartitionedCall/efficientnetv2-m/blocks_18/se/Mean/reduction_indices", "shape": [2], "dtype": "int32"}, {"name": "StatefulPartitionedCall/efficientnetv2-m/blocks_18/se/conv2d/Conv2D/ReadVariableOp", "shape": [1, 1, 640, 40], "dtype": "float32"}, {"name": "StatefulPartitionedCall/efficientnetv2-m/blocks_18/se/conv2d/BiasAdd/ReadVariableOp", "shape": [40], "dtype": "float32"}, {"name": "StatefulPartitionedCall/efficientnetv2-m/blocks_18/se/conv2d_1/Conv2D/ReadVariableOp", "shape": [1, 1, 40, 640], "dtype": "float32"}, {"name": "StatefulPartitionedCall/efficientnetv2-m/blocks_18/se/conv2d_1/BiasAdd/ReadVariableOp", "shape": [640], "dtype": "float32"}, {"name": "StatefulPartitionedCall/efficientnetv2-m/blocks_17/se/Mean/reduction_indices", "shape": [2], "dtype": "int32"}, {"name": "StatefulPartitionedCall/efficientnetv2-m/blocks_17/se/conv2d/Conv2D/ReadVariableOp", "shape": [1, 1, 640, 40], "dtype": "float32"}, {"name": "StatefulPartitionedCall/efficientnetv2-m/blocks_17/se/conv2d/BiasAdd/ReadVariableOp", "shape": [40], "dtype": "float32"}, {"name": "StatefulPartitionedCall/efficientnetv2-m/blocks_17/se/conv2d_1/Conv2D/ReadVariableOp", "shape": [1, 1, 40, 640], "dtype": "float32"}, {"name": "StatefulPartitionedCall/efficientnetv2-m/blocks_17/se/conv2d_1/BiasAdd/ReadVariableOp", "shape": [640], "dtype": "float32"}, {"name": "StatefulPartitionedCall/efficientnetv2-m/blocks_16/se/Mean/reduction_indices", "shape": [2], "dtype": "int32"}, {"name": "StatefulPartitionedCall/efficientnetv2-m/blocks_16/se/conv2d/Conv2D/ReadVariableOp", "shape": [1, 1, 640, 40], "dtype": "float32"}, {"name": "StatefulPartitionedCall/efficientnetv2-m/blocks_16/se/conv2d/BiasAdd/ReadVariableOp", "shape": [40], "dtype": "float32"}, {"name": "StatefulPartitionedCall/efficientnetv2-m/blocks_16/se/conv2d_1/Conv2D/ReadVariableOp", "shape": [1, 1, 40, 640], "dtype": "float32"}, {"name": "StatefulPartitionedCall/efficientnetv2-m/blocks_16/se/conv2d_1/BiasAdd/ReadVariableOp", "shape": [640], "dtype": "float32"}, {"name": "StatefulPartitionedCall/efficientnetv2-m/blocks_15/se/Mean/reduction_indices", "shape": [2], "dtype": "int32"}, {"name": "StatefulPartitionedCall/efficientnetv2-m/blocks_15/se/conv2d/Conv2D/ReadVariableOp", "shape": [1, 1, 640, 40], "dtype": "float32"}, {"name": "StatefulPartitionedCall/efficientnetv2-m/blocks_15/se/conv2d/BiasAdd/ReadVariableOp", "shape": [40], "dtype": "float32"}, {"name": "StatefulPartitionedCall/efficientnetv2-m/blocks_15/se/conv2d_1/Conv2D/ReadVariableOp", "shape": [1, 1, 40, 640], "dtype": "float32"}, {"name": "StatefulPartitionedCall/efficientnetv2-m/blocks_15/se/conv2d_1/BiasAdd/ReadVariableOp", "shape": [640], "dtype": "float32"}, {"name": "StatefulPartitionedCall/efficientnetv2-m/blocks_14/se/Mean/reduction_indices", "shape": [2], "dtype": "int32"}, {"name": "StatefulPartitionedCall/efficientnetv2-m/blocks_14/se/conv2d/Conv2D/ReadVariableOp", "shape": [1, 1, 640, 40], "dtype": "float32"}, {"name": "StatefulPartitionedCall/efficientnetv2-m/blocks_14/se/conv2d/BiasAdd/ReadVariableOp", "shape": [40], "dtype": "float32"}, {"name": "StatefulPartitionedCall/efficientnetv2-m/blocks_14/se/conv2d_1/Conv2D/ReadVariableOp", "shape": [1, 1, 40, 640], "dtype": "float32"}, {"name": "StatefulPartitionedCall/efficientnetv2-m/blocks_14/se/conv2d_1/BiasAdd/ReadVariableOp", "shape": [640], "dtype": "float32"}, {"name": "StatefulPartitionedCall/efficientnetv2-m/blocks_13/se/Mean/reduction_indices", "shape": [2], "dtype": "int32"}, {"name": "StatefulPartitionedCall/efficientnetv2-m/blocks_13/se/conv2d/Conv2D/ReadVariableOp", "shape": [1, 1, 320, 20], "dtype": "float32"}, {"name": "StatefulPartitionedCall/efficientnetv2-m/blocks_13/se/conv2d/BiasAdd/ReadVariableOp", "shape": [20], "dtype": "float32"}, {"name": "StatefulPartitionedCall/efficientnetv2-m/blocks_13/se/conv2d_1/Conv2D/ReadVariableOp", "shape": [1, 1, 20, 320], "dtype": "float32"}, {"name": "StatefulPartitionedCall/efficientnetv2-m/blocks_13/se/conv2d_1/BiasAdd/ReadVariableOp", "shape": [320], "dtype": "float32"}, {"name": "StatefulPartitionedCall/efficientnetv2-m/head/global_average_pooling2d/Mean/reduction_indices", "shape": [2], "dtype": "int32"}, {"name": "StatefulPartitionedCall/efficientnetv2-m/stem/conv2d/Conv2D_weights", "shape": [3, 3, 3, 24], "dtype": "float32"}, {"name": "StatefulPartitionedCall/efficientnetv2-m/stem/conv2d/Conv2D_bn_offset", "shape": [24], "dtype": "float32"}, {"name": "StatefulPartitionedCall/efficientnetv2-m/blocks_0/conv2d/Conv2D_weights", "shape": [3, 3, 24, 24], "dtype": "float32"}, {"name": "StatefulPartitionedCall/efficientnetv2-m/blocks_0/conv2d/Conv2D_bn_offset", "shape": [24], "dtype": "float32"}, {"name": "StatefulPartitionedCall/efficientnetv2-m/blocks_1/conv2d/Conv2D_weights", "shape": [3, 3, 24, 24], "dtype": "float32"}, {"name": "StatefulPartitionedCall/efficientnetv2-m/blocks_1/conv2d/Conv2D_bn_offset", "shape": [24], "dtype": "float32"}, {"name": "StatefulPartitionedCall/efficientnetv2-m/blocks_2/conv2d/Conv2D_weights", "shape": [3, 3, 24, 24], "dtype": "float32"}, {"name": "StatefulPartitionedCall/efficientnetv2-m/blocks_2/conv2d/Conv2D_bn_offset", "shape": [24], "dtype": "float32"}, {"name": "StatefulPartitionedCall/efficientnetv2-m/blocks_3/conv2d/Conv2D_weights", "shape": [3, 3, 24, 96], "dtype": "float32"}, {"name": "StatefulPartitionedCall/efficientnetv2-m/blocks_3/conv2d/Conv2D_bn_offset", "shape": [96], "dtype": "float32"}, {"name": "StatefulPartitionedCall/efficientnetv2-m/blocks_3/conv2d_1/Conv2D_weights", "shape": [1, 1, 96, 48], "dtype": "float32"}, {"name": "StatefulPartitionedCall/efficientnetv2-m/blocks_3/conv2d_1/Conv2D_bn_offset", "shape": [48], "dtype": "float32"}, {"name": "StatefulPartitionedCall/efficientnetv2-m/blocks_4/conv2d/Conv2D_weights", "shape": [3, 3, 48, 192], "dtype": "float32"}, {"name": "StatefulPartitionedCall/efficientnetv2-m/blocks_4/conv2d/Conv2D_bn_offset", "shape": [192], "dtype": "float32"}, {"name": "StatefulPartitionedCall/efficientnetv2-m/blocks_4/conv2d_1/Conv2D_weights", "shape": [1, 1, 192, 48], "dtype": "float32"}, {"name": "StatefulPartitionedCall/efficientnetv2-m/blocks_49/conv2d_1/Conv2D_weights", "shape": [1, 1, 1824, 304], "dtype": "float32"}, {"name": "StatefulPartitionedCall/efficientnetv2-m/blocks_4/conv2d_1/Conv2D_bn_offset", "shape": [48], "dtype": "float32"}, {"name": "StatefulPartitionedCall/efficientnetv2-m/blocks_5/conv2d/Conv2D_weights", "shape": [3, 3, 48, 192], "dtype": "float32"}, {"name": "StatefulPartitionedCall/efficientnetv2-m/blocks_5/conv2d/Conv2D_bn_offset", "shape": [192], "dtype": "float32"}, {"name": "StatefulPartitionedCall/efficientnetv2-m/blocks_5/conv2d_1/Conv2D_weights", "shape": [1, 1, 192, 48], "dtype": "float32"}, {"name": "StatefulPartitionedCall/efficientnetv2-m/blocks_49/conv2d_1/Conv2D_bn_offset", "shape": [304], "dtype": "float32"}, {"name": "StatefulPartitionedCall/efficientnetv2-m/blocks_5/conv2d_1/Conv2D_bn_offset", "shape": [48], "dtype": "float32"}, {"name": "StatefulPartitionedCall/efficientnetv2-m/blocks_6/conv2d/Conv2D_weights", "shape": [3, 3, 48, 192], "dtype": "float32"}, {"name": "StatefulPartitionedCall/efficientnetv2-m/blocks_6/conv2d/Conv2D_bn_offset", "shape": [192], "dtype": "float32"}, {"name": "StatefulPartitionedCall/efficientnetv2-m/blocks_6/conv2d_1/Conv2D_weights", "shape": [1, 1, 192, 48], "dtype": "float32"}, {"name": "StatefulPartitionedCall/efficientnetv2-m/blocks_6/conv2d_1/Conv2D_bn_offset", "shape": [48], "dtype": "float32"}, {"name": "StatefulPartitionedCall/efficientnetv2-m/blocks_7/conv2d/Conv2D_weights", "shape": [3, 3, 48, 192], "dtype": "float32"}, {"name": "StatefulPartitionedCall/efficientnetv2-m/blocks_50/conv2d/Conv2D_weights", "shape": [1, 1, 304, 1824], "dtype": "float32"}, {"name": "StatefulPartitionedCall/efficientnetv2-m/blocks_7/conv2d/Conv2D_bn_offset", "shape": [192], "dtype": "float32"}, {"name": "StatefulPartitionedCall/efficientnetv2-m/blocks_7/conv2d_1/Conv2D_weights", "shape": [1, 1, 192, 48], "dtype": "float32"}, {"name": "StatefulPartitionedCall/efficientnetv2-m/blocks_7/conv2d_1/Conv2D_bn_offset", "shape": [48], "dtype": "float32"}, {"name": "StatefulPartitionedCall/efficientnetv2-m/blocks_8/conv2d/Conv2D_weights", "shape": [3, 3, 48, 192], "dtype": "float32"}, {"name": "StatefulPartitionedCall/efficientnetv2-m/blocks_50/conv2d/Conv2D_bn_offset", "shape": [1824], "dtype": "float32"}, {"name": "StatefulPartitionedCall/efficientnetv2-m/blocks_8/conv2d/Conv2D_bn_offset", "shape": [192], "dtype": "float32"}, {"name": "StatefulPartitionedCall/efficientnetv2-m/blocks_8/conv2d_1/Conv2D_weights", "shape": [1, 1, 192, 80], "dtype": "float32"}, {"name": "StatefulPartitionedCall/efficientnetv2-m/blocks_8/conv2d_1/Conv2D_bn_offset", "shape": [80], "dtype": "float32"}, {"name": "StatefulPartitionedCall/efficientnetv2-m/blocks_9/conv2d/Conv2D_weights", "shape": [3, 3, 80, 320], "dtype": "float32"}, {"name": "StatefulPartitionedCall/efficientnetv2-m/blocks_9/conv2d/Conv2D_bn_offset", "shape": [320], "dtype": "float32"}, {"name": "StatefulPartitionedCall/efficientnetv2-m/blocks_9/conv2d_1/Conv2D_weights", "shape": [1, 1, 320, 80], "dtype": "float32"}, {"name": "StatefulPartitionedCall/efficientnetv2-m/blocks_9/conv2d_1/Conv2D_bn_offset", "shape": [80], "dtype": "float32"}, {"name": "StatefulPartitionedCall/efficientnetv2-m/blocks_10/conv2d/Conv2D_weights", "shape": [3, 3, 80, 320], "dtype": "float32"}, {"name": "StatefulPartitionedCall/efficientnetv2-m/blocks_50/depthwise_conv2d/depthwise_weights", "shape": [3, 3, 1824, 1], "dtype": "float32"}, {"name": "StatefulPartitionedCall/efficientnetv2-m/blocks_10/conv2d/Conv2D_bn_offset", "shape": [320], "dtype": "float32"}, {"name": "StatefulPartitionedCall/efficientnetv2-m/blocks_10/conv2d_1/Conv2D_weights", "shape": [1, 1, 320, 80], "dtype": "float32"}, {"name": "StatefulPartitionedCall/efficientnetv2-m/blocks_10/conv2d_1/Conv2D_bn_offset", "shape": [80], "dtype": "float32"}, {"name": "StatefulPartitionedCall/efficientnetv2-m/blocks_11/conv2d/Conv2D_weights", "shape": [3, 3, 80, 320], "dtype": "float32"}, {"name": "StatefulPartitionedCall/efficientnetv2-m/blocks_50/depthwise_conv2d/depthwise_bn_offset", "shape": [1824], "dtype": "float32"}, {"name": "StatefulPartitionedCall/efficientnetv2-m/blocks_11/conv2d/Conv2D_bn_offset", "shape": [320], "dtype": "float32"}, {"name": "StatefulPartitionedCall/efficientnetv2-m/blocks_11/conv2d_1/Conv2D_weights", "shape": [1, 1, 320, 80], "dtype": "float32"}, {"name": "StatefulPartitionedCall/efficientnetv2-m/blocks_11/conv2d_1/Conv2D_bn_offset", "shape": [80], "dtype": "float32"}, {"name": "StatefulPartitionedCall/efficientnetv2-m/blocks_12/conv2d/Conv2D_weights", "shape": [3, 3, 80, 320], "dtype": "float32"}, {"name": "StatefulPartitionedCall/efficientnetv2-m/blocks_12/conv2d/Conv2D_bn_offset", "shape": [320], "dtype": "float32"}, {"name": "StatefulPartitionedCall/efficientnetv2-m/blocks_12/conv2d_1/Conv2D_weights", "shape": [1, 1, 320, 80], "dtype": "float32"}, {"name": "StatefulPartitionedCall/efficientnetv2-m/blocks_12/conv2d_1/Conv2D_bn_offset", "shape": [80], "dtype": "float32"}, {"name": "StatefulPartitionedCall/efficientnetv2-m/blocks_13/conv2d/Conv2D_weights", "shape": [1, 1, 80, 320], "dtype": "float32"}, {"name": "StatefulPartitionedCall/efficientnetv2-m/blocks_13/conv2d/Conv2D_bn_offset", "shape": [320], "dtype": "float32"}, {"name": "StatefulPartitionedCall/efficientnetv2-m/blocks_13/depthwise_conv2d/depthwise_weights", "shape": [3, 3, 320, 1], "dtype": "float32"}, {"name": "StatefulPartitionedCall/efficientnetv2-m/blocks_13/depthwise_conv2d/depthwise_bn_offset", "shape": [320], "dtype": "float32"}, {"name": "StatefulPartitionedCall/efficientnetv2-m/blocks_56/depthwise_conv2d/depthwise_weights", "shape": [3, 3, 3072, 1], "dtype": "float32"}, {"name": "StatefulPartitionedCall/efficientnetv2-m/blocks_13/conv2d_1/Conv2D_weights", "shape": [1, 1, 320, 160], "dtype": "float32"}, {"name": "StatefulPartitionedCall/efficientnetv2-m/blocks_13/conv2d_1/Conv2D_bn_offset", "shape": [160], "dtype": "float32"}, {"name": "StatefulPartitionedCall/efficientnetv2-m/blocks_14/conv2d/Conv2D_weights", "shape": [1, 1, 160, 640], "dtype": "float32"}, {"name": "StatefulPartitionedCall/efficientnetv2-m/blocks_14/conv2d/Conv2D_bn_offset", "shape": [640], "dtype": "float32"}, {"name": "StatefulPartitionedCall/efficientnetv2-m/blocks_14/depthwise_conv2d/depthwise_weights", "shape": [3, 3, 640, 1], "dtype": "float32"}, {"name": "StatefulPartitionedCall/efficientnetv2-m/blocks_14/depthwise_conv2d/depthwise_bn_offset", "shape": [640], "dtype": "float32"}, {"name": "StatefulPartitionedCall/efficientnetv2-m/blocks_14/conv2d_1/Conv2D_weights", "shape": [1, 1, 640, 160], "dtype": "float32"}, {"name": "StatefulPartitionedCall/efficientnetv2-m/blocks_14/conv2d_1/Conv2D_bn_offset", "shape": [160], "dtype": "float32"}, {"name": "StatefulPartitionedCall/efficientnetv2-m/blocks_15/conv2d/Conv2D_weights", "shape": [1, 1, 160, 640], "dtype": "float32"}, {"name": "StatefulPartitionedCall/efficientnetv2-m/blocks_15/conv2d/Conv2D_bn_offset", "shape": [640], "dtype": "float32"}, {"name": "StatefulPartitionedCall/efficientnetv2-m/blocks_15/depthwise_conv2d/depthwise_weights", "shape": [3, 3, 640, 1], "dtype": "float32"}, {"name": "StatefulPartitionedCall/efficientnetv2-m/blocks_15/depthwise_conv2d/depthwise_bn_offset", "shape": [640], "dtype": "float32"}, {"name": "StatefulPartitionedCall/efficientnetv2-m/blocks_50/conv2d_1/Conv2D_weights", "shape": [1, 1, 1824, 304], "dtype": "float32"}, {"name": "StatefulPartitionedCall/efficientnetv2-m/blocks_56/depthwise_conv2d/depthwise_bn_offset", "shape": [3072], "dtype": "float32"}, {"name": "StatefulPartitionedCall/efficientnetv2-m/blocks_15/conv2d_1/Conv2D_weights", "shape": [1, 1, 640, 160], "dtype": "float32"}, {"name": "StatefulPartitionedCall/efficientnetv2-m/blocks_50/conv2d_1/Conv2D_bn_offset", "shape": [304], "dtype": "float32"}, {"name": "StatefulPartitionedCall/efficientnetv2-m/blocks_15/conv2d_1/Conv2D_bn_offset", "shape": [160], "dtype": "float32"}, {"name": "StatefulPartitionedCall/efficientnetv2-m/blocks_16/conv2d/Conv2D_weights", "shape": [1, 1, 160, 640], "dtype": "float32"}, {"name": "StatefulPartitionedCall/efficientnetv2-m/blocks_16/conv2d/Conv2D_bn_offset", "shape": [640], "dtype": "float32"}, {"name": "StatefulPartitionedCall/efficientnetv2-m/blocks_16/depthwise_conv2d/depthwise_weights", "shape": [3, 3, 640, 1], "dtype": "float32"}, {"name": "StatefulPartitionedCall/efficientnetv2-m/blocks_16/depthwise_conv2d/depthwise_bn_offset", "shape": [640], "dtype": "float32"}, {"name": "StatefulPartitionedCall/efficientnetv2-m/blocks_51/conv2d/Conv2D_weights", "shape": [1, 1, 304, 1824], "dtype": "float32"}, {"name": "StatefulPartitionedCall/efficientnetv2-m/blocks_16/conv2d_1/Conv2D_weights", "shape": [1, 1, 640, 160], "dtype": "float32"}, {"name": "StatefulPartitionedCall/efficientnetv2-m/blocks_16/conv2d_1/Conv2D_bn_offset", "shape": [160], "dtype": "float32"}, {"name": "StatefulPartitionedCall/efficientnetv2-m/blocks_17/conv2d/Conv2D_weights", "shape": [1, 1, 160, 640], "dtype": "float32"}, {"name": "StatefulPartitionedCall/efficientnetv2-m/blocks_51/conv2d/Conv2D_bn_offset", "shape": [1824], "dtype": "float32"}, {"name": "StatefulPartitionedCall/efficientnetv2-m/blocks_17/conv2d/Conv2D_bn_offset", "shape": [640], "dtype": "float32"}, {"name": "StatefulPartitionedCall/efficientnetv2-m/blocks_17/depthwise_conv2d/depthwise_weights", "shape": [3, 3, 640, 1], "dtype": "float32"}, {"name": "StatefulPartitionedCall/efficientnetv2-m/blocks_17/depthwise_conv2d/depthwise_bn_offset", "shape": [640], "dtype": "float32"}, {"name": "StatefulPartitionedCall/efficientnetv2-m/blocks_17/conv2d_1/Conv2D_weights", "shape": [1, 1, 640, 160], "dtype": "float32"}, {"name": "StatefulPartitionedCall/efficientnetv2-m/blocks_17/conv2d_1/Conv2D_bn_offset", "shape": [160], "dtype": "float32"}, {"name": "StatefulPartitionedCall/efficientnetv2-m/blocks_18/conv2d/Conv2D_weights", "shape": [1, 1, 160, 640], "dtype": "float32"}, {"name": "StatefulPartitionedCall/efficientnetv2-m/blocks_51/depthwise_conv2d/depthwise_weights", "shape": [3, 3, 1824, 1], "dtype": "float32"}, {"name": "StatefulPartitionedCall/efficientnetv2-m/blocks_18/conv2d/Conv2D_bn_offset", "shape": [640], "dtype": "float32"}, {"name": "StatefulPartitionedCall/efficientnetv2-m/blocks_18/depthwise_conv2d/depthwise_weights", "shape": [3, 3, 640, 1], "dtype": "float32"}, {"name": "StatefulPartitionedCall/efficientnetv2-m/blocks_18/depthwise_conv2d/depthwise_bn_offset", "shape": [640], "dtype": "float32"}, {"name": "StatefulPartitionedCall/efficientnetv2-m/blocks_51/depthwise_conv2d/depthwise_bn_offset", "shape": [1824], "dtype": "float32"}, {"name": "StatefulPartitionedCall/efficientnetv2-m/blocks_18/conv2d_1/Conv2D_weights", "shape": [1, 1, 640, 160], "dtype": "float32"}, {"name": "StatefulPartitionedCall/efficientnetv2-m/blocks_18/conv2d_1/Conv2D_bn_offset", "shape": [160], "dtype": "float32"}, {"name": "StatefulPartitionedCall/efficientnetv2-m/blocks_19/conv2d/Conv2D_weights", "shape": [1, 1, 160, 640], "dtype": "float32"}, {"name": "StatefulPartitionedCall/efficientnetv2-m/blocks_19/conv2d/Conv2D_bn_offset", "shape": [640], "dtype": "float32"}, {"name": "StatefulPartitionedCall/efficientnetv2-m/blocks_19/depthwise_conv2d/depthwise_weights", "shape": [3, 3, 640, 1], "dtype": "float32"}, {"name": "StatefulPartitionedCall/efficientnetv2-m/blocks_19/depthwise_conv2d/depthwise_bn_offset", "shape": [640], "dtype": "float32"}, {"name": "StatefulPartitionedCall/efficientnetv2-m/blocks_19/conv2d_1/Conv2D_weights", "shape": [1, 1, 640, 160], "dtype": "float32"}, {"name": "StatefulPartitionedCall/efficientnetv2-m/blocks_19/conv2d_1/Conv2D_bn_offset", "shape": [160], "dtype": "float32"}, {"name": "StatefulPartitionedCall/efficientnetv2-m/blocks_20/conv2d/Conv2D_weights", "shape": [1, 1, 160, 960], "dtype": "float32"}, {"name": "StatefulPartitionedCall/efficientnetv2-m/blocks_20/conv2d/Conv2D_bn_offset", "shape": [960], "dtype": "float32"}, {"name": "StatefulPartitionedCall/efficientnetv2-m/blocks_20/depthwise_conv2d/depthwise_weights", "shape": [3, 3, 960, 1], "dtype": "float32"}, {"name": "StatefulPartitionedCall/efficientnetv2-m/blocks_20/depthwise_conv2d/depthwise_bn_offset", "shape": [960], "dtype": "float32"}, {"name": "StatefulPartitionedCall/efficientnetv2-m/blocks_20/conv2d_1/Conv2D_weights", "shape": [1, 1, 960, 176], "dtype": "float32"}, {"name": "StatefulPartitionedCall/efficientnetv2-m/blocks_20/conv2d_1/Conv2D_bn_offset", "shape": [176], "dtype": "float32"}, {"name": "StatefulPartitionedCall/efficientnetv2-m/blocks_21/conv2d/Conv2D_weights", "shape": [1, 1, 176, 1056], "dtype": "float32"}, {"name": "StatefulPartitionedCall/efficientnetv2-m/blocks_21/conv2d/Conv2D_bn_offset", "shape": [1056], "dtype": "float32"}, {"name": "StatefulPartitionedCall/efficientnetv2-m/blocks_21/depthwise_conv2d/depthwise_weights", "shape": [3, 3, 1056, 1], "dtype": "float32"}, {"name": "StatefulPartitionedCall/efficientnetv2-m/blocks_21/depthwise_conv2d/depthwise_bn_offset", "shape": [1056], "dtype": "float32"}, {"name": "StatefulPartitionedCall/efficientnetv2-m/blocks_21/conv2d_1/Conv2D_weights", "shape": [1, 1, 1056, 176], "dtype": "float32"}, {"name": "StatefulPartitionedCall/efficientnetv2-m/blocks_51/conv2d_1/Conv2D_weights", "shape": [1, 1, 1824, 304], "dtype": "float32"}, {"name": "StatefulPartitionedCall/efficientnetv2-m/blocks_21/conv2d_1/Conv2D_bn_offset", "shape": [176], "dtype": "float32"}, {"name": "StatefulPartitionedCall/efficientnetv2-m/blocks_22/conv2d/Conv2D_weights", "shape": [1, 1, 176, 1056], "dtype": "float32"}, {"name": "StatefulPartitionedCall/efficientnetv2-m/blocks_22/conv2d/Conv2D_bn_offset", "shape": [1056], "dtype": "float32"}, {"name": "StatefulPartitionedCall/efficientnetv2-m/blocks_22/depthwise_conv2d/depthwise_weights", "shape": [3, 3, 1056, 1], "dtype": "float32"}, {"name": "StatefulPartitionedCall/efficientnetv2-m/blocks_22/depthwise_conv2d/depthwise_bn_offset", "shape": [1056], "dtype": "float32"}, {"name": "StatefulPartitionedCall/efficientnetv2-m/blocks_51/conv2d_1/Conv2D_bn_offset", "shape": [304], "dtype": "float32"}, {"name": "StatefulPartitionedCall/efficientnetv2-m/blocks_22/conv2d_1/Conv2D_weights", "shape": [1, 1, 1056, 176], "dtype": "float32"}, {"name": "StatefulPartitionedCall/efficientnetv2-m/blocks_22/conv2d_1/Conv2D_bn_offset", "shape": [176], "dtype": "float32"}, {"name": "StatefulPartitionedCall/efficientnetv2-m/blocks_23/conv2d/Conv2D_weights", "shape": [1, 1, 176, 1056], "dtype": "float32"}, {"name": "StatefulPartitionedCall/efficientnetv2-m/blocks_52/conv2d/Conv2D_weights", "shape": [1, 1, 304, 1824], "dtype": "float32"}, {"name": "StatefulPartitionedCall/efficientnetv2-m/blocks_23/conv2d/Conv2D_bn_offset", "shape": [1056], "dtype": "float32"}, {"name": "StatefulPartitionedCall/efficientnetv2-m/blocks_23/depthwise_conv2d/depthwise_weights", "shape": [3, 3, 1056, 1], "dtype": "float32"}, {"name": "StatefulPartitionedCall/efficientnetv2-m/blocks_23/depthwise_conv2d/depthwise_bn_offset", "shape": [1056], "dtype": "float32"}, {"name": "StatefulPartitionedCall/efficientnetv2-m/blocks_52/conv2d/Conv2D_bn_offset", "shape": [1824], "dtype": "float32"}, {"name": "StatefulPartitionedCall/efficientnetv2-m/blocks_23/conv2d_1/Conv2D_weights", "shape": [1, 1, 1056, 176], "dtype": "float32"}, {"name": "StatefulPartitionedCall/efficientnetv2-m/blocks_23/conv2d_1/Conv2D_bn_offset", "shape": [176], "dtype": "float32"}, {"name": "StatefulPartitionedCall/efficientnetv2-m/blocks_24/conv2d/Conv2D_weights", "shape": [1, 1, 176, 1056], "dtype": "float32"}, {"name": "StatefulPartitionedCall/efficientnetv2-m/blocks_24/conv2d/Conv2D_bn_offset", "shape": [1056], "dtype": "float32"}, {"name": "StatefulPartitionedCall/efficientnetv2-m/blocks_24/depthwise_conv2d/depthwise_weights", "shape": [3, 3, 1056, 1], "dtype": "float32"}, {"name": "StatefulPartitionedCall/efficientnetv2-m/blocks_24/depthwise_conv2d/depthwise_bn_offset", "shape": [1056], "dtype": "float32"}, {"name": "StatefulPartitionedCall/efficientnetv2-m/blocks_52/depthwise_conv2d/depthwise_weights", "shape": [3, 3, 1824, 1], "dtype": "float32"}, {"name": "StatefulPartitionedCall/efficientnetv2-m/blocks_24/conv2d_1/Conv2D_weights", "shape": [1, 1, 1056, 176], "dtype": "float32"}, {"name": "StatefulPartitionedCall/efficientnetv2-m/blocks_24/conv2d_1/Conv2D_bn_offset", "shape": [176], "dtype": "float32"}, {"name": "StatefulPartitionedCall/efficientnetv2-m/blocks_25/conv2d/Conv2D_weights", "shape": [1, 1, 176, 1056], "dtype": "float32"}, {"name": "StatefulPartitionedCall/efficientnetv2-m/blocks_52/depthwise_conv2d/depthwise_bn_offset", "shape": [1824], "dtype": "float32"}, {"name": "StatefulPartitionedCall/efficientnetv2-m/blocks_25/conv2d/Conv2D_bn_offset", "shape": [1056], "dtype": "float32"}, {"name": "StatefulPartitionedCall/efficientnetv2-m/blocks_25/depthwise_conv2d/depthwise_weights", "shape": [3, 3, 1056, 1], "dtype": "float32"}, {"name": "StatefulPartitionedCall/efficientnetv2-m/blocks_25/depthwise_conv2d/depthwise_bn_offset", "shape": [1056], "dtype": "float32"}, {"name": "StatefulPartitionedCall/efficientnetv2-m/blocks_25/conv2d_1/Conv2D_weights", "shape": [1, 1, 1056, 176], "dtype": "float32"}, {"name": "StatefulPartitionedCall/efficientnetv2-m/blocks_25/conv2d_1/Conv2D_bn_offset", "shape": [176], "dtype": "float32"}, {"name": "StatefulPartitionedCall/efficientnetv2-m/blocks_26/conv2d/Conv2D_weights", "shape": [1, 1, 176, 1056], "dtype": "float32"}, {"name": "StatefulPartitionedCall/efficientnetv2-m/blocks_26/conv2d/Conv2D_bn_offset", "shape": [1056], "dtype": "float32"}, {"name": "StatefulPartitionedCall/efficientnetv2-m/blocks_26/depthwise_conv2d/depthwise_weights", "shape": [3, 3, 1056, 1], "dtype": "float32"}, {"name": "StatefulPartitionedCall/efficientnetv2-m/blocks_26/depthwise_conv2d/depthwise_bn_offset", "shape": [1056], "dtype": "float32"}, {"name": "StatefulPartitionedCall/efficientnetv2-m/blocks_26/conv2d_1/Conv2D_weights", "shape": [1, 1, 1056, 176], "dtype": "float32"}, {"name": "StatefulPartitionedCall/efficientnetv2-m/blocks_26/conv2d_1/Conv2D_bn_offset", "shape": [176], "dtype": "float32"}, {"name": "StatefulPartitionedCall/efficientnetv2-m/blocks_27/conv2d/Conv2D_weights", "shape": [1, 1, 176, 1056], "dtype": "float32"}, {"name": "StatefulPartitionedCall/efficientnetv2-m/blocks_27/conv2d/Conv2D_bn_offset", "shape": [1056], "dtype": "float32"}, {"name": "StatefulPartitionedCall/efficientnetv2-m/blocks_27/depthwise_conv2d/depthwise_weights", "shape": [3, 3, 1056, 1], "dtype": "float32"}, {"name": "StatefulPartitionedCall/efficientnetv2-m/blocks_27/depthwise_conv2d/depthwise_bn_offset", "shape": [1056], "dtype": "float32"}, {"name": "StatefulPartitionedCall/efficientnetv2-m/blocks_27/conv2d_1/Conv2D_weights", "shape": [1, 1, 1056, 176], "dtype": "float32"}, {"name": "StatefulPartitionedCall/efficientnetv2-m/blocks_27/conv2d_1/Conv2D_bn_offset", "shape": [176], "dtype": "float32"}, {"name": "StatefulPartitionedCall/efficientnetv2-m/blocks_28/conv2d/Conv2D_weights", "shape": [1, 1, 176, 1056], "dtype": "float32"}, {"name": "StatefulPartitionedCall/efficientnetv2-m/blocks_28/conv2d/Conv2D_bn_offset", "shape": [1056], "dtype": "float32"}, {"name": "StatefulPartitionedCall/efficientnetv2-m/blocks_28/depthwise_conv2d/depthwise_weights", "shape": [3, 3, 1056, 1], "dtype": "float32"}, {"name": "StatefulPartitionedCall/efficientnetv2-m/blocks_28/depthwise_conv2d/depthwise_bn_offset", "shape": [1056], "dtype": "float32"}, {"name": "StatefulPartitionedCall/efficientnetv2-m/blocks_52/conv2d_1/Conv2D_weights", "shape": [1, 1, 1824, 512], "dtype": "float32"}, {"name": "StatefulPartitionedCall/efficientnetv2-m/blocks_28/conv2d_1/Conv2D_weights", "shape": [1, 1, 1056, 176], "dtype": "float32"}, {"name": "StatefulPartitionedCall/efficientnetv2-m/blocks_52/conv2d_1/Conv2D_bn_offset", "shape": [512], "dtype": "float32"}, {"name": "StatefulPartitionedCall/efficientnetv2-m/blocks_28/conv2d_1/Conv2D_bn_offset", "shape": [176], "dtype": "float32"}, {"name": "StatefulPartitionedCall/efficientnetv2-m/blocks_29/conv2d/Conv2D_weights", "shape": [1, 1, 176, 1056], "dtype": "float32"}, {"name": "StatefulPartitionedCall/efficientnetv2-m/blocks_29/conv2d/Conv2D_bn_offset", "shape": [1056], "dtype": "float32"}, {"name": "StatefulPartitionedCall/efficientnetv2-m/blocks_29/depthwise_conv2d/depthwise_weights", "shape": [3, 3, 1056, 1], "dtype": "float32"}, {"name": "StatefulPartitionedCall/efficientnetv2-m/blocks_29/depthwise_conv2d/depthwise_bn_offset", "shape": [1056], "dtype": "float32"}, {"name": "StatefulPartitionedCall/efficientnetv2-m/blocks_53/conv2d/Conv2D_weights", "shape": [1, 1, 512, 3072], "dtype": "float32"}, {"name": "StatefulPartitionedCall/efficientnetv2-m/blocks_29/conv2d_1/Conv2D_weights", "shape": [1, 1, 1056, 176], "dtype": "float32"}, {"name": "StatefulPartitionedCall/efficientnetv2-m/blocks_53/conv2d/Conv2D_bn_offset", "shape": [3072], "dtype": "float32"}, {"name": "StatefulPartitionedCall/efficientnetv2-m/blocks_29/conv2d_1/Conv2D_bn_offset", "shape": [176], "dtype": "float32"}, {"name": "StatefulPartitionedCall/efficientnetv2-m/blocks_30/conv2d/Conv2D_weights", "shape": [1, 1, 176, 1056], "dtype": "float32"}, {"name": "StatefulPartitionedCall/efficientnetv2-m/blocks_30/conv2d/Conv2D_bn_offset", "shape": [1056], "dtype": "float32"}, {"name": "StatefulPartitionedCall/efficientnetv2-m/blocks_30/depthwise_conv2d/depthwise_weights", "shape": [3, 3, 1056, 1], "dtype": "float32"}, {"name": "StatefulPartitionedCall/efficientnetv2-m/blocks_30/depthwise_conv2d/depthwise_bn_offset", "shape": [1056], "dtype": "float32"}, {"name": "StatefulPartitionedCall/efficientnetv2-m/blocks_30/conv2d_1/Conv2D_weights", "shape": [1, 1, 1056, 176], "dtype": "float32"}, {"name": "StatefulPartitionedCall/efficientnetv2-m/blocks_53/depthwise_conv2d/depthwise_weights", "shape": [3, 3, 3072, 1], "dtype": "float32"}, {"name": "StatefulPartitionedCall/efficientnetv2-m/blocks_30/conv2d_1/Conv2D_bn_offset", "shape": [176], "dtype": "float32"}, {"name": "StatefulPartitionedCall/efficientnetv2-m/blocks_31/conv2d/Conv2D_weights", "shape": [1, 1, 176, 1056], "dtype": "float32"}, {"name": "StatefulPartitionedCall/efficientnetv2-m/blocks_31/conv2d/Conv2D_bn_offset", "shape": [1056], "dtype": "float32"}, {"name": "StatefulPartitionedCall/efficientnetv2-m/blocks_31/depthwise_conv2d/depthwise_weights", "shape": [3, 3, 1056, 1], "dtype": "float32"}, {"name": "StatefulPartitionedCall/efficientnetv2-m/blocks_31/depthwise_conv2d/depthwise_bn_offset", "shape": [1056], "dtype": "float32"}, {"name": "StatefulPartitionedCall/efficientnetv2-m/blocks_53/depthwise_conv2d/depthwise_bn_offset", "shape": [3072], "dtype": "float32"}, {"name": "StatefulPartitionedCall/efficientnetv2-m/blocks_31/conv2d_1/Conv2D_weights", "shape": [1, 1, 1056, 176], "dtype": "float32"}, {"name": "StatefulPartitionedCall/efficientnetv2-m/blocks_31/conv2d_1/Conv2D_bn_offset", "shape": [176], "dtype": "float32"}, {"name": "StatefulPartitionedCall/efficientnetv2-m/blocks_32/conv2d/Conv2D_weights", "shape": [1, 1, 176, 1056], "dtype": "float32"}, {"name": "StatefulPartitionedCall/efficientnetv2-m/blocks_32/conv2d/Conv2D_bn_offset", "shape": [1056], "dtype": "float32"}, {"name": "StatefulPartitionedCall/efficientnetv2-m/blocks_32/depthwise_conv2d/depthwise_weights", "shape": [3, 3, 1056, 1], "dtype": "float32"}, {"name": "StatefulPartitionedCall/efficientnetv2-m/blocks_32/depthwise_conv2d/depthwise_bn_offset", "shape": [1056], "dtype": "float32"}, {"name": "StatefulPartitionedCall/efficientnetv2-m/blocks_32/conv2d_1/Conv2D_weights", "shape": [1, 1, 1056, 176], "dtype": "float32"}, {"name": "StatefulPartitionedCall/efficientnetv2-m/blocks_32/conv2d_1/Conv2D_bn_offset", "shape": [176], "dtype": "float32"}, {"name": "StatefulPartitionedCall/efficientnetv2-m/blocks_33/conv2d/Conv2D_weights", "shape": [1, 1, 176, 1056], "dtype": "float32"}, {"name": "StatefulPartitionedCall/efficientnetv2-m/blocks_33/conv2d/Conv2D_bn_offset", "shape": [1056], "dtype": "float32"}, {"name": "StatefulPartitionedCall/efficientnetv2-m/blocks_33/depthwise_conv2d/depthwise_weights", "shape": [3, 3, 1056, 1], "dtype": "float32"}, {"name": "StatefulPartitionedCall/efficientnetv2-m/blocks_33/depthwise_conv2d/depthwise_bn_offset", "shape": [1056], "dtype": "float32"}, {"name": "StatefulPartitionedCall/efficientnetv2-m/blocks_33/conv2d_1/Conv2D_weights", "shape": [1, 1, 1056, 176], "dtype": "float32"}, {"name": "StatefulPartitionedCall/efficientnetv2-m/blocks_33/conv2d_1/Conv2D_bn_offset", "shape": [176], "dtype": "float32"}, {"name": "StatefulPartitionedCall/efficientnetv2-m/blocks_34/conv2d/Conv2D_weights", "shape": [1, 1, 176, 1056], "dtype": "float32"}, {"name": "StatefulPartitionedCall/efficientnetv2-m/blocks_34/conv2d/Conv2D_bn_offset", "shape": [1056], "dtype": "float32"}, {"name": "StatefulPartitionedCall/efficientnetv2-m/blocks_34/depthwise_conv2d/depthwise_weights", "shape": [3, 3, 1056, 1], "dtype": "float32"}, {"name": "StatefulPartitionedCall/efficientnetv2-m/blocks_34/depthwise_conv2d/depthwise_bn_offset", "shape": [1056], "dtype": "float32"}, {"name": "StatefulPartitionedCall/efficientnetv2-m/blocks_53/conv2d_1/Conv2D_weights", "shape": [1, 1, 3072, 512], "dtype": "float32"}, {"name": "StatefulPartitionedCall/efficientnetv2-m/blocks_34/conv2d_1/Conv2D_weights", "shape": [1, 1, 1056, 304], "dtype": "float32"}, {"name": "StatefulPartitionedCall/efficientnetv2-m/blocks_34/conv2d_1/Conv2D_bn_offset", "shape": [304], "dtype": "float32"}, {"name": "StatefulPartitionedCall/efficientnetv2-m/blocks_35/conv2d/Conv2D_weights", "shape": [1, 1, 304, 1824], "dtype": "float32"}, {"name": "StatefulPartitionedCall/efficientnetv2-m/blocks_53/conv2d_1/Conv2D_bn_offset", "shape": [512], "dtype": "float32"}, {"name": "StatefulPartitionedCall/efficientnetv2-m/blocks_35/conv2d/Conv2D_bn_offset", "shape": [1824], "dtype": "float32"}, {"name": "StatefulPartitionedCall/efficientnetv2-m/blocks_35/depthwise_conv2d/depthwise_weights", "shape": [3, 3, 1824, 1], "dtype": "float32"}, {"name": "StatefulPartitionedCall/efficientnetv2-m/blocks_35/depthwise_conv2d/depthwise_bn_offset", "shape": [1824], "dtype": "float32"}, {"name": "StatefulPartitionedCall/efficientnetv2-m/blocks_35/conv2d_1/Conv2D_weights", "shape": [1, 1, 1824, 304], "dtype": "float32"}, {"name": "StatefulPartitionedCall/efficientnetv2-m/blocks_54/conv2d/Conv2D_weights", "shape": [1, 1, 512, 3072], "dtype": "float32"}, {"name": "StatefulPartitionedCall/efficientnetv2-m/blocks_35/conv2d_1/Conv2D_bn_offset", "shape": [304], "dtype": "float32"}, {"name": "StatefulPartitionedCall/efficientnetv2-m/blocks_36/conv2d/Conv2D_weights", "shape": [1, 1, 304, 1824], "dtype": "float32"}, {"name": "StatefulPartitionedCall/efficientnetv2-m/blocks_56/conv2d_1/Conv2D_weights", "shape": [1, 1, 3072, 512], "dtype": "float32"}, {"name": "StatefulPartitionedCall/efficientnetv2-m/blocks_36/conv2d/Conv2D_bn_offset", "shape": [1824], "dtype": "float32"}, {"name": "StatefulPartitionedCall/efficientnetv2-m/blocks_36/depthwise_conv2d/depthwise_weights", "shape": [3, 3, 1824, 1], "dtype": "float32"}, {"name": "StatefulPartitionedCall/efficientnetv2-m/blocks_36/depthwise_conv2d/depthwise_bn_offset", "shape": [1824], "dtype": "float32"}, {"name": "StatefulPartitionedCall/efficientnetv2-m/blocks_54/conv2d/Conv2D_bn_offset", "shape": [3072], "dtype": "float32"}, {"name": "StatefulPartitionedCall/efficientnetv2-m/blocks_36/conv2d_1/Conv2D_weights", "shape": [1, 1, 1824, 304], "dtype": "float32"}, {"name": "StatefulPartitionedCall/efficientnetv2-m/blocks_36/conv2d_1/Conv2D_bn_offset", "shape": [304], "dtype": "float32"}, {"name": "StatefulPartitionedCall/efficientnetv2-m/blocks_37/conv2d/Conv2D_weights", "shape": [1, 1, 304, 1824], "dtype": "float32"}, {"name": "StatefulPartitionedCall/efficientnetv2-m/blocks_37/conv2d/Conv2D_bn_offset", "shape": [1824], "dtype": "float32"}, {"name": "StatefulPartitionedCall/efficientnetv2-m/blocks_37/depthwise_conv2d/depthwise_weights", "shape": [3, 3, 1824, 1], "dtype": "float32"}, {"name": "StatefulPartitionedCall/efficientnetv2-m/blocks_37/depthwise_conv2d/depthwise_bn_offset", "shape": [1824], "dtype": "float32"}, {"name": "StatefulPartitionedCall/efficientnetv2-m/blocks_54/depthwise_conv2d/depthwise_weights", "shape": [3, 3, 3072, 1], "dtype": "float32"}, {"name": "StatefulPartitionedCall/efficientnetv2-m/blocks_37/conv2d_1/Conv2D_weights", "shape": [1, 1, 1824, 304], "dtype": "float32"}, {"name": "StatefulPartitionedCall/efficientnetv2-m/blocks_54/depthwise_conv2d/depthwise_bn_offset", "shape": [3072], "dtype": "float32"}, {"name": "StatefulPartitionedCall/efficientnetv2-m/blocks_37/conv2d_1/Conv2D_bn_offset", "shape": [304], "dtype": "float32"}, {"name": "StatefulPartitionedCall/efficientnetv2-m/blocks_38/conv2d/Conv2D_weights", "shape": [1, 1, 304, 1824], "dtype": "float32"}, {"name": "StatefulPartitionedCall/efficientnetv2-m/blocks_38/conv2d/Conv2D_bn_offset", "shape": [1824], "dtype": "float32"}, {"name": "StatefulPartitionedCall/efficientnetv2-m/blocks_38/depthwise_conv2d/depthwise_weights", "shape": [3, 3, 1824, 1], "dtype": "float32"}, {"name": "StatefulPartitionedCall/efficientnetv2-m/blocks_38/depthwise_conv2d/depthwise_bn_offset", "shape": [1824], "dtype": "float32"}, {"name": "StatefulPartitionedCall/efficientnetv2-m/blocks_38/conv2d_1/Conv2D_weights", "shape": [1, 1, 1824, 304], "dtype": "float32"}, {"name": "StatefulPartitionedCall/efficientnetv2-m/blocks_38/conv2d_1/Conv2D_bn_offset", "shape": [304], "dtype": "float32"}, {"name": "StatefulPartitionedCall/efficientnetv2-m/blocks_39/conv2d/Conv2D_weights", "shape": [1, 1, 304, 1824], "dtype": "float32"}, {"name": "StatefulPartitionedCall/efficientnetv2-m/blocks_39/conv2d/Conv2D_bn_offset", "shape": [1824], "dtype": "float32"}, {"name": "StatefulPartitionedCall/efficientnetv2-m/blocks_39/depthwise_conv2d/depthwise_weights", "shape": [3, 3, 1824, 1], "dtype": "float32"}, {"name": "StatefulPartitionedCall/efficientnetv2-m/blocks_39/depthwise_conv2d/depthwise_bn_offset", "shape": [1824], "dtype": "float32"}, {"name": "StatefulPartitionedCall/efficientnetv2-m/blocks_39/conv2d_1/Conv2D_weights", "shape": [1, 1, 1824, 304], "dtype": "float32"}, {"name": "StatefulPartitionedCall/efficientnetv2-m/blocks_39/conv2d_1/Conv2D_bn_offset", "shape": [304], "dtype": "float32"}, {"name": "StatefulPartitionedCall/efficientnetv2-m/blocks_40/conv2d/Conv2D_weights", "shape": [1, 1, 304, 1824], "dtype": "float32"}, {"name": "StatefulPartitionedCall/efficientnetv2-m/blocks_56/conv2d_1/Conv2D_bn_offset", "shape": [512], "dtype": "float32"}, {"name": "StatefulPartitionedCall/efficientnetv2-m/blocks_40/conv2d/Conv2D_bn_offset", "shape": [1824], "dtype": "float32"}, {"name": "StatefulPartitionedCall/efficientnetv2-m/blocks_40/depthwise_conv2d/depthwise_weights", "shape": [3, 3, 1824, 1], "dtype": "float32"}, {"name": "StatefulPartitionedCall/efficientnetv2-m/blocks_40/depthwise_conv2d/depthwise_bn_offset", "shape": [1824], "dtype": "float32"}, {"name": "StatefulPartitionedCall/efficientnetv2-m/blocks_40/conv2d_1/Conv2D_weights", "shape": [1, 1, 1824, 304], "dtype": "float32"}, {"name": "StatefulPartitionedCall/efficientnetv2-m/blocks_40/conv2d_1/Conv2D_bn_offset", "shape": [304], "dtype": "float32"}, {"name": "StatefulPartitionedCall/efficientnetv2-m/blocks_41/conv2d/Conv2D_weights", "shape": [1, 1, 304, 1824], "dtype": "float32"}, {"name": "StatefulPartitionedCall/efficientnetv2-m/blocks_54/conv2d_1/Conv2D_weights", "shape": [1, 1, 3072, 512], "dtype": "float32"}, {"name": "StatefulPartitionedCall/efficientnetv2-m/blocks_41/conv2d/Conv2D_bn_offset", "shape": [1824], "dtype": "float32"}, {"name": "StatefulPartitionedCall/efficientnetv2-m/blocks_41/depthwise_conv2d/depthwise_weights", "shape": [3, 3, 1824, 1], "dtype": "float32"}, {"name": "StatefulPartitionedCall/efficientnetv2-m/blocks_41/depthwise_conv2d/depthwise_bn_offset", "shape": [1824], "dtype": "float32"}, {"name": "StatefulPartitionedCall/efficientnetv2-m/blocks_54/conv2d_1/Conv2D_bn_offset", "shape": [512], "dtype": "float32"}, {"name": "StatefulPartitionedCall/efficientnetv2-m/blocks_41/conv2d_1/Conv2D_weights", "shape": [1, 1, 1824, 304], "dtype": "float32"}, {"name": "StatefulPartitionedCall/efficientnetv2-m/blocks_41/conv2d_1/Conv2D_bn_offset", "shape": [304], "dtype": "float32"}, {"name": "StatefulPartitionedCall/efficientnetv2-m/blocks_42/conv2d/Conv2D_weights", "shape": [1, 1, 304, 1824], "dtype": "float32"}, {"name": "StatefulPartitionedCall/efficientnetv2-m/blocks_42/conv2d/Conv2D_bn_offset", "shape": [1824], "dtype": "float32"}, {"name": "StatefulPartitionedCall/efficientnetv2-m/blocks_42/depthwise_conv2d/depthwise_weights", "shape": [3, 3, 1824, 1], "dtype": "float32"}, {"name": "StatefulPartitionedCall/efficientnetv2-m/blocks_42/depthwise_conv2d/depthwise_bn_offset", "shape": [1824], "dtype": "float32"}, {"name": "StatefulPartitionedCall/efficientnetv2-m/blocks_55/conv2d/Conv2D_weights", "shape": [1, 1, 512, 3072], "dtype": "float32"}, {"name": "StatefulPartitionedCall/efficientnetv2-m/blocks_42/conv2d_1/Conv2D_weights", "shape": [1, 1, 1824, 304], "dtype": "float32"}, {"name": "StatefulPartitionedCall/efficientnetv2-m/blocks_55/conv2d/Conv2D_bn_offset", "shape": [3072], "dtype": "float32"}, {"name": "StatefulPartitionedCall/efficientnetv2-m/blocks_42/conv2d_1/Conv2D_bn_offset", "shape": [304], "dtype": "float32"}, {"name": "StatefulPartitionedCall/efficientnetv2-m/blocks_43/conv2d/Conv2D_weights", "shape": [1, 1, 304, 1824], "dtype": "float32"}, {"name": "StatefulPartitionedCall/efficientnetv2-m/blocks_43/conv2d/Conv2D_bn_offset", "shape": [1824], "dtype": "float32"}, {"name": "StatefulPartitionedCall/efficientnetv2-m/blocks_43/depthwise_conv2d/depthwise_weights", "shape": [3, 3, 1824, 1], "dtype": "float32"}, {"name": "StatefulPartitionedCall/efficientnetv2-m/blocks_43/depthwise_conv2d/depthwise_bn_offset", "shape": [1824], "dtype": "float32"}, {"name": "StatefulPartitionedCall/efficientnetv2-m/blocks_43/conv2d_1/Conv2D_weights", "shape": [1, 1, 1824, 304], "dtype": "float32"}, {"name": "StatefulPartitionedCall/efficientnetv2-m/blocks_55/depthwise_conv2d/depthwise_weights", "shape": [3, 3, 3072, 1], "dtype": "float32"}, {"name": "StatefulPartitionedCall/efficientnetv2-m/blocks_43/conv2d_1/Conv2D_bn_offset", "shape": [304], "dtype": "float32"}, {"name": "StatefulPartitionedCall/efficientnetv2-m/blocks_44/conv2d/Conv2D_weights", "shape": [1, 1, 304, 1824], "dtype": "float32"}, {"name": "StatefulPartitionedCall/efficientnetv2-m/blocks_44/conv2d/Conv2D_bn_offset", "shape": [1824], "dtype": "float32"}, {"name": "StatefulPartitionedCall/efficientnetv2-m/blocks_44/depthwise_conv2d/depthwise_weights", "shape": [3, 3, 1824, 1], "dtype": "float32"}, {"name": "StatefulPartitionedCall/efficientnetv2-m/blocks_44/depthwise_conv2d/depthwise_bn_offset", "shape": [1824], "dtype": "float32"}, {"name": "StatefulPartitionedCall/efficientnetv2-m/blocks_55/depthwise_conv2d/depthwise_bn_offset", "shape": [3072], "dtype": "float32"}, {"name": "StatefulPartitionedCall/efficientnetv2-m/blocks_44/conv2d_1/Conv2D_weights", "shape": [1, 1, 1824, 304], "dtype": "float32"}, {"name": "StatefulPartitionedCall/efficientnetv2-m/blocks_44/conv2d_1/Conv2D_bn_offset", "shape": [304], "dtype": "float32"}, {"name": "StatefulPartitionedCall/efficientnetv2-m/blocks_45/conv2d/Conv2D_weights", "shape": [1, 1, 304, 1824], "dtype": "float32"}, {"name": "StatefulPartitionedCall/efficientnetv2-m/blocks_45/conv2d/Conv2D_bn_offset", "shape": [1824], "dtype": "float32"}, {"name": "StatefulPartitionedCall/efficientnetv2-m/blocks_45/depthwise_conv2d/depthwise_weights", "shape": [3, 3, 1824, 1], "dtype": "float32"}, {"name": "StatefulPartitionedCall/efficientnetv2-m/blocks_45/depthwise_conv2d/depthwise_bn_offset", "shape": [1824], "dtype": "float32"}, {"name": "StatefulPartitionedCall/efficientnetv2-m/head/conv2d/Conv2D_weights", "shape": [1, 1, 512, 1280], "dtype": "float32"}, {"name": "StatefulPartitionedCall/efficientnetv2-m/blocks_45/conv2d_1/Conv2D_weights", "shape": [1, 1, 1824, 304], "dtype": "float32"}, {"name": "StatefulPartitionedCall/efficientnetv2-m/blocks_45/conv2d_1/Conv2D_bn_offset", "shape": [304], "dtype": "float32"}, {"name": "StatefulPartitionedCall/efficientnetv2-m/blocks_46/conv2d/Conv2D_weights", "shape": [1, 1, 304, 1824], "dtype": "float32"}, {"name": "StatefulPartitionedCall/efficientnetv2-m/blocks_46/conv2d/Conv2D_bn_offset", "shape": [1824], "dtype": "float32"}, {"name": "StatefulPartitionedCall/efficientnetv2-m/blocks_46/depthwise_conv2d/depthwise_weights", "shape": [3, 3, 1824, 1], "dtype": "float32"}, {"name": "StatefulPartitionedCall/efficientnetv2-m/blocks_46/depthwise_conv2d/depthwise_bn_offset", "shape": [1824], "dtype": "float32"}, {"name": "StatefulPartitionedCall/efficientnetv2-m/blocks_46/conv2d_1/Conv2D_weights", "shape": [1, 1, 1824, 304], "dtype": "float32"}, {"name": "StatefulPartitionedCall/efficientnetv2-m/blocks_46/conv2d_1/Conv2D_bn_offset", "shape": [304], "dtype": "float32"}, {"name": "StatefulPartitionedCall/efficientnetv2-m/blocks_47/conv2d/Conv2D_weights", "shape": [1, 1, 304, 1824], "dtype": "float32"}, {"name": "StatefulPartitionedCall/efficientnetv2-m/blocks_47/conv2d/Conv2D_bn_offset", "shape": [1824], "dtype": "float32"}, {"name": "StatefulPartitionedCall/efficientnetv2-m/blocks_47/depthwise_conv2d/depthwise_weights", "shape": [3, 3, 1824, 1], "dtype": "float32"}, {"name": "StatefulPartitionedCall/efficientnetv2-m/blocks_47/depthwise_conv2d/depthwise_bn_offset", "shape": [1824], "dtype": "float32"}, {"name": "StatefulPartitionedCall/efficientnetv2-m/blocks_55/conv2d_1/Conv2D_weights", "shape": [1, 1, 3072, 512], "dtype": "float32"}, {"name": "StatefulPartitionedCall/efficientnetv2-m/blocks_47/conv2d_1/Conv2D_weights", "shape": [1, 1, 1824, 304], "dtype": "float32"}, {"name": "StatefulPartitionedCall/efficientnetv2-m/head/conv2d/Conv2D_bn_offset", "shape": [1280], "dtype": "float32"}, {"name": "StatefulPartitionedCall/efficientnetv2-m/blocks_47/conv2d_1/Conv2D_bn_offset", "shape": [304], "dtype": "float32"}, {"name": "StatefulPartitionedCall/efficientnetv2-m/blocks_48/conv2d/Conv2D_weights", "shape": [1, 1, 304, 1824], "dtype": "float32"}, {"name": "StatefulPartitionedCall/efficientnetv2-m/blocks_55/conv2d_1/Conv2D_bn_offset", "shape": [512], "dtype": "float32"}, {"name": "StatefulPartitionedCall/efficientnetv2-m/blocks_48/conv2d/Conv2D_bn_offset", "shape": [1824], "dtype": "float32"}, {"name": "StatefulPartitionedCall/efficientnetv2-m/blocks_48/depthwise_conv2d/depthwise_weights", "shape": [3, 3, 1824, 1], "dtype": "float32"}, {"name": "StatefulPartitionedCall/efficientnetv2-m/blocks_48/depthwise_conv2d/depthwise_bn_offset", "shape": [1824], "dtype": "float32"}, {"name": "StatefulPartitionedCall/efficientnetv2-m/blocks_48/conv2d_1/Conv2D_weights", "shape": [1, 1, 1824, 304], "dtype": "float32"}, {"name": "StatefulPartitionedCall/efficientnetv2-m/blocks_56/conv2d/Conv2D_weights", "shape": [1, 1, 512, 3072], "dtype": "float32"}, {"name": "StatefulPartitionedCall/efficientnetv2-m/blocks_48/conv2d_1/Conv2D_bn_offset", "shape": [304], "dtype": "float32"}, {"name": "StatefulPartitionedCall/efficientnetv2-m/blocks_49/conv2d/Conv2D_weights", "shape": [1, 1, 304, 1824], "dtype": "float32"}, {"name": "StatefulPartitionedCall/efficientnetv2-m/blocks_49/conv2d/Conv2D_bn_offset", "shape": [1824], "dtype": "float32"}, {"name": "StatefulPartitionedCall/efficientnetv2-m/blocks_49/depthwise_conv2d/depthwise_weights", "shape": [3, 3, 1824, 1], "dtype": "float32"}, {"name": "StatefulPartitionedCall/efficientnetv2-m/blocks_49/depthwise_conv2d/depthwise_bn_offset", "shape": [1824], "dtype": "float32"}, {"name": "StatefulPartitionedCall/efficientnetv2-m/blocks_56/conv2d/Conv2D_bn_offset", "shape": [3072], "dtype": "float32"}]}]}